best_4.pt (torch, 652330 bytes, 25 tensors)

weight f4 [120, 3]
00000000: 1c3e 09be 071f 19bd 3e0d 83bd db81 babd
00000010: 360e acbc 194b 9b3e f810 50be 1105 d93e
00000020: 636d 0fbf f9bc 06bf dcd9 05be e48a 31bd
00000030: d2d8 0abf 817f 0cbf b7d2 d3be 79e0 adbe
00000040: 19b4 063e 5e35 e9be fd92 73be e483 9fbe
00000050: db02 1dbe 1e12 d2be 1980 0cbf 0d82 2abe
00000060: 728a 013f 5118 11bf a490 b93e ce1a 09be
00000070: a602 55be a461 9abd 5658 4fbe 7ac3 08bf
00000080: f7cd 4c3e 1908 893e 0655 0abf f0e5 e0be
00000090: a736 b7be 647f 77be 9e15 c93e b51a e03e
000000a0: b3dc 0cbe 6ff0 643e 8041 aa3e d0f0 843e
000000b0: 8aa3 803d a459 02bf 5c20 0f3e 377a 583e
000000c0: 6348 14bf e7ae 023f 1668 febe 13b4 4fbe
000000d0: 1aa0 0dbd 309f 4e3d bf70 e93e acec 67be
000000e0: 6b6f bcbe fd3b a03e ae20 33bd b3f7 f63e
000000f0: c970 d7be 621a fe3b 5e2c 063f 88f2 743e
00000100: 25d8 123e 21b9 0ebf 6d2e af3d 71b9 0f3f
00000110: 87fe 1d3e 449f 503e 43c8 b8be ff81 4c3c
00000120: 63ad f03e fc0e c93c e94a 97be f893 eabe
00000130: d71f fc3e 9f2a 0abf d145 c43e a3b3 32bd
00000140: 6458 f1be 33b9 aa3e 5e2a b1bd f9ed d1be
00000150: 6d89 783d 538b 06bf 8e11 cc3e 1d2a c03e
00000160: 4823 503e 349c 8a3d 810f ca3c c2be 6e3e
00000170: 9e6c 9ebe adf8 03bf 1570 083f 27ec 33be
00000180: b0e3 14bf f795 cebb 8813 083f 021a bf3c
00000190: c65b af3e 053e c3be 5f23 e93c 02f8 4ebe
000001a0: 2b64 bbbe 634e bebe e40b af3d 2bc1 193d
000001b0: 1e72 ff3e 815d 1fbe c812 ce3e 0a7d 123d
000001c0: 8144 0bbf f7ce b43e 44a0 60be df2f 7a3e
000001d0: 3e5c 85be 4f1e 783d 7b6e 933e ceef 883e
000001e0: 2e39 bcbe 97b8 a33e c82e 003f 0a6d c23e
000001f0: 1d54 f2be 583e 123e 480a c33e a31b 963e
00000200: 331d a7be 3e89 a1be 13ac 833e 33cf 6f3e
00000210: 00e5 d1be 38e2 07be 25d8 793d a385 2bbe
00000220: 0980 b0be cb0a e43e 40d4 013e 0647 ad3e
00000230: da16 eebe 1685 eebe ebaf 86be e323 e33e
00000240: 1cce 5abe 46af 43be 4057 fc3e 241a 933e
00000250: 16bc 32bd 280d 73be 7a7b 923d 19a1 0ebe
00000260: aff6 a0be 929b 35be 678b 523e 568a d43e
00000270: 131d 023f 5eb5 b53e 21f4 053f 8537 5cbe
00000280: 50a1 dbbe 0d5c 9cbe b3c6 06bf bd86 d6be
00000290: a671 aabe b1e3 63be 7d50 e73e b9e8 aa3e
000002a0: 1d93 87be d3e5 41bd f995 103f 4ee6 2abe
000002b0: 26ad 883e d8a2 ee3d 612b d23e 6dd6 b3be
000002c0: fc67 4abe 7cd2 003f 66f8 0a3e e336 46be
000002d0: 28f7 09bf e9c5 12bd 02cf 0ebf 902a c83e
000002e0: 0cbe a83d ed65 5e3e 7d20 443d 3c5d dd3e
000002f0: 939d 9a3d 5748 d6be f55c 263d 45f5 eebd
00000300: 43a2 abbd d2de 17be 1697 683e eeef 673e
00000310: 8ace dcbe 5a3e dc3e 7777 063f d136 2ebe
00000320: 5e7e c7be 3c30 7c3e 1785 9dbe 9138 b1bd
00000330: 33e7 ed3e b06e 7dbe 4521 88be bc69 343e
00000340: 19e3 b9be 9290 913d 4785 043f 76b2 6bbc
00000350: cb04 db3e 519e d03d 9451 f1be 0800 0ebf
00000360: 71a1 8fbd 2381 e3be 8178 de3e bcf0 c43e
00000370: b390 d6be a059 d5bd 23c6 063f bcba ea3e
00000380: 3b56 4bbe 8d70 d43e f8e2 053e bdc8 edbe
00000390: c830 d93e 6bbf d03e e6ee 8fbe a4c9 f2be
000003a0: a177 49be b510 f93e b786 f73e 15f7 41bd
000003b0: ea5f c8bd 4867 e6be 832e d9be 0115 a4be
000003c0: a12c 7ebe a5e7 c4be fbba 09be f0a4 f4be
000003d0: 94a1 b43e 70b5 c9be 1839 cf3e 88b8 fa3e
000003e0: f2f3 bcbe 9632 093f 5d14 dbbe 462c c53e
000003f0: d507 48be 35f3 d43e 32fe fa3d fccb 92bd
-0.13402599 -0.037383106 -0.0639901 -0.09106799 -0.02100287 0.30330732 -0.20318973 0.42386678
-0.56026286 -0.526321 -0.13071388 -0.043345347 -0.5423709 -0.54882056 -0.413717 -0.33960322
0.1315464 -0.45548528 -0.2378654 -0.31155312 -0.1533312 -0.41029447 -0.5488296 -0.16651173
0.50601876 -0.5667773 0.36243165 -0.13389131 -0.20801792 -0.07538155 -0.20248541 -0.53423274
0.20000444 0.2676399 -0.54035985 -0.43925428 -0.35783884 -0.2416969 0.39274305 0.43770376
-0.13756065 0.22357343 0.33253098 0.25964975 0.062811926 -0.5091803 0.13977188 0.21140371
-0.57922953 0.5104813 -0.49688786 -0.20283537 -0.034576513 0.05044478 0.4559383 -0.22648877
-0.36803755 0.31295767 -0.043732338 0.48235855 -0.42078236 0.00775461 0.5241145 0.23920643
0.14340265 -0.55751234 0.08553777 0.56142336 0.15429126 0.20373255 -0.36090288 0.012482165
0.47007284 0.024543278 -0.2954934 -0.45816016 0.49243042 -0.53971285 0.38334516 -0.043628346
-0.4713775 0.3334442 -0.08650659 -0.4100187 0.060677934 -0.5255634 0.39857143 0.3753213
0.20325959 0.06768075 0.024665596 0.23314956 -0.30942243 -0.51551324 0.53296024 -0.17570554
-0.58159924 -0.0063044983 0.531548 0.023327831 0.34249705 -0.38133255 0.028459249 -0.20211795
-0.3659986 -0.3716918 0.0854719 0.037537735 0.49891752 -0.15563013 0.40248704 0.035763778
-0.54401404 0.35314152 -0.21936136 0.24432324 -0.26046938 0.06057578 0.28795227 0.26745456
-0.36762375 0.31976768 0.5007138 0.37973815 -0.47329798 0.14281595 0.3809378 0.2931796
-0.32639465 -0.3155002 0.2571722 0.23418884 -0.40995026 -0.1326989 0.060997147 -0.16750197
-0.34472683 0.44539484 0.12678623 0.3384325 -0.4650181 -0.46585912 -0.2630609 0.44363317
-0.21367687 -0.1910983 0.49285316 0.2873088 -0.043636404 -0.23735487 0.071524575 -0.13928641
-0.31438205 -0.17735127 0.2056099 0.41511792 0.50825614 0.35489935 0.52325636 -0.21505554
-0.4289651 -0.3053898 -0.5264694 -0.41899672 -0.33289832 -0.22254826 0.45178595 0.33380678
-0.26479426 -0.047338318 0.5647884 -0.16689417 0.26694602 0.11652154 0.4104872 -0.3512453
-0.1976623 0.50321174 0.13571319 -0.19356875 -0.53892756 -0.035833273 -0.5578462 0.39094973
0.082393736 0.21718569 0.047882546 0.43235195 0.07549586 -0.41852066 0.040615994 -0.11667875
-0.08380558 -0.14831093 0.22713885 0.2265012 -0.43126327 0.4301632 0.5252604 -0.17013098
-0.38963598 0.24627775 -0.30765602 -0.08653367 0.46465454 -0.24749255 -0.26587883 0.1761846
-0.36306074 0.07107653 0.51765865 -0.01438581 0.42777094 0.101864465 -0.47132552 -0.554688
-0.070132144 -0.4443446 0.43451312 0.38464916 -0.41907272 -0.10417485 0.5264608 0.45845592
-0.19857113 0.4149212 0.13074863 -0.46442214 0.4242003 0.4077104 -0.28111953 -0.47419465
-0.19674541 0.4864556 0.48344967 -0.047354776 -0.09783919 -0.45000672 -0.42418298 -0.32047275
-0.24821712 -0.3845798 -0.13450234 -0.47782087 0.35279524 -0.39396238 0.40473247 0.4896891
-0.36904866 0.53592813 -0.42788973 0.3851034 -0.19534238 0.41591802 0.12255515 -0.07167813

bias f4 [120]
00000000: e560 e7be 4412 abbd 5b1a 0ebf 59da bebc
00000010: 0bc8 a53e dcc4 4dbe 4e09 57be 8ea6 db3d
00000020: b357 ac3e d1b3 023f 1651 603e 5d1e c33e
00000030: b13e e0bd a797 e5be 59a2 d23e 5c08 a93e
00000040: 1c1b 99be f7b6 e7be 555d 8e3e edae 8abd
00000050: 6f4a 0abf 0a98 fb3e 3530 0bbd a9ab 9f3e
00000060: 814c efbe e6fe 08be 8638 14bf 64bc 983e
00000070: 3bf9 5f3e dce2 41be b81c eabe be4e 143e
00000080: a33b b6be 8abb e2be 03df e2be 6a5c 713d
00000090: addf c3bd 590a e5be c19a 8bbd 03ef 6c3c
000000a0: 95e3 b1be 979f f93e fe0a 0e3f 36ed e2be
000000b0: c0e5 8cbe 507a 013f f4e9 0ebe a816 0c3f
000000c0: 493b f6be f595 fb3e daa7 993e 47a9 f8be
000000d0: a26d 3fbe 5e93 e23e ae2e 10bf 3660 e4be
000000e0: 1743 0ebf 7688 24be 3546 f63e 42a0 81bd
000000f0: bc1b e63d 1ace e0be ecaa 5f3e 0bab 2b3e
00000100: 2156 ebbe 3aaa c1be dfea 3abd 181b 9abe
00000110: 69c2 25be 1a58 573e 6ea9 ecbe 7747 3abd
00000120: d0f1 c6be 6936 fbbe 9660 96be b4ed 723e
00000130: 7734 d6be 0135 d73d 2ade e2bd 2c5d 303e
00000140: 86d6 b53e fa24 0d3f e6c3 0b3d 15c1 08be
00000150: e1d0 8a3e 5395 243e 0d2f b33d 392f 993e
00000160: 53fe 053f cce4 04be 8f9f d5bd 0e37 69be
00000170: 8c01 af3e 3de1 083f 2aa6 cc3d 32d1 a4be
00000180: 388e 9abe ddf0 2cbd 3989 ed3e a690 02bd
00000190: 6783 eebe 34ed b1be faf1 a8be 131b aabe
000001a0: a16c 683e fcc3 e03e d034 aa3e 3b9a 9cbe
000001b0: b6ab 49be eefe f7bd 42e7 b1be b43b d9bd
000001c0: da73 04bf 2a60 a33e 80a1 fbbe f248 dcbd
000001d0: dcc6 98be 8713 c6be 74a2 093f 1c89 4bbe
-0.45191112 -0.08353093 -0.55508965 -0.023297476 0.32379183 -0.20094627 -0.20999643 0.10725127
0.3366066 0.5105563 0.21905932 0.38109103 -0.109494574 -0.44842264 0.41139486 0.3301419
-0.29903495 -0.4525678 0.27805582 -0.06771646 -0.54019827 0.49139434 -0.03398152 0.31185654
-0.46738055 -0.13378486 -0.5789875 0.2983123 0.21872418 -0.18934196 -0.45725036 0.14483163
-0.35592374 -0.44283706 -0.4431077 0.058926024 -0.09564147 -0.44734457 -0.06816626 0.014461282
-0.34743944 0.4875457 0.5548552 -0.44321603 -0.27519035 0.5057726 -0.13956434 0.5472207
-0.48092106 0.49137846 0.30010873 -0.48566648 -0.18694165 0.44253057 -0.5632123 -0.44604653
-0.5557112 -0.1606768 0.4810044 -0.06329395 0.11235759 -0.43907243 0.21842545 0.16764466
-0.4596415 -0.37825185 -0.045634147 -0.30098796 -0.16187443 0.21029702 -0.46223015 -0.04547831
-0.38856363 -0.4906495 -0.29370564 0.23723489 -0.41836902 0.105081566 -0.11077531 0.17223042
0.3551523 0.55134547 0.03412237 -0.13354905 0.27112487 0.16072588 0.087492086 0.2991884
0.5234119 -0.12977904 -0.10430824 -0.22774908 0.34180868 0.53468686 0.09992631 -0.32190853
-0.3018663 -0.042221893 0.46393755 -0.03187623 -0.46584627 -0.34751284 -0.32997113 -0.3322378
0.22697689 0.43899524 0.33243418 -0.30586419 -0.19694409 -0.12109171 -0.34746748 -0.106070906
-0.51739275 0.31909305 -0.49146652 -0.10756101 -0.29839218 -0.38686773 0.5376351 -0.19876522

weight f4 [1, 120]
00000000: 09e8 a73d cb9e 63bd 1ed3 393d d10d b0bd
00000010: 4a33 bd3d 4182 05bd ec9b a43d 4cef a5bd
00000020: d200 e1bc 9ca7 853d 2650 6c3d 52c6 303d
00000030: 6058 81bd 4e82 bfbd 119b 413d 37c0 6b3d
00000040: e207 9fbd 802b a1bd f39b 25bb 6b25 eb3c
00000050: d224 51bc 28ea f8bc 4c22 6bbd c945 01bd
00000060: 8dcf 8f3c 9e85 eebc 492e 953c d07a afbd
00000070: d8d6 69bd e59d 85bd 78ab b23d 3063 8cbd
00000080: cc87 8ebd cd7a 953b 5694 3e3d ac53 6e3d
00000090: 6dd1 98bc c8c3 af3c ae99 5bbc 7311 b33d
000000a0: 86b9 88bc c3d6 d6bc f97f 65bc dfa1 c13d
000000b0: b5aa b33d 388e f53b bccb b2bd 8a4b aa3d
000000c0: ec83 ff3a d20d 8ebc 7a04 2e3d 95f3 59bd
000000d0: fdcd 023d e483 cabc 1713 b83d 7571 453d
000000e0: 26fd 8e3d a819 8e3d a105 94bd 9a96 b83b
000000f0: 6eaa 983c 1674 eabc 3821 8ebc f85e 7b3d
00000100: 7378 b8bd be2d 573c c509 aebd ad49 a13d
00000110: ecea a7bd bcf8 bbbc 9e6c 6f3d 868c 52bb
00000120: 104a 753d 3765 893c 9664 98bc fc9e 6b3d
00000130: 19ca 82bd 7ae5 663d 9b4a df3c 5848 573d
00000140: bbb2 ca3c ad03 983d ddeb 463d d869 fe3c
00000150: c754 a63d 40e1 903d ad8d 543c 7f9f d3bc
00000160: b1a3 6bbd fee7 a2bd 4715 cdbc ba97 e1b9
00000170: ff8b 43bc d2f2 9f3d 54ad 2dbd ab5a 4ebd
00000180: 46f8 86bd b34c f03c 43bc 0b3d 3e19 0c3d
00000190: e660 4a3d 530c 953d b9c5 893d c4f7 2b3d
000001a0: 1079 853d 2e3d d63c 8493 803d 0116 b1bd
000001b0: 45d4 aebd 0406 233d 7281 94bc d9dc ebbc
000001c0: 6305 793d 5ae5 39bc 25f7 a23d 41ba 083d
000001d0: f47c c2bd 7b72 9c3d d0d8 a9bd 6e52 1d3d
0.08198554 -0.05557136 0.045367353 -0.08596385 0.09238298 -0.032594923 0.08037552 -0.08102283
-0.027466211 0.065261096 0.057693623 0.043157883 -0.06315684 -0.093510255 0.047267023 0.057556357
-0.077651754 -0.07869625 -0.0025269955 0.028704366 -0.012765126 -0.030385092 -0.057405755 -0.031560693
0.017555023 -0.029116448 0.018210547 -0.085683465 -0.057089657 -0.065242566 0.08724111 -0.06854856
-0.06959495 0.004561758 0.046528183 0.058185264 -0.01865455 0.02145566 -0.013403339 0.087435625
-0.016690027 -0.026225453 -0.014007562 0.094547026 0.08772794 0.0074937604 -0.087302655 0.08315189
0.0019494272 -0.017340574 0.042484738 -0.053210814 0.031934727 -0.024721093 0.08988016 0.048203904
0.06981878 0.06938487 -0.07227636 0.0056331875 0.018635955 -0.028619807 -0.017349824 0.061369866
-0.09007349 0.013133464 -0.08497957 0.07875381 -0.08199105 -0.022945754 0.058453195 -0.0032127216
0.059885085 0.016771896 -0.01860265 0.057524666 -0.06386203 0.05637119 0.027257254 0.052559227
0.024743428 0.07422576 0.04856478 0.03105633 0.08121639 0.07074213 0.012973231 -0.02583289
-0.057529155 -0.07954405 -0.02503456 -0.0004302839 -0.011935233 0.07809986 -0.042401627 -0.050379436
-0.06590323 0.029333448 0.034115087 0.03420376 0.049408816 0.07277741 0.06727166 0.041984335
0.065172315 0.02615222 0.062781364 -0.08646775 -0.08536581 0.03980066 -0.01812813 -0.028791832
0.060796153 -0.011346186 0.07957295 0.03338075 -0.09496489 0.07639023 -0.08293307 0.03840869

weight f4 [120, 120]
00000000: e13b 76bd aad0 a2bd 9ee9 273d 3c8d 583d
00000010: 795e 73bd ea92 903d 1a78 92bd 2c1b 873d
00000020: b592 cc3a ce9b d83c b519 b4bd 8836 4b3c
00000030: 8277 eebb 837d 85bc 11ec 973d 17e5 41bd
00000040: 41f7 603d 2fdb 2bbc 497f 9dbd d27a 30bd
00000050: da15 24bb 0c35 5cbd 812c 8d3c b0c0 4bbd
00000060: 54f4 a43d 6708 263d 7a31 bebd ec9f 8fbd
00000070: bb0b 99bd 2d40 fbbc 0cf6 a9bc 26fb 893d
00000080: be5d 87bd e8c7 8abc 64d0 2ebd f771 acbd
00000090: 598a bf3d 7d7c 5f3d 9dd5 193d a4c3 84bc
000000a0: bff7 283c 2c65 233d d549 b93d fe7d 4cbd
000000b0: d6d1 69bd cf2e eebc 7523 40bd 0753 b7bc
000000c0: c550 6f3d a485 d23c 431d a7bd f19f 6e3d
000000d0: b431 4e3d 075e f23b bf37 35bb 29c1 52bd
000000e0: 5a3f 29bd f3ba f13c 8e2b 543c a871 9fbd
000000f0: b63c 6e3c c581 97bc 38cf 8c3d 0865 40bd
00000100: 4ed1 f1bb 3e30 7cbd c177 41bb da91 23bd
00000110: 9a51 3e3d f131 26bd c5af 683d 89d7 6e3d
00000120: 04c4 643d b6be 8e3d 0182 a0bc 0da4 093d
00000130: 8150 a8bd 1399 8a3c 1e7b e6bc 4ad8 dabb
00000140: 612f 9dbd 3371 08bd 8eae 3e3c b93c a83d
00000150: acc2 bdbc 17e5 c7ba 9852 6b3d bce7 d9bc
00000160: a72d 24bd 4f26 b1bc 4b38 11bd f8f3 c0bd
00000170: eee0 793c c159 cdbc 52e3 3cbd 5d85 a93b
00000180: ca29 9ebd 09a3 61bd 1df2 383b 3c24 6bbd
00000190: d273 433d 4a76 893d 03f3 f13c 895a c23c
000001a0: 46fe e53c 9cc2 b13d 7e10 48bd c506 79bd
000001b0: 6163 1abd e1ed 1dbd f607 abbd 0971 363d
000001c0: 73a6 a33d cde0 443a 9e22 8abd c7ac 323d
000001d0: ee9c a63d fe96 003d ba5d 1e3c 3b05 fc3c
000001e0: 069f 1ebd aa8d 583b a7c3 6ebd 4af8 423d
000001f0: c41f 363d 9406 a1bd 6f2e b13d 1c8b 6bbd
00000200: dc74 843d 5d64 d9bc 81b1 a33d 500b abbc
00000210: 396e ba3d 9883 53bc 6a30 22ba 1821 a73d
00000220: 6c0f d73c afcd 9a3d 4b9f 8bbb 9bb2 4b3d
00000230: aa22 6d3c d785 7c3d 220d 0ebd d67d 383c
00000240: c533 823d 0b9b b83d 0ef9 2b3b df43 a9bd
00000250: 89ba fcbc bc2b 7fbc 1e17 acbc a9e9 913d
00000260: 699b 32bd b935 793d c00f 14bd 4d07 16bc
00000270: 6baf 71bc 6694 b3bc ecc9 5ebd e92d cd3c
00000280: a4a2 243d 3e6c 4d3d 1a1f 763d e653 35bc
00000290: 2f30 b33d ae2d ab3d e74a f33b 4f3b 853c
000002a0: 9892 9f3d 70ba c43c 430e 03bd c46a a8bd
000002b0: c17d 973c f116 b1bd d3b7 b1bc 079e 953d
000002c0: 6359 463b b652 9ebd f390 82bd 2525 07bd
000002d0: 743f 57bb 4e17 923d 0bef 0dbd 3c82 933d
000002e0: fb85 073c 9e7c 053d a98b 463d 112d c43d
000002f0: 83ed 2e3d 11f0 c3bd b366 51bd 7a41 fdbc
00000300: 2b84 d73c 6064 79ba 98a9 023c 4245 f9bc
00000310: dceb a2bd b420 393d 9275 febc c51f e2bc
00000320: d3eb 57bd bf40 1bbc cd51 913c 163c 9d3d
00000330: eebc e13c c5b7 8dbd eaee 053d 720a 86bd
00000340: a797 f6bc b228 33bd 6dd9 1c3c 6cbc 90bd
00000350: 9844 3a3d 35df 46bc a7f7 6abd aaaa 733c
00000360: 1ef2 c53d 8647 a7bd 50b1 693d 00ff 50bc
00000370: 1772 9d3b 4352 54bd 018b a6bd acff b7bd
00000380: 804b 01bb 6f20 383d a9d2 a1bd 4303 473d
00000390: 7208 3b3c cc72 2d3d c7b7 10bd ff0e 54bd
000003a0: 7caa 8abd 7409 a7bc 648e aa3d 993c ff3c
000003b0: a1ce a13c 5d1e 223c 7574 be3c 1813 e3bc
000003c0: cfbd 0e3d 3765 55bd fd8e 6c3d ad16 ae3b
000003d0: e700 933d 2eaf c0bc bc62 c13c 9181 993d
000003e0: f0fe c23d 9dcb 88bd 6d50 90bd e908 423d
000003f0: b227 a33d 0a48 aa3d e795 8a3d 0eee fb3c
-0.0601157 -0.07949956 0.04099428 0.052869067 -0.059416268 0.07059272 -0.07151814 0.065969795
0.0015607687 0.026441481 -0.08793966 0.012403138 -0.00727743 -0.0162952 0.07418073 -0.047337618
0.0549233 -0.010489269 -0.07690293 -0.04308588 -0.0025037439 -0.053761527 0.017233135 -0.049744308
0.080544144 0.040535357 -0.09286781 -0.070129246 -0.074729405 -0.03067025 -0.020747207 0.06737356
-0.06609677 -0.016941026 -0.042679206 -0.084201746 0.093525596 0.05456208 0.037557233 -0.01620657
0.0103129735 0.039891407 0.090472855 -0.049924843 -0.05708488 -0.029075054 -0.046908814 -0.022378458
0.058426637 0.02569849 -0.08159878 0.058258 0.05034037 0.007396463 -0.0027651635 -0.051453743
-0.041320182 0.02950809 0.012949837 -0.0778535 0.014540842 -0.018494496 0.06875461 -0.04697135
-0.0073796874 -0.061569445 -0.0029520842 -0.039934017 0.04646454 -0.04057497 0.056808252 0.05831102
0.055850998 0.06969969 -0.01959324 0.033603717 -0.0821848 0.016918695 -0.028134879 -0.0066786157
-0.076750524 -0.03331108 0.011638297 0.08214707 -0.023164116 -0.0015250769 0.057451814 -0.026599757
-0.0400826 -0.021624712 -0.035454076 -0.09421533 0.015251381 -0.025067212 -0.046115227 0.005173369
-0.077228144 -0.055087123 0.0028220483 -0.057407603 0.047717877 0.06712015 0.029534822 0.023724811
0.028075349 0.08679697 -0.048843853 -0.06079747 -0.03769243 -0.038556937 -0.08351128 0.044541392
0.07990732 0.00075103046 -0.06744884 0.043621805 0.08135401 0.031393997 0.009665901 0.030764213
-0.038725875 0.0033043423 -0.058292057 0.04760007 0.044463888 -0.07862583 0.08651435 -0.057505712
0.06467602 -0.026537115 0.079928406 -0.020879418 0.091030546 -0.012909792 -0.0006187024 0.08160609
0.02625247 0.07558762 -0.0042609326 0.04973088 0.014473597 0.061651077 -0.034680493 0.01126047
0.063575305 0.09013947 0.0026240977 -0.082648985 -0.030850666 -0.015574392 -0.021007117 0.07124645
-0.043605242 0.06084225 -0.036147833 -0.009157014 -0.014751296 -0.021921348 -0.054391786 0.025046306
0.04019417 0.050152056 0.060088255 -0.011067366 0.08749425 0.08358322 0.0074247005 0.016263632
0.077916324 0.024014682 -0.031996023 -0.08223489 0.018492581 -0.08646954 -0.0216941 0.07305532
0.003026568 -0.077306196 -0.06375303 -0.03299441 -0.0032844217 0.07133351 -0.034651797 0.072025746
0.0082716895 0.032589547 0.048473034 0.09578908 0.042706978 -0.095672734 -0.051123332 -0.03091501
0.02630814 -0.0009513553 0.007975005 -0.030428533 -0.07955143 0.045197204 -0.031061921 -0.02760304
-0.052715134 -0.009475886 0.017739201 0.07677476 0.027555909 -0.06919817 0.03269855 -0.06544961
-0.03010161 -0.043739982 0.009573323 -0.070671886 0.045475572 -0.012138178 -0.057365086 0.014872232
0.09665321 -0.08167939 0.057053864 -0.012756109 0.0048048603 -0.051836263 -0.08131982 -0.089843124
-0.001972884 0.044952806 -0.07901508 0.048587095 0.011415588 0.042345807 -0.035331514 -0.051772114
-0.067707986 -0.02039025 0.0832794 0.031156825 0.019751849 0.0098949345 0.02324889 -0.027719066
0.034848984 -0.05209848 0.05775355 0.0053127618 0.071779065 -0.023521032 0.02360665 0.07495416
0.09521282 -0.06679461 -0.0704659 0.04737178 0.07966556 0.083145216 0.06766873 0.030753162

bias f4 [120]
00000000: f048 41bd 6c64 593d ed42 9d3d fa58 24bc
00000010: 2044 93bd 026b 1c3d f839 5cbd e7cb 0d3d
00000020: 4db4 bdbc 1935 c2bc 2dbd 71bc b806 38bd
00000030: 6a58 0e3d 74f9 51bd c416 f03b 3afe b93d
00000040: 60c6 9f3c 05cd 313d 1454 18bd 7455 bf3c
00000050: 832c f6bc b950 53bc 7472 6cbc 5498 b03d
00000060: 0903 093c 1aab 11bc f0c5 863c 8f44 523d
00000070: e041 bb3d 6505 81bd 3767 423d a48a 823d
00000080: dcb1 c83c 08ab 9d3c 0f6e 9cbd e994 50bc
00000090: 3116 11bd a50a 233c 6985 4fbc 4c0b 76bc
000000a0: d186 3abb aa2d 06bc afad a03d 6258 703c
000000b0: a6a8 8e3d 552e 143d 03da 8fbd 4308 15bd
000000c0: 3d01 0bbc 7108 75bd 8414 a6bc f6c1 81bd
000000d0: 15f1 02bc 387c 6a3d bf28 35bd a5a6 c1bd
000000e0: ab3c be3d a9ee c73c 9995 1fbd 10e6 dc3c
000000f0: a048 973c 2f4e b63d d26a 743d e5e8 413d
00000100: 0175 13bd 9920 9fbd ce89 893c e58d 96bd
00000110: 0daf 793d 7fd2 083d 5f00 1b3d 57be e53c
00000120: aaf5 6fbd 6c16 bcbc e28e 5c3b b748 393d
00000130: 5071 cabc 055a abbd 590c 5d3d 762a e6bc
00000140: ea3c 3f3d 4b9d 06bd 66ad f63c aee1 fdbc
00000150: c856 953c 5a6c 71bd e328 29bd b050 913c
00000160: 6d9d 98bd c312 c33d c132 d03c 4284 933c
00000170: c881 b6bc f68d 483d bb04 29bc 8d74 463c
00000180: 245f 793d 7666 d6bc 1242 4cbd 3890 ec3c
00000190: a226 5dbd 5de2 893b 8204 ac3d 21d8 f13c
000001a0: 93fb 8ebd 4130 bd3d d76a 4c3d 1a9c 93bc
000001b0: 28fd 4c3d 56fc 133d b568 8eb8 f268 973d
000001c0: 59ff 433d c4c4 523d 747f 37bd 7b5b 9bbd
000001d0: 9784 0abd f0c5 89bd ab50 08bd 85b5 a83b
-0.0471887 0.053074285 0.07678781 -0.010030979 -0.07190728 0.038187988 -0.05376622 0.034618285
-0.023157263 -0.02370696 -0.014754576 -0.044928282 0.034752287 -0.051263288 0.0073269326 0.09081693
0.019503772 0.043408412 -0.03718956 0.023356177 -0.030050522 -0.012897664 -0.014431585 0.08622804
0.00836254 -0.008890891 0.016451806 0.051334914 0.09143424 -0.06299857 0.047461715 0.063741
0.024498872 0.019246593 -0.076381795 -0.012730815 -0.035421554 0.009951268 -0.012666085 -0.015017342
-0.0028461704 -0.008189598 0.078456275 0.01466951 0.06965761 0.036177 -0.07024004 -0.036384832
-0.008484182 -0.059822503 -0.020273454 -0.06335823 -0.007992049 0.05724737 -0.04422831 -0.09455613
0.09288915 0.024405794 -0.038961027 0.026965171 0.018467247 0.08901631 0.059672184 0.047341246
-0.036000255 -0.077698894 0.016789343 -0.07351283 0.060957957 0.03340387 0.03784215 0.028044863
-0.058583893 -0.02295991 0.00336545 0.045235362 -0.024712235 -0.08366779 0.053966854 -0.028096419
0.04668895 -0.03286485 0.03011198 -0.030991402 0.018229857 -0.058941223 -0.04129876 0.01773867
-0.074519016 0.09525063 0.025414826 0.018007401 -0.022278681 0.04896351 -0.010316069 0.012112749
0.06088175 -0.026171904 -0.049867697 0.028877363 -0.05399192 0.004207893 0.08399297 0.029522004
-0.06981578 0.09237719 0.049906578 -0.018018771 0.050046116 0.03612932 -6.790591e-05 0.073930636
0.04785094 0.05145718 -0.044799283 -0.07585808 -0.033817854 -0.06727207 -0.033280056 0.005148592

weight f4 [120, 120]
00000000: a736 9c3c 29e1 91bd 6bbd a33d 7c20 96bd
00000010: f429 b53d de1e 8cbd 2475 9d3d 9580 8f3d
00000020: 8fa5 b8bd 8919 b4bd 2f2d 04bd 72b0 303d
00000030: 3a0d 133b 6cf3 82bc c8d8 e43c a1e5 3ebd
00000040: 1058 ab3b cf83 26bd d396 a3bd 77aa 93bb
00000050: 2304 0cbc 7564 27bd 5c21 75bd 5f00 f63c
00000060: a8d6 e23c bf18 ae3d 6b1f 73bd c5df a83d
00000070: 1562 6c3b 6c53 6d3d 178e 093d ac7b ba3c
00000080: 3e53 623d 0366 0bbd 37e5 5fbb 6516 62bb
00000090: 6d8a 503d 5f51 67bd 37c3 803d 971f 423c
000000a0: 9a0a 30bd 3e2d 093d 53b0 98bc f6f5 9fbd
000000b0: e808 0c3d 5883 d83c 0ff1 88bd 8ede ad3d
000000c0: b82a b33d 601f 873c e1f5 e3bc c827 5dbd
000000d0: e77d 353d fd8c 6c3d 209d c23b 5d54 633d
000000e0: 7779 103c 27d0 4ebd b87c 8d3d bb3c a63c
000000f0: 9732 833c ea37 e7bb c98a 51bc d837 b33c
00000100: 6c9e 18bb b563 b3bd 8d6b 223d 28c7 413d
00000110: f5dd 943c 4d97 b43d 8625 b4bd bfab 7fbd
00000120: 508f 433d ae03 a63c 94de 6bbd ed26 163d
00000130: 2e72 233d c02b 5fbd fdd3 c53c ee9d e33c
00000140: bfa3 e63b 6448 673d daba 74bd b786 653c
00000150: 735f 72bc 969f c13c ca18 afbd e517 bd3d
00000160: 95e9 1cbd 18a8 ae3d 2b5d 72bd be3c 6cbd
00000170: dce9 283d 5a1d 4d3d f2d0 973d a546 e5bc
00000180: edc1 343d 9bc4 403d 0561 9abd 80a5 0e3d
00000190: bcda 1c3d c5f6 88bc f530 2b3d d2bb 5cbd
000001a0: 494e 9bbd 844b 3ebd 0d7c 993d 6815 aa3d
000001b0: b074 bebc 6d88 283d f8bd b73c 13b5 ae3d
000001c0: db35 a4bd dc72 50bd ad4a a8bd b3c0 a2bd
000001d0: b569 b1bc b026 24bd 7ff2 6f3d dd24 32bd
000001e0: 0139 533c 1fe6 e0bc 60c7 913c 4ee9 6cbd
000001f0: 0b4f 2dbd 68f4 7bbb 80dd 5c3c c01b 033d
00000200: 2692 74bd ff50 ab3a 0e8a 33bd 68a4 303d
00000210: 871b 9b3d a8f2 bd3c 48ae bc3c 3a2f 823d
00000220: 0592 76bd aed9 b93c 3ea6 04bd 66ab 51bc
00000230: bbb2 a93d b5bc 05bd 30d7 8ebd c08e 49bd
00000240: 76d5 4c3d 7457 aa3d b096 c3bd d760 a63d
00000250: e919 3dbd 6286 393d e867 db3c 50b1 a03d
00000260: b977 ab3d 4612 b8bd 49f3 9a3c 5fca a4bd
00000270: 045e 29bb 7920 94bd ddf7 80bd c424 843c
00000280: 959c 84bd a775 7a3c e72b a03d 51d9 483d
00000290: 7ff1 983d 05b9 a6bd e057 153d a485 883d
000002a0: 72b0 273c 2490 083d a696 123d ee57 a23d
000002b0: a3ae d7bc 20b3 09bd c78c 83bd 9f42 4ebd
000002c0: b592 87bd 10a7 5e3d 04d5 5fbd 3175 0f3d
000002d0: 72c7 253c f352 923d a009 c33c 947d de3c
000002e0: d1b6 7dbd 4eca 7bbd 1bae bdbd 285b 91bd
000002f0: 7b52 03bd c5d7 59bd f742 51bd 417d 92bb
00000300: 369d 0b3d f0dc 393d 7e25 0f3c 5b31 f93c
00000310: 96ff 353d da32 afbd 6c72 2d3d 9b11 563d
00000320: 57cf 433d b078 6d3c cace 843d 6919 0fbd
00000330: 259b 47bb 46b8 fdbc 04ba 803d fa52 473d
00000340: 1cf1 86bc bcbf 7abd cff1 a43c 4156 b1bd
00000350: cde6 6ebc 38d4 e13c d0da 413d 9abc b53d
00000360: 5cdd 8dbd 4408 dd3c f2e2 453c 3394 9dbd
00000370: 1fd2 d73b 5860 b33a 98d2 28bc d7ff 913d
00000380: eeeb 2fbd 63a3 02bd 55fc 52bc 1d03 b4bd
00000390: 98e0 a03d 9b12 e1bc c4a2 a4bd 657d 363c
000003a0: a753 67bd 2e46 ccbb 65c2 39bd 200e 6d3d
000003b0: e619 a33c 4f52 97bd 0526 6abd 085d 64bd
000003c0: b100 ec3a 6a41 b13d ce07 66bd 6ec1 a1ba
000003d0: 448d 16bd 9b5b dfbc b015 28bd 8ffa 84bc
000003e0: 0e93 753d e7d0 193d 7776 d03c 65ee 82bd
000003f0: 63cc 103d 74a5 22bc e66e 0dbd c0ff 02bd
0.019069029 -0.07123024 0.07995113 -0.07330415 0.088458925 -0.06841825 0.076883584 0.07006947
-0.09015953 -0.08793933 -0.032269653 0.04313702 0.0022438304 -0.015985213 0.0279354 -0.04660571
0.0052290037 -0.040653046 -0.07987752 -0.004506405 -0.008545908 -0.040867288 -0.059846267 0.030029474
0.027690247 0.08500814 -0.059356134 0.08245806 0.0036069204 0.057940885 0.033582773 0.02276405
0.055255167 -0.034032833 -0.0034163722 -0.0034498211 0.050913263 -0.056474086 0.06287234 0.011848352
-0.04297886 0.033490412 -0.018638765 -0.07810585 0.03418818 0.026429817 -0.06686603 0.084897146
0.08748382 0.016494453 -0.027827205 -0.053993016 0.044309523 0.057751644 0.005939141 0.055500377
0.008818022 -0.05049148 0.06908554 0.02029263 0.016015334 -0.007056226 -0.012789437 0.021877214
-0.0023287786 -0.08759252 0.03965335 0.04730907 0.018172244 0.08817921 -0.087962195 -0.06241965
0.047744095 0.020265426 -0.057585314 0.036658216 0.039903812 -0.054485083 0.024148935 0.027785268
0.007038563 0.05646552 -0.059748508 0.014009169 -0.014793265 0.023635667 -0.0854965 0.09233073
-0.0383087 0.08528155 -0.059170883 -0.057675116 0.04123865 0.05007682 0.074129 -0.027987788
0.044130255 0.047062498 -0.07538036 0.0348258 0.03829454 -0.016719231 0.041794736 -0.053890057
-0.07583291 -0.046458736 0.07494364 0.08304864 -0.023249 0.04114573 0.022429451 0.08530631
-0.080180846 -0.05089079 -0.08217368 -0.07946911 -0.02165685 -0.040075958 0.05858087 -0.043492187
0.012892009 -0.02745348 0.017795265 -0.057839684 -0.04231171 -0.0038445238 0.013480544 0.032008886
-0.05970969 0.0013070403 -0.04383283 0.04312554 0.0757361 0.023186997 0.023032323 0.06356664
-0.06019785 0.022686806 -0.032385103 -0.012797212 0.08286043 -0.03265067 -0.069746375 -0.049208403
0.05000826 0.083174616 -0.09550226 0.081239395 -0.046167288 0.045294173 0.026782945 0.0784632
0.08372445 -0.089878604 0.018914836 -0.08046412 -0.0025843391 -0.07232756 -0.06297276 0.016130812
-0.06475178 0.01528684 0.07820874 0.049035374 0.07467937 -0.081407584 0.036460757 0.06666115
0.010234939 0.03334059 0.0357882 0.079269275 -0.02632839 -0.033618093 -0.064233355 -0.050356504
-0.06619779 0.054358542 -0.054646507 0.03502387 0.010118352 0.071447276 0.0238083 0.02715949
-0.061941925 -0.06147223 -0.092617236 -0.07097465 -0.03206108 -0.05318429 -0.051089253 -0.004470498
0.034085475 0.045376718 0.008736966 0.030419042 0.0444332 -0.08554621 0.04234545 0.052262884
0.047805157 0.014494106 0.064847544 -0.034936342 -0.0030457464 -0.030971657 0.0628548 0.048663117
-0.016472392 -0.06121801 0.020134835 -0.0865903 -0.014581394 0.027567014 0.047327816 0.088738635
-0.069269866 0.02698148 0.012078034 -0.076942824 0.0065863277 0.0013685329 -0.010304116 0.07128876
-0.04294961 -0.0318941 -0.012877543 -0.08789656 0.07855338 -0.027474692 -0.080388576 0.011138295
-0.05647626 -0.006233952 -0.045351405 0.0578748 0.01990981 -0.07388746 -0.057165165 -0.055752784
0.0018005577 0.08655055 -0.056159787 -0.0012340972 -0.036755815 -0.02726536 -0.041036308 -0.016232757
0.059954695 0.03755274 0.025447113 -0.063931264 0.03535117 -0.009927142 -0.03452959 -0.031982183

bias f4 [120]
00000000: e96a 23bd 5eed 8a3d 7ef2 1a3c 05be 1dbd
00000010: 6e76 4cbc 8120 4dbd 5e0d 64bd afd2 c6bd
00000020: 8b16 0fbd 44f2 c7bd 7780 683d 5364 d53b
00000030: d5d5 17bd 3f3c 0cbd 0709 48bd 92d5 c4bd
00000040: bd98 df3c 8e19 403d 427e c83c 8e89 c03d
00000050: afa3 653d abd7 c03b cdee fb3c e0e3 943d
00000060: 6838 b43d a45d 42bd 6e8f 2ebd 99d3 39bd
00000070: 3b5b e0bc 539e c63d f991 8ebd 2c1f 2bbd
00000080: 14d2 2abc 7155 413d 1b4a 3a3c e136 a93d
00000090: 627d 57bd 2ba1 afbc 31d9 aa3d c65c 58bc
000000a0: 8c5b 753c 3eab 973d 60f6 943c eeb7 6dbd
000000b0: deed 653d 662e e9bc 8565 63bd fa94 44bd
000000c0: 23e8 17bd ad7e 82bd 4a64 d2bc a617 e3bc
000000d0: 8023 a1bd 3c11 7f3d d1fb 123b e863 ef3b
000000e0: aff7 b0bd c904 3d3d 5f20 82bd 0e97 ab3d
000000f0: 2052 73bd 19a3 a7bd de9b d6bc a36c 833d
00000100: 6670 213c 6af2 bc3a 46da 1d3d 9791 763d
00000110: 7704 b73d e47f 883d 10a7 923d 66cf 133d
00000120: cf52 b83d bac0 a43a b6b4 813c 1819 303d
00000130: 5db7 213c 6576 2b3c 89e4 babd 407f 773d
00000140: 1010 ac3d 5a35 a43d 1913 90bc 4b9d c3bd
00000150: b099 c13c 0fc4 d43c d6ad 483d fc36 9e3a
00000160: ca3a 89bc e4ca 5bbd 07c0 973c 303c 933d
00000170: 1e81 7bbd 7b1e 843d 6cf2 8fbc 0062 473d
00000180: 7732 ab3d e6c3 8c3d be53 b9bc 8305 44bd
00000190: f48f 93bd dac4 9dbd ef69 393c 4f9e 5bbd
000001a0: 0761 633c 8e56 3b3d 5d4d 9f3d f9d2 b0bc
000001b0: e02e 81bd c827 4a3d 47c6 6c3d 87c3 9abd
000001c0: f901 adbd ed4c 8c3d bff5 ae3d e103 c0bd
000001d0: 921b 803d f29f cbbc 6eed 72bd 3d31 3dbd
-0.03989688 0.067835554 0.009457229 -0.038511295 -0.012479408 -0.050079826 -0.05567681 -0.097081535
-0.034933608 -0.097630054 0.05676314 0.0065122037 -0.03706916 -0.034237143 -0.048836734 -0.09611048
0.027294511 0.04689937 0.024474267 0.094012365 0.056064304 0.0058850846 0.030753518 0.07270026
0.08799821 -0.047452584 -0.042617254 -0.04536781 -0.027387252 0.09698167 -0.06961436 -0.041777775
-0.010426063 0.047200624 0.011370207 0.082624204 -0.05260981 -0.021439156 0.08342207 -0.013205713
0.01497544 0.07405709 0.018183887 -0.058036737 0.05613505 -0.028464507 -0.05551674 -0.047993638
-0.037086617 -0.06371818 -0.025682587 -0.027721237 -0.07868099 0.062272295 0.0022427926 0.007305611
-0.08640992 0.04614714 -0.063538305 0.08378421 -0.059404492 -0.08185405 -0.02619737 0.06417205
0.009853458 0.0014415507 0.03853824 0.06019744 0.089363985 0.06665018 0.07160771 0.036086462
0.090001695 0.0012569644 0.01583324 0.04299268 0.009870377 0.010465239 -0.09125621 0.06042409
0.08401501 0.080179885 -0.017587231 -0.09551486 0.023632854 0.025972394 0.048993908 0.001207083
-0.016751666 -0.05366029 0.018524183 0.07189214 -0.061402433 0.06451126 -0.01757165 0.048677444
0.08359235 0.06873302 -0.02262294 -0.04785682 -0.07205191 -0.07703562 0.01131676 -0.05361777
0.013878114 0.04573684 0.07778428 -0.021584975 -0.06307769 0.049354345 0.05780628 -0.07556825
-0.08447642 0.0685061 0.08542966 -0.0937574 0.062552586 -0.024856541 -0.05930846 -0.046189535

weight f4 [120, 120]
00000000: 8480 803d e7ef 62bd cee4 5ebd dd54 793c
00000010: def8 dfbc c610 94bd a77c 1c3d 95f2 8abd
00000020: 03b3 51bd cc75 993d 69b6 cfbb b438 b83c
00000030: 9c14 ff3c 2b6f 5d3d bcb6 463c e037 d5bc
00000040: a506 633d c749 b5bd a5e5 81bd 4596 b13d
00000050: 44f7 3dbd 8e64 153d 4684 e03c 5b76 b9bd
00000060: 1895 9b3d b040 9a3d 810d 11bd ac0f 7a3d
00000070: 5a04 a83d 57c7 58bd d274 2fbc ec7b 0d3d
00000080: aae6 9a3d d5f3 923d 76af 3f3d 07a5 33bc
00000090: 080a 933d e13f 57bb 13db 50bd d53f 67bb
000000a0: 7fbf 52bd fea0 3dbd 4a19 58bc ffbf 863d
000000b0: b20f e93b 974e 193b c0e6 56bd 05ce 243c
000000c0: 67c0 22bb 7286 79bc 9ce1 2abd 6fe4 a03c
000000d0: 4056 be3c bcf2 823d 5490 a03d 47bd 9ebd
000000e0: 4118 35bd ce82 11bd f87f 29bd faa5 383d
000000f0: 7fad 60bc b5e0 813c 129d 5a3d 4333 b43c
00000100: 02c3 a33d 043a 0dbd d0b9 48bd 8d69 e43c
00000110: 705c dd3c c0ab a13d fd45 8f3d 2f0e fa3b
00000120: 6eee c0bb 303e 8d3c dcda a7bd 580d 84bd
00000130: 72c2 a7bd afae 92bd 2087 593d 1cee 283d
00000140: 66fe 29ba 39ba 493d 4aba 01bd 6edc 62bd
00000150: 914d 9fbc a9fb a1bc 0869 98bd 8a08 173d
00000160: 72af 82ba d935 813d 684b b8bd c6d2 c3ba
00000170: eff9 693d 8094 3d3d 5a5a 69bd 2121 843c
00000180: 6f9c a8bd 645a 03bd 4e75 8abd 794e 3bbb
00000190: fbef abbd b70e b83c 1e91 8b3d 9a69 093c
000001a0: ff6c 9dbd a72a 71bd e4a5 aebd 4ea7 9c3d
000001b0: 8a3b 8fbd 0ffa 46bd 9069 6cbd e37a 1ebd
000001c0: 971d 45bd c606 a73d 275b b43d e654 05bd
000001d0: 24a1 8c3d 4599 703d 10d1 4abc e5b8 bd3c
000001e0: 9594 17bd e386 093d 9f6d c6bc b3e3 9ebd
000001f0: 9a8b a23d 8db5 a63d caaa 063d bd92 c6bb
00000200: 6c29 223d 07e0 8ebd 47fa b6bd 64f8 293b
00000210: f941 b33d b0c0 a53d 2070 403d 329a 963d
00000220: 701d bbbc 66f4 963d ac22 03bb 9ed2 8cbd
00000230: 1e4f 99bc cbb0 1b3b 75db 3e3d c643 583c
00000240: a119 a33d b0e2 223d 30bc 73bd 4d42 b8bc
00000250: ebf5 1a3d 27eb 8a3c 0225 8c3d 83c6 f2bc
00000260: 2bdd c43d 2912 983c 59d1 273d fea8 0abd
00000270: ba82 ec3c 8458 b3bd 6cdf 1b3c 9b62 813c
00000280: b26b a73d 709e 99bd 1b18 873d 7d69 53bc
00000290: 71cf dcbc 590f 883d 2110 453d 2ec6 213d
000002a0: 9e99 c2bc 514c b0bd 5671 6a3d fddf aa3d
000002b0: 1258 293d 1a6e 323d c5af 973d 12c8 c73c
000002c0: 3b80 b23c 9afc b6bc 9de2 2abd 0851 c2bd
000002d0: 6459 c43d 17cd dcbc 3248 3b3d 0a48 d33c
000002e0: d438 eabc 98e2 c0bc 5387 6b3d 7fbf adbb
000002f0: 3883 8cbb 8fc5 353d 01b0 233d 0cbf e23c
00000300: a99f 603d 526a a3bd 0132 0c3c c779 24bd
00000310: 8f0d 54bd 9dbf 93bd 29b0 253d bc2a aa3d
00000320: 2d4a 7dbb 86d0 2bbd 1db3 aebd 0f20 433d
00000330: 575f 5fbd ed8c 9cbd 8044 c2bc 4912 8b3c
00000340: 706d b23d 7c4c 283c e8b2 00bb 4928 31bd
00000350: a6f7 9bbd c126 9d3d af68 9cbc c8a7 40bd
00000360: 02cc fc3a 80ed b03d 9311 4b3c 98e3 7939
00000370: a188 473d 2f26 ad3d 47a5 243b b73f 853d
00000380: f54b c0bd 5088 f03a 90e9 5fbc d377 313c
00000390: 199c 71bc 13ed a3bd d181 893d 6473 1e3d
000003a0: f0f0 6dbd 8c64 9abd 8b97 b43c e347 c9bc
000003b0: 8ef9 ca3a 59f4 9d39 e653 a7bc 0caa b2bc
000003c0: b098 3bbd 7889 0ebd 043c b5bc 4058 21bd
000003d0: 72c1 3dbc 66a3 9abd 9341 fa3c d825 0cbd
000003e0: aa03 703b 6e62 da3b 9f25 ee3c 03cf 9c3d
000003f0: 8fab 983d 76df 69bd fbb2 bb3b bc3f a5bc
0.062745124 -0.05540457 -0.054417424 0.015217987 -0.027340349 -0.07229762 0.038204815 -0.0678455
-0.05119611 0.07493171 -0.0063388837 0.022487976 0.031137757 0.054061096 0.012128528 -0.02602762
0.05542626 -0.088519625 -0.06342629 0.0867124 -0.04637839 0.03647285 0.027406823 -0.09055778
0.07596797 0.075318694 -0.03541327 0.061050102 0.08203955 -0.05292448 -0.0107090045 0.03454201
0.07563527 0.071754135 0.046798192 -0.010964639 0.07179648 -0.0032844471 -0.050990175 -0.003528585
-0.051452156 -0.046296112 -0.013189623 0.06579589 0.0071124667 0.002339279 -0.052466154 0.0100588845
-0.002483392 -0.015229808 -0.041719064 0.019640176 0.023234487 0.06393954 0.078400284 -0.077509455
-0.044212583 -0.035525136 -0.041381806 0.045080163 -0.01371324 0.015854219 0.05337245 0.0219971
0.07996179 -0.034479156 -0.04900533 0.027882362 0.027021617 0.07894087 0.06995771 0.0076310853
-0.005887798 0.017241567 -0.08196041 -0.064478576 -0.081913844 -0.071622245 0.05310738 0.041242704
-0.00064847467 0.04924986 -0.0316718 -0.055386 -0.019446166 -0.019773321 -0.07441908 0.036873378
-0.00099705 0.06309099 -0.089987576 -0.0014940135 0.05712312 0.0462842 -0.05697093 0.016129078
-0.08232962 -0.032068625 -0.06760655 -0.002858071 -0.08395382 0.022467954 0.06814788 0.008386994
-0.07686805 -0.058878567 -0.08527735 0.07649098 -0.06993778 -0.04857832 -0.05771786 -0.038691413
-0.048123922 0.08155589 0.088064484 -0.03255167 0.06866673 0.05873992 -0.012378946 0.023159454
-0.037006933 0.033575904 -0.024222193 -0.07758274 0.07936783 0.08140097 0.03287772 -0.006059973
0.039590284 -0.069763236 -0.08934455 0.0025935406 0.08752818 0.08093393 0.04698193 0.07353629
-0.022841185 0.07370834 -0.002000968 -0.068761095 -0.018714484 0.00237565 0.04659601 0.013199752
0.07963873 0.039766967 -0.05950564 -0.022492552 0.037832182 0.016957833 0.06842996 -0.029635673
0.09612497 0.018563347 0.040971134 -0.03385257 0.028870929 -0.087571174 0.009513717 0.015794089
0.08174838 -0.07500923 0.06596395 -0.012903568 -0.026954385 0.06643552 0.048111085 0.03949564
-0.023754891 -0.08608306 0.05723699 0.083435036 0.041343756 0.043562032 0.07406572 0.024387393
0.02178966 -0.022337247 -0.04172002 -0.09488112 0.095873624 -0.026953263 0.045723148 0.025791187
-0.02859155 -0.023545548 0.057502102 -0.005302369 -0.0042881034 0.04437786 0.039962772 0.027678989
0.054839764 -0.07979263 0.008556844 -0.0401552 -0.051770743 -0.07214282 0.040451203 0.08308932
-0.0038648949 -0.04194691 -0.08530257 0.047637995 -0.054534283 -0.07644067 -0.023714304 0.016976492
0.0871228 0.010272142 -0.0019637886 -0.04325131 -0.076155946 0.07673407 -0.019092886 -0.04703501
0.0019286873 0.086390495 0.012394327 0.00023831276 0.048714284 0.084545486 0.0025122927 0.06506293
-0.09389488 0.0018351171 -0.0136665255 0.010831791 -0.014746689 -0.08004203 0.06714214 0.038684264
-0.058091104 -0.07538709 0.022044918 -0.024570411 0.001548575 0.00030127427 -0.020425748 -0.0218096
-0.04579991 -0.03479907 -0.022123344 -0.039390802 -0.0115817655 -0.07550697 0.030548846 -0.034215778
0.0036623278 0.0066645658 0.029070674 0.07656672 0.07454597 -0.057097875 0.0057281232 -0.020171992

bias f4 [120]
00000000: 7761 73bd 9579 b0bc 58b1 cf3c 2d54 bcbd
00000010: c671 71bd aa31 413d 8a72 ebbc dde7 e6bc
00000020: 7fd6 5dbd 6bb5 a7bd 969b c53b 8a08 743d
00000030: 29ab 2f3d bba5 ee3c 12ac 5bbd 52d3 653d
00000040: 03c0 a03d 2dcb 803d 2132 1a3d f614 033d
00000050: a714 3ebd 4de4 f1bc 7bda 68bd ca5b 5cbc
00000060: a5e3 75bd bbc9 a23d f20c 3cbd 7f89 17bd
00000070: 94f0 023c 5895 9a3d 5d0d 7fbc 9445 8cbc
00000080: dfb2 35bd c40b c03b 733a 95bd 1e64 a1bc
00000090: bd25 ec3c 8816 a0bd 32f0 a23d 3c21 93bd
000000a0: 083b 653d 7596 21bc cb2d 6e3a fc3c 1dbd
000000b0: ba13 123d ba10 b5bd 3f6c 0e3d 8e5a b33d
000000c0: 3979 cf3c 37af 9c3d 2f5d 4bbd e11a a8bb
000000d0: d21a 9ebd 14a4 85bd 0e4b a1bd 0346 84bd
000000e0: 1d5e 87bd 0dc0 a9bd ed71 3cbc 788d 86bd
000000f0: 64b2 9ebc e30f 28bd 067d 0ebc 5b7d 723d
00000100: bf6a 2cbc af43 2bbd ad9e 6a3d 71e1 dcbc
00000110: ab82 4d3b d707 44bd 6ba1 ba3c 40c4 89bd
00000120: 7a2d a1bd 032a 303c 193d ac3c c087 90bd
00000130: 89dd 393c 03e0 cf3c 92fb 4fbc e455 863d
00000140: fdb6 bf3d 3357 503d f66b 78bd 693e fe3c
00000150: ad96 1a3d e0fd 5ebd c238 64bd badd b8bd
00000160: 485a bc3d 88a2 a5bd d9a6 c0bb 5969 ac3c
00000170: 105e 92bb f00e e1bb 305b 00bd 2287 9cbc
00000180: 6162 94bd b473 4fbc 0b10 683d 7792 86bd
00000190: cac9 0dbd a326 253b 6afe 3d3d c99c 643d
000001a0: d8dc 33bd 6f6e b6bd 504c 14bd 9ea2 8ebd
000001b0: 7075 1e3d 5018 8bbd 4dfd 5dbd e908 68bd
000001c0: 8161 8cbd 0325 82bd cbec 0a3d 0125 e4bc
000001d0: 25b3 013a 63f7 15bd aa7d 2b3d 4a9f 16bd
-0.05941912 -0.02154235 0.025353119 -0.09195743 -0.058946393 0.047166504 -0.02874114 -0.028186733
-0.054159638 -0.081888996 0.00603051 0.059578456 0.04288784 0.02913176 -0.053630896 0.056109734
0.07849123 0.06288753 0.037645463 0.03200241 -0.046406414 -0.029527808 -0.056848984 -0.013449619
-0.060031552 0.07948633 -0.045910783 -0.03699636 0.007991929 0.07548016 -0.015567151 -0.017123021
-0.044360038 0.0058607776 -0.07286539 -0.01970106 0.028826589 -0.078167975 0.0795597 -0.07184073
0.0559645 -0.009862532 0.0009085803 -0.038388237 0.035663344 -0.08841081 0.0347712 0.08757506
0.025326358 0.07650607 -0.049649414 -0.0051301573 -0.07719959 -0.06525436 -0.07875644 -0.06458666
-0.066097476 -0.08288584 -0.011501771 -0.06569952 -0.019372173 -0.041030776 -0.0086968 0.05920158
-0.010523497 -0.041812595 0.05728023 -0.026962968 0.0031358402 -0.04785904 0.022782048 -0.06726885
-0.07870002 0.010752204 0.021025227 -0.07057142 0.011344322 0.025375372 -0.012694256 0.06559351
0.09361074 0.05086441 -0.060649835 0.031035619 0.037741352 -0.054441333 -0.05571819 -0.09026666
0.09196907 -0.08087641 -0.005879265 0.021046327 -0.0044667795 -0.0068682358 -0.031336963 -0.019107405
-0.07245327 -0.012661863 0.056655925 -0.06570905 -0.03461627 0.0025200031 0.046385206 0.055813584
-0.043911785 -0.08907782 -0.03620559 -0.069646105 0.038686216 -0.067917466 -0.054196645 -0.056649122
-0.06854535 -0.06354716 0.03391723 -0.027849676 0.0004947654 -0.03661288 0.04186789 -0.036773004

weight f4 [120, 120]
00000000: 0326 58bd 5526 22bd 0bec 5e3c 8ff5 523c
00000010: fba0 a43d c8f8 37bb f49e f83c 0ef0 babb
00000020: a6ee d13c 32d7 843d a204 863d c5e0 d33b
00000030: 066c 9d3d 0e55 70bb a9c7 e23c a080 553d
00000040: 9104 18bd 72b6 ff3a e12d 52bd e580 713c
00000050: 007a 0dbd 7c80 8e3d 231b 8dbc 2fd4 88bd
00000060: c6a9 993d 3a4f 9139 27d2 c03d 91bb afbd
00000070: d5bc 943d 6af4 313d c23d 5cbd e7b7 febc
00000080: fc94 1ebd 000b 9e3d 7395 adb9 2938 40bd
00000090: 7b3f 923d 4118 54bd 09a0 a8bd b2c6 b53b
000000a0: 5c65 8ebd f1de 233d 2f94 923d de37 76bd
000000b0: 1fac aabd 8655 c93b 5265 9a3d 6316 0a3d
000000c0: 30b4 8c3d a72b 2cbd af46 b8bd a84a 1dbd
000000d0: 5538 b33d 3630 103d b942 a7bd ad5e 0e3c
000000e0: 7f3d 7abd 19bc b1bd cdc3 bbbd cb2f a13d
000000f0: 4810 413d 7eec c03c 2942 ae3d 0c46 95bd
00000100: 669f 2dbb 7223 8cbd d4db 5b3d 479f a1bd
00000110: ba0c 8d3d bc08 aa3d 23f9 843c f9e3 babc
00000120: e3aa 9ebd dc74 20bd 9f09 c5bd 0ab3 c2bc
00000130: 5b53 473d e1ce 5f3c 5f27 633d 49c4 d63c
00000140: 40f5 b1bd 46fa 06bd ddbc 8a3c 41b1 003c
00000150: 500e 8f3d cd6f 97bd 3223 af3d a039 4cbd
00000160: 4499 bebc 1c23 9ebd fa57 97bd 1baa 62bc
00000170: 9db7 06bd e9f3 ccbc 39d8 433d 782e 50bd
00000180: 914c a33c 1190 5b3d aca3 fd3c b05c 793d
00000190: b44e e53b cabc afbd 643b 993b f9d6 7a3c
000001a0: 6c02 c93c c8e1 64bd e0ce 153d 9fd6 b3bd
000001b0: 5899 54bd 4a23 b33d 4d8a 5ebd 48b5 b3bd
000001c0: dd0a 66bd 390f 553d a773 c5bc 5a98 17bd
000001d0: f892 41bd b7c2 763d b557 51bd 8cc8 313d
000001e0: 1b4c 97bd baaa a23d 0079 e33c 1bb6 6dbd
000001f0: 6bd6 9d3d 37cb 763d 8244 d8bc dc2e 363d
00000200: 0250 3b3d 50e9 e23c 1497 9bbd 66a8 773d
00000210: 88c7 323c 152b 86bd 9ca1 58bc 46f2 993d
00000220: 6a81 8239 f9f3 20bd 4a43 0c3d dc8d 08bc
00000230: 93e8 9d3d 3731 44bb 4aae 7f3c e566 c3bd
00000240: 8062 89bc 7c42 e5bc 878d 363d 448f a3bd
00000250: d481 97bd ea15 813d 625a 5fbb 0b91 32bd
00000260: 39bb 8bbd 0339 fe3c 138a 56bd 1fed 383c
00000270: a088 5c3c c369 203d c337 a73d b3e1 3cbc
00000280: f038 a73c 9711 a33d 5cf4 8f3d e7b2 9b3c
00000290: e5db a3bd 91a6 283c 31fe fa3c 2a7c a83d
000002a0: f5e5 a43d e269 393d 3aa7 bdbd 32e6 d8bc
000002b0: 7a98 da3c 6eff 55bd 8a28 cdbc 14a4 b2bd
000002c0: 1692 77bd cff7 b2bc de38 8d3d 44e0 81bd
000002d0: ade1 a5bd 6501 373d d548 a93d eeb5 b7bd
000002e0: 2fd0 8f3d 8892 c13c 7220 8abd 46f2 4bbd
000002f0: bf2f 04bb 1045 7abd 87b6 683d 1697 b53d
00000300: 1f7b 99bd 32dc 3ebc 3357 07ba 248d 8e3d
00000310: 9b80 4ebd c5ba 94bd 8f0b 8e3d 2c62 083d
00000320: 2057 ab3d 4cd9 83bd 577d 853c 2c8a 7f3c
00000330: 3303 273d 03ca afbc e61c 093d 549b 4f3d
00000340: e0b4 013c a92b 823d b5f6 303d 890a 153d
00000350: e966 72bc 0a75 a43d bda4 37bb 2c8f a5bd
00000360: a7b5 203d 4a8c 133c 0641 993d 5042 9b3d
00000370: 5f4d b43d fbe9 f93b 9913 e43c 5a6e cb3b
00000380: f50a 74bd 9d62 d93b f470 8ebd 1de1 4bbd
00000390: d0fc e4bc 889a d63c 6150 68bc e56a 87bd
000003a0: 104e 9cbd 7524 813d dca3 523d 14d6 adbd
000003b0: 0603 2abd ba25 f1bb 3b59 143d 1c70 79bc
000003c0: 0e7a b5bc ea13 aebd 7e58 f8bb 3a11 4cbc
000003d0: bc3a 75bc 3bef 72bd b88d 33bc 9ad6 9d3d
000003e0: ac57 25bb 3761 e0bc 2cac 42bd cdae 773d
000003f0: 2a26 463d 90b7 dbba 121d b23c b4a8 b43d
-0.052770626 -0.039587338 0.013606082 0.012875929 0.08038517 -0.002807187 0.030349232 -0.0057048863
0.025626492 0.06486358 0.065438524 0.0064660036 0.076866195 -0.003667179 0.027683096 0.05212462
-0.03711373 0.0019509329 -0.051313285 0.0147402035 -0.034540176 0.069581 -0.017224854 -0.06681096
0.07503085 0.00027715584 0.094150834 -0.08580697 0.07262579 0.043445982 -0.053769834 -0.03109355
-0.0387163 0.07716942 -0.0003310848 -0.04692856 0.07141014 -0.051780943 -0.08233649 0.005547368
-0.069529265 0.040007535 0.0715717 -0.060111873 -0.08333611 0.0061442284 0.075388566 0.033712756
0.068703055 -0.042033818 -0.08997857 -0.038401276 0.08750979 0.035202228 -0.08167023 0.008689565
-0.061093803 -0.08678455 -0.091682054 0.07870444 0.047134668 0.023550268 0.08508713 -0.07288751
-0.0026492714 -0.06842698 0.05367644 -0.07891708 0.06887193 0.08302447 0.016232079 -0.022813784
-0.07747438 -0.039173946 -0.09620976 -0.023767013 0.04866348 0.013660164 0.05545747 0.026216643
-0.08689356 -0.032953523 0.01693576 0.007854761 0.06985152 -0.07394371 0.08551635 -0.049859643
-0.023266442 -0.0772154 -0.07389827 -0.013834502 -0.03288995 -0.02501865 0.047813628 -0.050825566
0.01993397 0.05360419 0.030961834 0.06087941 0.0069979075 -0.085809305 0.0046762694 0.015310043
0.024537288 -0.055879384 0.036574244 -0.0878117 -0.051904052 0.08746965 -0.054331113 -0.08774811
-0.056162704 0.05201647 -0.024102999 -0.03701053 -0.0472593 0.06024429 -0.051109035 0.043404147
-0.07387563 0.0794272 0.027767658 -0.058034997 0.077069126 0.060252395 -0.026399855 0.044478282
0.0457306 0.027699143 -0.07597175 0.06046333 0.01091183 -0.06551186 -0.013222124 0.07516913
0.00024891953 -0.03929517 0.03424386 -0.008334603 0.07710376 -0.002993656 0.015605519 -0.0954111
-0.016770601 -0.027985804 0.044568565 -0.0798631 -0.073978096 0.06303008 -0.0034080972 -0.043595355
-0.06822819 0.031033045 -0.05237777 0.011287003 0.013460308 0.039163362 0.081649326 -0.01152842
0.020412892 0.07962339 0.0702903 0.019006206 -0.08000926 0.010293619 0.030638786 0.082268074
0.08051673 0.045266993 -0.092604116 -0.026476953 0.026684035 -0.05224555 -0.025043745 -0.08722702
-0.060442053 -0.02184668 0.06895612 -0.063416034 -0.08099685 0.044679064 0.08265845 -0.08970247
0.0702213 0.023629442 -0.0674447 -0.049791597 -0.002017006 -0.06110102 0.056814697 0.08866708
-0.074941866 -0.011649178 -0.0005162835 0.06960514 -0.050415616 -0.07262186 0.069357984 0.03329675
0.08366227 -0.064379305 0.016295118 0.015596908 0.040774535 -0.021458631 0.033474825 0.05068524
0.007916659 0.06355984 0.04320403 0.036387 -0.0147950435 0.08030136 -0.0028021776 -0.080839485
0.039235737 0.0090056155 0.07483105 0.075810075 0.0880382 0.0076267696 0.027841376 0.0062082233
-0.059580762 0.00663407 -0.06955138 -0.04977523 -0.027952582 0.026196733 -0.01417932 -0.066121854
-0.07632077 0.06305782 0.0514258 -0.08488098 -0.04150679 -0.0073592337 0.03621791 -0.015224483
-0.022152927 -0.08499892 -0.0075789085 -0.012455279 -0.014967617 -0.05931018 -0.010959081 0.077069476
-0.0025229258 -0.027390106 -0.047527477 0.060469437 0.04837624 -0.001676308 0.021742377 0.0882124

bias f4 [120]
00000000: 18f5 b83d 05b0 43bd b876 7a3d b634 d83b
00000010: d37c ddbc 3e0b 5b3d a3c4 6fbd c03c 11bd
00000020: f5ac d7ba 6de3 013d c8a4 583d ee92 c0bc
00000030: 5125 f4bb c33d c2bd 92a3 7cbd b24c 9d3d
00000040: 8b53 6abd ceda a4bc 9748 593c afe2 a03d
00000050: 3d24 7cbd 674e a33d 63f4 133d 5478 1bba
00000060: 9758 98bd 7125 37bd c10d 5cbd fb3a 59bd
00000070: ec1a f7bc e600 8d3c 9fcd 11bd 46ca 99bd
00000080: f1dd 8fbc 5373 c53c 8932 763b 472a cb3c
00000090: 5eef 67bd 6ea0 213b 0dd7 9d3d 7a9b 16bc
000000a0: 40ef bdbc 04d5 fe3c d09f a7bd 1484 92bc
000000b0: 2e9e c33d 37b2 21bc edea 1c3d 63a5 67bd
000000c0: 9ec2 34bd dd53 b8bd b1e6 a33c 3203 29bd
000000d0: a8ac 5abc 970a 9f3d ad40 c6bd 4e62 3e3d
000000e0: ec56 8fbd 3187 2f3d 162c b3bd c9a5 4a3c
000000f0: 4c12 293d 4be0 a83d fb1d adbd a497 90bd
00000100: 4e28 b8bd 4c9c 8bbd fe94 90bd bf84 c93b
00000110: 3954 d6bb 8524 87bd 0dda 7b3d d947 79bd
00000120: b81b bdbd 0b75 ac3d a9e0 043d 55bf 6b3d
00000130: 84ef 773d 24c5 3c3d f4ce 163d c42a 8b3d
00000140: 092b 47bd 9379 d5bc 8a76 a93d 8eb5 3abd
00000150: ba2d a73d 940b 9dbd f742 b6bd 8f68 a3bb
00000160: 838c 0bbd 387b 403d f581 99bd 7b0f a73d
00000170: 964d ae3d 8574 aabb 5efc 403d 7f9d 11bd
00000180: fc2c 99bd 4e70 233d 9315 753d 5556 b03d
00000190: f083 463d d4cf 843d 67bc 8a3d 1a11 843d
000001a0: 7157 11bd 9504 62bb 4dc7 ab3d 3fb3 91bd
000001b0: c1bf b7bc 70ee b7bd 1983 8e3c bea1 dbbc
000001c0: 836d 413c 33a6 14bd a56c 22bd af6b 293d
000001d0: d80a 5a3d 7a62 65bd 5962 c6bd 0d9c 223c
0.09031123 -0.047775287 0.061148375 0.0065980805 -0.02703706 0.05347752 -0.058537137 -0.035458326
-0.0016454743 0.03171103 0.052891523 -0.023507562 -0.0074507375 -0.09484436 -0.06167943 0.07680644
-0.05720858 -0.020123865 0.013261936 0.078557365 -0.061557997 0.079739384 0.036121737 -0.0005930711
-0.07438772 -0.04471344 -0.053724054 -0.053034764 -0.030164205 0.017212342 -0.035596486 -0.07509284
-0.017561885 0.024102842 0.0037566742 0.024800433 -0.056624763 0.0024662274 0.07707033 -0.009192342
-0.023185372 0.031107433 -0.08184779 -0.017885245 0.09551655 -0.00986915 0.03830998 -0.05655421
-0.044130914 -0.09000371 0.020007463 -0.041262813 -0.0133468285 0.07765692 -0.09680305 0.04648047
-0.06999001 0.042853538 -0.08748643 0.012368628 0.041277215 0.082459055 -0.08452984 -0.07060173
-0.089920625 -0.06816921 -0.07059668 0.006149858 -0.006540802 -0.065987624 0.061487246 -0.060859535
-0.092338026 0.08420762 0.032440815 0.057555515 0.060531154 0.046086445 0.03681846 0.06795266
-0.048625026 -0.026058948 0.08274563 -0.0455833 0.081630185 -0.07668224 -0.08899491 -0.0049868296
-0.03406955 0.04699251 -0.074954905 0.081572495 0.08510892 -0.0052018785 0.047115676 -0.03555059
-0.07479283 0.039902024 0.059835028 0.086102165 0.04846567 0.064849526 0.06774216 0.06448574
-0.03548378 -0.0034487594 0.08387623 -0.071142666 -0.022430303 -0.08981025 0.017396497 -0.026810523
0.011805895 -0.036291312 -0.039654393 0.04136246 0.053232998 -0.056002118 -0.09686727 0.009924901
