best_3.pth (torch, 648810 bytes, 25 tensors)

layer_in.weight f4 [120, 3]
000000 b5 79 d6 be 52 82 d0 3e 0b 2d fb 3e e2 68 96 be
       -0.4188973 0.40724427 0.49057803 -0.29376894
000010 6d da 87 bd d5 bf 43 3e e7 04 c3 3e 6b 13 04 bf
       -0.06633458 0.19116147 0.38089678 -0.5159213
000020 b2 cb 34 bd 5b 8f b3 3e e3 5b ea 3e 03 13 03 3f
       -0.04413957 0.3507031 0.4577323 0.51200885
000030 b0 4c b9 be 25 d0 14 3f a7 a7 bb be d3 f4 b6 bd
       -0.3619132 0.58130103 -0.36651346 -0.08933415
000040 90 f5 fb be 1f 63 06 bc 75 ed c5 3d 6c c8 3b be
       -0.49210787 -0.008202343 0.09664432 -0.18338174
000050 33 f8 e4 3e f4 cb cf bc 6f 4a 95 be ca f5 e6 3e
       0.4472061 -0.025365807 -0.2915835 0.45109397
000060 ad 70 9e 3e 8f ee 6c bd 14 41 91 3d 2e 61 88 3e
       0.3094534 -0.057844695 0.07092491 0.26636642
000070 14 1d dc bd 4e f0 8f 3e 3d 01 1b be 3a d2 ff 3b
       -0.10747734 0.28113025 -0.15137191 0.0078070434
000080 ac a8 32 3f bc 3d 9e 3e 2d 95 03 3f e2 77 0d bf
       0.6978862 0.30906475 0.513995 -0.5526105
000090 11 30 1f be 61 f5 c4 bd 20 c6 ff be 55 fb b7 be
       -0.1554568 -0.09617115 -0.49955845 -0.3593394
0000a0 be 0f e0 be b5 4b 12 bf fb de 17 3f 97 5d 8e 3e
       -0.4376201 -0.5714677 0.59324616 0.27805778
0000b0 ff be bc 3e 89 1f b2 3e 54 f8 b1 3e 9f 52 84 3c
       0.36864468 0.34789684 0.34759772 0.016152678
0000c0 89 4c b8 3e 77 53 f6 be dd f9 40 be df d5 08 3d
       0.35995892 -0.48110554 -0.18845315 0.03340709
0000d0 88 73 85 3e 04 19 0a bf 40 0e 30 be e4 a8 c6 be
       0.26064706 -0.5394442 -0.17192936 -0.38800728
0000e0 bc 9a af 3e 27 02 94 3e cc ab 47 3d 72 ec a4 3b
       0.3429774 0.28907892 0.048747823 0.0050330693
0000f0 a1 9c 06 3e ae b8 54 be 8a c4 54 3e 6d 90 85 be
       0.13145687 -0.20773575 0.20778099 -0.2608675
000100 2a 9b 5d 3e 12 ce 82 bc c4 18 90 be 1e 1f 03 bf
       0.21641222 -0.015967403 -0.28143895 -0.51219356
000110 ee 60 c7 be a5 a8 c1 be 5d 92 f4 3e bd 4a 88 be
       -0.3894114 -0.37823978 0.47767916 -0.2661952
000120 f0 48 b1 bd 17 ec ea 3e 19 a6 19 3d 37 dc 1a 3f
       -0.0865649 0.45883247 0.03751192 0.6049227
000130 17 b0 e2 be 33 40 15 3e 8b 92 a9 be 04 79 f8 be
       -0.4427497 0.14575271 -0.33119616 -0.48529828
000140 d5 c6 7d 3e 77 c5 e1 3e f0 e8 05 3e 99 6c 2d 3e
       0.2478288 0.44095966 0.1307714 0.16935958
000150 c5 77 05 be 7a 39 d6 3d b8 8a 02 bf 55 70 e1 3d
       -0.1303397 0.104601815 -0.5099292 0.11007754
000160 7b a8 cf 3e 4e d6 ae 3e a7 f9 de 3e 92 90 1a be
       0.40558228 0.34147877 0.43549845 -0.15094212
000170 e2 2c 27 be 8b 73 c8 be cc 45 81 3e 41 52 ee be
       -0.16325715 -0.39150652 0.25248563 -0.4654713
000180 59 b4 a1 3e f9 10 b2 3e b8 11 ca 3d d7 6a ca 3e
       0.31582907 0.34778574 0.09866661 0.39534637
000190 a6 19 e6 3e 8e e5 3a 3d 03 68 ea 3e 45 f6 26 be
       0.44941443 0.045629077 0.4578248 -0.16304882
0001a0 5e 3b 08 3d 37 57 af 3d fb 4c c9 be a5 0a 25 3f
       0.033259742 0.08561557 -0.39316544 0.6446937
0001b0 28 8a ce be 19 77 79 be 83 30 a5 3d 99 a5 7d 3d
       -0.4033978 -0.24361838 0.080658935 0.061925504
0001c0 30 46 f6 be a1 3f 01 3f 65 13 dc 3d 9a 2e ae be
       -0.48100424 0.50487715 0.10745887 -0.3401993
0001d0 d5 7d 0f be 59 cd ba 3d 24 bb 8b 3e 56 6f d0 be
       -0.14012845 0.09121198 0.27291214 -0.40709943
0001e0 b7 25 bb 3e 78 7d 07 bf db 4d 13 bf e2 70 9f 3e
       0.36552212 -0.52925825 -0.57540673 0.3114081
0001f0 b6 81 51 3e 25 27 13 bf 45 65 e0 be 98 42 a1 3e
       0.20459637 -0.57481605 -0.43827263 0.3149612
000200 9e e9 a8 be dc 4e 06 bf c6 4c 3b be d4 fb aa 3c
       -0.32990736 -0.5246408 -0.18291005 0.020872034
000210 bb 9d e9 be a0 5b e3 3e fd 4a ba 3e 25 a2 b1 3e
       -0.4562815 0.44405842 0.36385337 0.3469402
000220 72 f9 a8 3e e3 35 70 bd c0 b6 d9 3e 0d 55 ab 3d
       0.33002812 -0.05864514 0.4252224 0.083658315
000230 cd c8 a6 3e 2c e9 ed be d8 9b 9f be c0 a7 0a be
       0.32575074 -0.4646696 -0.31173587 -0.13540554
000240 44 60 28 3d 1e 57 eb 3e 27 da d5 bc 56 9f 0a 3f
       0.04110743 0.45964903 -0.026105 0.5414938
000250 3f 0f be 3e fb 17 24 3e 62 15 ce 3e ea 66 90 be
       0.37121007 0.16024773 0.4025069 -0.28203517
000260 9c 0b d7 3e a1 0c 8f be ed 3d 2e 3e 6d b8 8d be
       0.42001045 -0.27939323 0.1701581 -0.27679768
000270 c3 81 13 be f6 9e 1e bd 91 62 07 3f 0e c4 1d bd
       -0.14404969 -0.038725816 0.52884775 -0.03851705
000280 85 00 63 be 6d 3e 52 be 6d 2a 2f be db 2a 24 be
       -0.22168167 -0.20531626 -0.17106028 -0.16031973
000290 3c 88 a3 3e b2 0e 94 bd c5 35 87 be 65 1b 85 3e
       0.31939876 -0.072293654 -0.2640821 0.25997463
0002a0 ed 5b 46 3d 44 5e 6e 3e 7b 02 c1 be db f7 47 bd
       0.04842751 0.23278147 -0.37697205 -0.048820358
0002b0 97 6c 41 3e 56 da 1d bf 52 ba e4 3d 74 b5 71 be
       0.1888908 -0.6166128 0.1116835 -0.23604375
0002c0 cd db d9 3e e7 2d 0e 3e 4d 42 f7 3e 67 bc d6 be
       0.42550507 0.13884698 0.4829277 -0.41940615
0002d0 a4 df fe 3d 56 af 11 3e 18 ee 1e 3e a5 27 95 3d
       0.12445 0.14227042 0.15520513 0.07282952
0002e0 51 bd 06 3f 59 48 5a 3c 4e b3 a1 be f3 43 45 bd
       0.52632624 0.013322913 -0.3158211 -0.048160505
0002f0 34 95 d6 be 89 8f 72 3d b3 16 ec be e0 7f 0e 3f
       -0.41910708 0.059218917 -0.46111068 0.5566387
000300 e9 61 cb 3d b3 89 01 bf 0c fe 39 be 61 ce 26 be
       0.09930784 -0.5060074 -0.18163317 -0.16289665
000310 66 0b ae bd cf 8f 38 3f 84 37 aa be 79 8a 86 3e
       -0.08498268 0.72094434 -0.3324548 0.2627752
000320 5a ee a1 be ea a1 51 bd da ec 05 bf a0 d8 ab be
       -0.3162716 -0.051179804 -0.5231453 -0.3356371
000330 58 c0 05 3e 78 0a b6 be d6 da dc 3e 9c f5 db 3e
       0.13061655 -0.35554862 0.4313571 0.42960823
000340 52 d7 e9 be ca a5 05 3f d7 54 09 bf 9a 70 cd 3e
       -0.4567209 0.522061 -0.5364508 0.4012497
000350 16 88 03 3f 9f 31 f0 3e 07 96 fb 3e 8b ac 35 be
       0.51379526 0.46912858 0.491379 -0.17741601
000360 f0 50 08 bf f8 ac e8 be 25 19 0f bf 9b b5 b1 3e
       -0.532485 -0.45444465 -0.5589774 0.34708866
000370 4b 61 ad be 25 98 b9 3e 61 38 55 be bb 9d f7 3d
       -0.3386329 0.3624889 -0.20822288 0.120906316
000380 f8 bf f1 3e 1f 35 86 be 62 af 00 bf b9 3b 30 be
       0.47216773 -0.26212403 -0.5026761 -0.17210282
000390 ee b4 03 bf 7d fc 06 be e0 33 89 be 8f 64 bc 3d
       -0.5144795 -0.13182254 -0.2679739 0.091988675
0003a0 d0 8c ce be f3 90 22 be d9 8a 9e 3e 66 fe 82 be
       -0.40341806 -0.15875606 0.30965307 -0.25584716
0003b0 3a 4e 1c 3f b2 ce cd bd 16 7a a4 bd cb 97 1f 3f
       0.61056864 -0.100491896 -0.080310985 0.6234099
0003c0 4f 03 8c 3e a5 5d 81 be 27 85 da be 0e e0 1c be
       0.27346274 -0.25266758 -0.42679712 -0.15319845
0003d0 ec 0b e9 3e 97 cd 8a bd 69 b6 84 be c7 61 57 bc
       0.45516908 -0.067774944 -0.25920418 -0.0131458705
0003e0 6a fe 11 bf ff 9d 87 3e ba 7d 31 bd 5a d0 95 3e
       -0.5702883 0.2648773 -0.043332793 0.29260522
0003f0 71 f0 11 bf 92 da 89 3e 1f 7b b0 be 85 b7 a0 3e
       -0.5700751 0.26924568 -0.34468934 0.31390014

layer_in.bias f4 [120]
000000 4c 2c 06 3e 74 94 5e 3e 1c 58 0f 3e b4 55 9c 3e
       0.13102835 0.21736318 0.13998455 0.30534136
000010 ce 14 fe be 09 4c bd 3e aa 49 00 bf 44 e8 db 3e
       -0.49625248 0.36972073 -0.501124 0.42950642
000020 53 d7 c8 be ef 1e da be 6e 21 e3 3d 9c 21 f2 3e
       -0.3922678 -0.42601725 0.110903606 0.47291267
000030 e1 9a 0d 3f b2 0d ac 3e aa 62 90 3e 42 77 2d 3e
       0.5531445 0.336042 0.28200275 0.16940024
000040 93 a9 11 be de 9f ce bd e1 2a ff be 11 ad ab bc
       -0.14224844 -0.10089086 -0.49837402 -0.020956548
000050 f7 f6 f1 be 7c eb e9 be 29 ec 04 bf 8e ca d4 3e
       -0.47258732 -0.45687473 -0.5192285 0.41560787
000060 60 b6 ef be 2b 09 2e 3e 85 0a d7 3e d2 cf 8e 3e
       -0.4681883 0.16995685 0.42000213 0.2789293
000070 04 e4 0c bf 5e 77 97 bd 09 e8 b1 be 92 19 a9 be
       -0.55035424 -0.07395814 -0.3474734 -0.3302732
000080 b0 92 57 be 0a 64 a0 be 6b db a0 3d 11 b1 0e 3f
       -0.2105205 -0.31326324 0.07854351 0.5573893
000090 55 be 31 3e 33 93 49 bd 92 ea d0 be fa a5 77 3e
       0.17357762 -0.049212646 -0.40803963 0.24184409
0000a0 28 61 5b be 27 1c 0f bf 7d 90 54 3d 6c 06 39 3e
       -0.21423781 -0.5590233 0.051895607 0.18068856
0000b0 cf 83 29 3e 0b 5b 99 3e 59 82 d5 3e a9 0b 1e be
       0.16554187 0.29952273 0.4170101 -0.15434135
0000c0 ed db 5e be c9 b0 ee be f1 15 a6 3e c5 a4 ba be
       -0.21763583 -0.4661925 0.32438615 -0.36453834
0000d0 00 05 11 bd 17 44 01 bf 39 a7 92 3d cb f4 11 bf
       -0.03540516 -0.5049452 0.071608014 -0.5701415
0000e0 6f 34 d5 3d c5 fa b6 3e f4 1d e8 be 56 64 6d bd
       0.104103915 0.35738197 -0.45335352 -0.057957016
0000f0 41 b6 c4 bd da 53 06 3f 76 72 10 3f 98 d3 03 3d
       -0.09605075 0.524717 0.56424654 0.032184213
000100 0c 97 40 be 7f fd 31 3e 7a b7 f5 3e 51 36 04 bf
       -0.1880762 0.17381857 0.47991544 -0.5164538
000110 47 0d bf be e6 72 02 3f 7d 42 15 3f 0b 19 9f 3e
       -0.37314817 0.5095657 0.5830458 0.31073794
000120 56 32 b7 3d 19 20 5d 3e b3 0b c1 3e ae 6f ac 3e
       0.08945148 0.21594276 0.37704238 0.33678955
000130 24 b3 ec be 25 5a e1 be 8b 2f 0e 3f f6 5b c8 bb
       -0.46230423 -0.44014087 0.55541295 -0.006114478
000140 71 76 02 3e ee c5 0d be 42 f7 cd be 8e 4a 67 3e
       0.12740494 -0.13845035 -0.40227705 0.22587034
000150 f7 96 3a bd 76 dd 4e 3c 25 8b ad be 8b b2 d8 be
       -0.045554128 0.012626043 -0.3389522 -0.42323717
000160 a2 b0 76 3e 74 ca ee 3e 80 c6 07 bf e0 f4 86 3d
       0.24090818 0.46638834 -0.5303726 0.06589675
000170 8d 37 e5 3e dd 41 45 3d d9 d2 16 bf 7b da 9f be
       0.44768944 0.048158515 -0.5891548 -0.31221375
000180 ff 88 f5 be 58 60 f5 3e d8 ed 02 bf ae 19 08 3f
       -0.47956082 0.47925067 -0.5114417 0.53164184
000190 51 83 ac 3e 42 ba e3 be e7 84 04 bf b1 0c 23 be
       0.33693936 -0.4447804 -0.5176529 -0.1592281
0001a0 d0 a0 10 bf e1 e2 a8 3e 68 39 b0 3e 40 80 09 be
       -0.5649538 0.32985595 0.34418797 -0.1342783
0001b0 e1 8a ee be a9 1b 29 bd df 57 02 3f 30 4a b0 3d
       -0.4659033 -0.041286144 0.5091533 0.086079
0001c0 a4 06 56 3e 8c ab 63 3e d0 4f 89 3e 47 4d ea bd
       0.2090097 0.22233409 0.26818705 -0.11440521
0001d0 ac 7d d2 3e a4 72 14 3f 47 d2 b2 be 02 4c c2 3d
       0.41111505 0.5798743 -0.34926054 0.094871536

layer_out.weight f4 [1, 120]
000000 25 22 23 3d 48 86 37 3c 6a 9d 05 3d 92 78 a9 3c
       0.039827485 0.011201449 0.032620825 0.020687375
000010 33 89 87 bd 42 b0 5c bd ac 18 bf 3d 2c dd 90 bc
       -0.066179655 -0.05387903 0.09330878 -0.017683588
000020 bc fd 65 bd 3c 12 8a 3d ce 73 8a 3d e9 93 39 bd
       -0.056150183 0.06741759 0.06760369 -0.045307074
000030 5a f9 97 3c f0 1c c1 bd f4 23 27 bc 8f 32 46 bd
       0.018551517 -0.094293475 -0.010201443 -0.04838806
000040 c2 4e 97 3d 81 f9 11 bd 68 cc 52 3d 82 ad 26 bc
       0.07388069 -0.035638336 0.05146447 -0.010173203
000050 59 29 69 3d 17 b6 cd bc db 39 8a bd 8f 85 30 bd
       0.056924198 -0.025111241 -0.06749316 -0.04309612
000060 cc 0e 80 bd 14 18 8b 3d 47 51 04 3d e5 8d b3 bd
       -0.06252822 0.06791702 0.032304075 -0.087672986
000070 9f 35 3b 3d 74 05 51 3c d0 6e 77 3c 08 dc 7d bd
       0.045705434 0.012757648 0.015102103 -0.061977416
000080 86 59 b1 3b 5b ae 75 bd 17 6d 46 bd c5 ef b4 bd
       0.0054122834 -0.05998073 -0.04844388 -0.08834795
000090 e7 e3 5e bd 76 9a 32 bd 92 ea 5f 3d 25 d2 0c 3d
       -0.054416563 -0.043604337 0.054667063 0.034380097
0000a0 b3 8e ba bd cb 51 6e bd dd 33 6a 3d 36 65 b1 3d
       -0.09109249 -0.058183473 0.057178367 0.086618826
0000b0 d2 55 ff b9 29 c9 af 3d 8c af 5e bc dc a6 ca bd
       -0.0004870133 0.0858329 -0.013591658 -0.09895107
0000c0 40 27 90 3d 0d 66 0b bd 0d df ca 3d d9 1b 94 bd
       0.07038736 -0.03403287 0.09905825 -0.07231874
0000d0 ff a5 53 3d 0c 0b ae 3c be a2 16 bc 8b 42 35 3d
       0.051671978 0.021245502 -0.009194074 0.044252913
0000e0 33 2f 38 3c a2 ee 10 bd c0 ba 3f 3d 37 99 b3 3d
       0.011241722 -0.035383828 0.046808958 0.08769458
0000f0 86 5d 29 bd 6a c8 7a bd 9a c0 6b 39 43 1a a4 3d
       -0.041348957 -0.061226286 0.00022483096 0.080128215
000100 29 04 bd 3c 9a f2 0b 3d 81 9b 5d 3d 27 61 56 bd
       0.023073273 0.03416691 0.05410338 -0.052338745
000110 81 fc 96 3d 47 cd 10 bd c5 a5 d4 3c 6c 7f 8d bc
       0.0737238 -0.035352018 0.025957951 -0.017272674
000120 a3 4c b1 3d 6b ef b0 bd 9e 15 b5 bc a5 5d 7d 3d
       0.086571954 -0.08639415 -0.022105034 0.061856885
000130 67 b5 97 3c 9b dc cc 3c a0 de 99 3c 68 96 f9 3c
       0.018519117 0.025007537 0.018782914 0.030467227
000140 5a 7e 9b bd f6 a1 26 bd 10 a5 b9 bc dc fa f6 bb
       -0.07592459 -0.0406818 -0.022661716 -0.007537229
000150 be ed 94 3d 8b cd b9 bd 8a 72 aa 3c 76 02 1e bd
       0.07271908 -0.09072407 0.02080657 -0.038576566
000160 5b 9f b6 bd f9 71 b0 3d b9 e9 9b bd 4c dd 6b bd
       -0.089171134 0.086154886 -0.076129384 -0.057584092
000170 a6 f0 95 3d d9 55 47 bc 7e f0 a5 3d e2 2e bb 3c
       0.07321291 -0.012166464 0.08102511 0.022849504
000180 94 42 a9 bc d3 53 94 bd e9 78 16 3d 5e 7f b7 3c
       -0.02066163 -0.07242551 0.036736403 0.0223996
000190 5d 6c 97 3d c7 f2 ae 3d d0 96 4b 3d 0e 32 89 3a
       0.073937155 0.085424 0.049704373 0.0010467188
0001a0 55 26 43 3d fc cd f0 3b 64 fe 92 bd 6c 7d 44 bd
       0.04764398 0.007348774 -0.071774274 -0.047971174
0001b0 eb 84 a7 3c c3 89 5b bc 3a e4 44 bd 73 10 b0 3d
       0.020449122 -0.013399544 -0.048069216 0.085968874
0001c0 9d bc f5 bc 1e 87 9c bd d0 fa 65 bd 52 af 12 bc
       -0.029997164 -0.07642959 -0.056147397 -0.008952932
0001d0 25 13 5e bd 9f 4c 5a 3c e2 0e 73 bd cf 72 15 bd
       -0.054217476 0.013323932 -0.059340365 -0.036486443

middle_layers.0.weight f4 [120, 120]
000000 30 a9 3c bc 39 4d 31 3d ae 22 c6 bc 2b ed ee bb
       -0.011514947 0.043286536 -0.024186458 -0.007291456
000010 15 22 09 3c d0 15 9d 3d 51 e1 da bc bb 90 c9 bd
       0.008369942 0.07670176 -0.026718767 -0.09842058
000020 36 fd ac bb 3d 15 6a bd c5 40 20 3c a5 4c 1d 3d
       -0.0052792085 -0.05714916 0.009781067 0.038403172
000030 a5 b0 7e bd 28 6b ac 3d 0e 9d c4 3d c0 cf 4a bd
       -0.06218018 0.08418876 0.09600268 -0.049514532
000040 ca ad 73 bd 9a 70 ee bc 50 db 3e 3c 6c 03 82 bc
       -0.05949191 -0.029106427 0.011648968 -0.015870772
000050 24 e4 1c 3d 6b a7 1d 3c 22 8d ad bd 09 0d 56 bd
       0.03830351 0.009622435 -0.084741846 -0.052258525
000060 00 91 62 bd 5f 6d 1c 3c bd 7b 7c 3d a7 ca 1a 3d
       -0.055314064 0.0095475605 0.061641444 0.03779092
000070 71 e1 b6 3d 88 9f 50 bd f1 c1 35 bc 15 58 ae 3d
       0.08929718 -0.05093339 -0.0110936025 0.08512894
000080 90 92 8b bd b9 71 61 3c 1b 55 bf 3a 87 7f d0 bd
       -0.06815064 0.013760024 0.0014597507 -0.10180574
000090 0e 98 60 3d 79 1b bc bd 04 b6 6b 3d de 1c 20 3d
       0.05483251 -0.091849275 0.05754663 0.03909003
0000a0 54 06 e7 3d 98 8f dc 3d 15 01 c2 3c 52 3f 9c bd
       0.11280504 0.10769576 0.023682157 -0.07629265
0000b0 aa e9 da 3c de 29 3a 3d 49 a4 28 3d 3d 74 b9 bd
       0.026722748 0.045450084 0.0411723 -0.09055374
0000c0 b3 9b b2 3d d6 72 98 bd f6 88 85 bd c2 6e 91 3d
       0.087211035 -0.07443778 -0.06520264 0.071012035
0000d0 e1 c5 0a bd db 92 3f bd f6 8a 61 3d 31 fe b5 bd
       -0.03388012 -0.04677091 0.055064164 -0.08886374
0000e0 67 41 99 3c 69 e7 00 3e 6d 09 98 3c aa 35 96 3c
       0.018707944 0.12588276 0.018559182 0.018336136
0000f0 9c cc b7 bc 61 99 9d bd 4a 34 b1 3d ac de 88 3d
       -0.022436433 -0.0769527 0.086525515 0.06683096
000100 73 37 a2 bd 55 6c a5 bd 91 c0 a4 bd ea 21 bf bd
       -0.07920732 -0.08077303 -0.080445416 -0.093326405
000110 51 0d 32 bd 31 32 9a 3c 6d be 67 bc 78 b5 a1 3d
       -0.04346973 0.018822761 -0.014144522 0.078959405
000120 ea 6d 38 3d e7 82 b7 bd 12 d4 16 3d f5 75 f2 bc
       0.045026697 -0.089605145 0.03682334 -0.029597262
000130 84 98 f4 bc aa 64 34 3d 8a 4d 82 bc a0 43 11 be
       -0.029857881 0.044041313 -0.015906114 -0.14185953
000140 9e f4 dd 3d 03 04 1e 3d fe 44 98 3b 01 43 54 bc
       0.10837673 0.038578045 0.0046468964 -0.012955428
000150 94 d3 a2 3d 44 4a 09 3e 2b 19 77 3d da 7c f8 3c
       0.079505116 0.13407236 0.060326736 0.030332971
000160 f5 13 49 bd 3a 4d 2b 3d 01 06 88 3d c0 a8 80 3d
       -0.049091298 0.041821696 0.0664177 0.062821865
000170 58 c4 44 bd fd b7 a8 bc 16 88 5e bd 64 3e 55 bd
       -0.04803881 -0.020595545 -0.054329 -0.052061453
000180 b0 2d 4f 3d 2f 4a 8c 3d 31 d8 76 3d 81 d7 75 3d
       0.05058068 0.06850087 0.06026477 0.060019974
000190 28 97 fd bc 34 18 2e bc c9 d6 11 3c 13 4f cd bd
       -0.030955866 -0.010625888 0.008901306 -0.10024848
0001a0 43 7c 86 bc e6 52 e8 3b cf 19 9a 3d 10 75 85 3d
       -0.016416674 0.0070899604 0.07524454 0.065164685
0001b0 7c 98 90 3d ac 27 1f 3d 1c 0e cd 3b ff 6f e9 bc
       0.07060334 0.038856193 0.0062577855 -0.028495787
0001c0 86 1b 0d 3d d5 bc 83 bd 2d 68 26 bd 9e 44 9f 3d
       0.034450077 -0.06432501 -0.040626694 0.077767596
0001d0 57 72 37 3d 83 5e 89 3b 42 0a c6 3d 36 b0 b5 3b
       0.044786777 0.004192175 0.09669925 0.0055446876
0001e0 97 8f a4 3c 79 af 07 bd 77 bd d0 bd 47 24 b7 bd
       0.020088 -0.03312633 -0.101923876 -0.08942466
0001f0 4f 5c 4f 3d af 54 9c 3c 47 f7 c4 bb 76 13 24 be
       0.05062514 0.019083349 -0.006010923 -0.16023049
000200 37 98 c3 3b ee ff b7 3d 21 9a e0 bc 15 8f 87 bd
       0.005969073 0.089843616 -0.027417244 -0.066190876
000210 cb b8 57 3d 2b 1d a9 3d bb 6a d6 bd 89 18 b5 bb
       0.052666467 0.082575165 -0.10469576 -0.0055266065
000220 cd 92 fa 3b 2c b9 7c 3d 42 46 d4 3d 57 ef c2 bd
       0.0076468945 0.06170003 0.10364963 -0.09518307
000230 24 e0 9f 3c 00 00 d4 3d e2 c2 10 bd 09 f7 24 bd
       0.019516058 0.103515625 -0.035342105 -0.040274654
000240 ea 19 43 3d 57 37 9a 3c ad de ab 3d 29 17 f5 bc
       0.047632135 0.018825216 0.083920814 -0.02991827
000250 db 8e 97 3d 58 0a 49 3d 5d 28 a2 bc 5b 05 73 3d
       0.074002944 0.04908213 -0.019794637 0.05933128
000260 8f df 74 bd 2f e9 70 3c d5 5a e1 bd 10 c0 1a be
       -0.059783515 0.014704033 -0.11003653 -0.15112329
000270 69 df 29 3d 10 a2 a3 3c 59 3f 3c bd aa f7 90 3c
       0.041472826 0.019974738 -0.04595885 0.01769622
000280 b4 70 b2 3d 9c ce 51 bd a7 00 b2 3d cb f7 d2 3d
       0.08712903 -0.05122243 0.08691531 0.10301169
000290 b2 b0 3a 3d ca 93 dd bd 12 77 e6 bd d0 52 8b 3d
       0.045578666 -0.10819204 -0.112531796 0.068029046
0002a0 77 83 3a bd 7f 2e ef bd ab 8b b9 bd c3 2f 44 3d
       -0.04553553 -0.1167879 -0.09059843 0.04789711
0002b0 b0 12 6b 3d e9 85 cb 3c c7 c7 98 bc e8 49 76 bb
       0.05739087 0.024844127 -0.018649949 -0.0037580673
0002c0 e7 fd 9d ba c1 46 6e bd 41 63 97 3d 9e 5e 87 bd
       -0.0012053818 -0.058172945 0.07391978 -0.06609844
0002d0 f0 f5 8f bc 1f 28 9f bb 70 3d 57 3d 26 1c 29 bd
       -0.017573327 -0.0048570777 0.052548826 -0.04128661
0002e0 11 37 9b 3d f0 cb 8a bc 1f 49 ba bd 15 0a 83 3d
       0.075788625 -0.016942948 -0.09095978 0.06398407
0002f0 f9 c8 e4 3c 0d 0c 05 be 30 2a 07 bd 83 96 9b bb
       0.027927862 -0.12992878 -0.032999218 -0.004748167
000300 e9 23 8b 3d 10 3d 18 be 11 7c 08 3d 8c f4 2d 3d
       0.06793959 -0.14867043 0.033321444 0.042469546
000310 6e f1 52 3b 1e f7 1b 3c f3 d6 91 bd 16 17 0e 3d
       0.003218736 0.009519367 -0.071210764 0.034689985
000320 3a 40 03 be 77 aa 02 3d 04 34 5d 3d 23 6a 3d bd
       -0.12817469 0.03190085 0.054004684 -0.046243798
000330 fd 2b 4e 3c 83 44 cd bd d9 21 0c 3e 2b 70 e1 bd
       0.01258373 -0.10022833 0.13684787 -0.110077225
000340 bf 00 f5 3b 24 f2 bd bd 02 c6 b5 3d c5 cb 28 3c
       0.0074768956 -0.092747 0.088756576 0.010302489
000350 a1 d6 90 bd b9 6c b9 3d 37 47 a7 3d e0 59 32 3c
       -0.07072187 0.0905394 0.0816788 0.010885686
000360 ec 90 17 bd 7e a4 91 bc 7a a0 84 3b c5 7e 1b be
       -0.037003443 -0.017778631 0.0040474506 -0.15185077
000370 12 53 8d 3d 77 9d 68 3d c9 5f d9 3d 54 03 3b 3b
       0.0690061 0.056790795 0.10613973 0.002853592
000380 e6 9a 62 3d 2e e8 a1 bd 9c 76 a1 bd a1 f8 a8 bd
       0.055323504 -0.07905613 -0.07883951 -0.08250547
000390 39 a1 51 3d 72 39 0a be 4e 98 35 bd 8f 49 e5 bd
       0.051179145 -0.13498476 -0.044334702 -0.11195671
0003a0 ae 4f 2e 3d 08 8e 81 3c 5a 04 a5 3d cc 2d c0 bd
       0.042556457 0.015814796 0.080574706 -0.09383735
0003b0 fa 50 1e bc 34 fd f5 3c 87 74 54 3d f3 2a 10 be
       -0.009662861 0.030027963 0.05186894 -0.14078884
0003c0 7e 93 ca 3d 37 19 10 bd 80 6d 33 bc 1f 76 97 bc
       0.09891413 -0.035180297 -0.0109514 -0.018488942
0003d0 1d 9e c3 bc d9 1c 29 bd 83 52 4b bd a9 80 88 bc
       -0.023879105 -0.041287277 -0.049639236 -0.016662912
0003e0 40 05 7d 3c 58 e3 92 bd 5a e4 bb 3c 4d 76 a4 3d
       0.015443146 -0.07172269 0.022936035 0.080303766
0003f0 bf d2 ad 3d a4 b8 16 3d b2 8d e5 3b b8 54 88 3d
       0.08487462 0.03679718 0.007005417 0.06656784

middle_layers.0.bias f4 [120]
000000 ea cd 03 3d 04 2e 50 bd ca 7c 8c 3d 69 89 de bc
       0.032178797 -0.050825134 0.06859739 -0.027165132
000010 74 7f b0 bd f7 0a 92 bd 31 95 9a bc 0a 30 8a bd
       -0.0861806 -0.07130998 -0.018869968 -0.06747444
000020 ee 59 d4 bc e4 12 16 bc a1 7b 79 bd df e0 be bc
       -0.025921788 -0.009159777 -0.060908917 -0.023300586
000030 60 6f 2d bd 01 81 d5 bc 54 fa 84 3d 3f 85 b3 bc
       -0.042342544 -0.02606249 0.06493059 -0.021914123
000040 27 a9 f0 bc f2 cf 49 bd 58 10 83 3d cd 2f 9a 3d
       -0.029377533 -0.049270578 0.06399602 0.075286485
000050 25 32 43 3d f0 4b bf 3b 21 da c3 3c 15 59 04 bd
       0.047655243 0.00583791 0.023907723 -0.032311518
000060 1a e4 9d 3d 64 43 c6 3d 66 94 a7 3d 48 e9 f7 3c
       0.077095225 0.096808225 0.08182602 0.030262604
000070 36 de c9 3c d7 a6 7d bd 62 11 61 3d 6a 0a 17 bb
       0.024642091 -0.06192669 0.05494822 -0.0023046979
000080 68 32 29 bc e8 ef 93 bd 6d ef c4 3b d6 e8 ec 3c
       -0.010326959 -0.07223493 0.006009987 0.028919619
000090 7f fb 66 3d ba 88 0c 3d 46 e4 18 bd 95 3a 97 3d
       0.05639219 0.03431008 -0.037327074 0.073842205
0000a0 54 a1 11 3d 76 d6 17 bd b5 d2 61 3d 50 be 34 bc
       0.035554245 -0.03706976 0.055132587 -0.011031702
0000b0 10 07 49 bc 79 e8 f0 bc 21 b7 ac bd 1e 43 b3 bd
       -0.01226975 -0.029407727 -0.084333666 -0.08753036
0000c0 e1 9a 31 bd 47 78 b6 3d d0 e9 35 bd 14 8c 9d bc
       -0.043360595 0.0890966 -0.044412434 -0.019231834
0000d0 dd 46 8b bd be ad b3 3c af 0c a7 3d da 69 4d 3d
       -0.068006255 0.021933433 0.08156716 0.050149776
0000e0 92 84 81 3d 77 98 97 3d 7b 8f b2 3d 48 27 2e 3c
       0.06324114 0.07402127 0.08718773 0.010629483
0000f0 5f 12 09 3d 94 7f 29 bc 29 81 b0 3d 96 e5 6b bb
       0.033464786 -0.010345358 0.08618385 -0.0035994998
000100 39 d4 91 3d a1 ef 06 bb 96 ad a4 bd a2 72 aa 3c
       0.071205564 -0.0020589607 -0.080409214 0.020806614
000110 16 6b 17 3d f2 ec 1a 3d ba 5c e2 3c 82 9f d6 bc
       0.03696736 0.037823625 0.027632106 -0.026199106
000120 45 ba bc bd 00 c9 03 3d 39 98 40 bd 79 f6 39 3d
       -0.092152156 0.03217411 -0.04702017 0.04540107
000130 c0 9f 0d 3d 4f fa 64 3d 05 5e c6 bc 1b f7 c2 bc
       0.034576178 0.055902775 -0.024214754 -0.02379947
000140 76 69 a4 bc 6a e2 97 3d 6a 1b 4c 3d 54 d3 9f bd
       -0.020069819 0.07416232 0.04983083 -0.078039795
000150 1f ac 18 bd 12 45 d5 ba 52 91 75 bd 6e ce 9e bd
       -0.037273522 -0.0016271195 -0.05995304 -0.07754217
000160 29 0d a9 3d 5b 71 81 3d 0d 31 96 3d 16 c2 84 bd
       0.08254463 0.06320449 0.073335744 -0.064823315
000170 40 de 6e bd e4 30 19 3d 76 4e 58 3d 18 eb 1f 3d
       -0.058317423 0.03740014 0.0528092 0.039042562
000180 71 79 41 bd d8 1f 68 3d f3 28 59 bb 4c 1a 30 bd
       -0.047234956 0.056670994 -0.003313598 -0.04299383
000190 00 45 30 bd 51 74 93 bd 19 05 37 bd bf f8 15 3d
       -0.043034554 -0.0719992 -0.044682596 0.036614176
0001a0 d8 3d 28 bd 84 53 6c bd 0e e8 20 bc bb a7 a2 bd
       -0.041074604 -0.057696834 -0.009820951 -0.07942148
0001b0 df 34 be bc 47 13 7d bc 87 ac 94 bc ce 92 2c 3d
       -0.02321857 -0.015446491 -0.018148674 0.04213219
0001c0 c2 99 ac bd b0 9e cf bb b3 db c4 bd 23 e8 93 3d
       -0.084277645 -0.0063360557 -0.09612217 0.07222011
0001d0 79 a9 73 bd bf d2 49 3d 18 41 49 bd ab 49 47 bc
       -0.059487794 0.04927325 -0.049134344 -0.01216356

middle_layers.1.weight f4 [120, 120]
000000 a1 70 7e 3d cc 15 25 3d 2d 18 31 bd 70 3e bc bb
       0.06211913 0.04030399 -0.043235946 -0.005744748
000010 19 f3 96 3d a0 a3 43 bd 1d 14 bf bc 8f 4a ea 3a
       0.07370586 -0.047763467 -0.02332502 0.0017875003
000020 b4 0b 06 3d ef e2 57 bd 1e 13 cb 3c 42 66 74 3d
       0.032726005 -0.052706655 0.02478939 0.059667833
000030 c5 fe 92 bd 26 e4 97 bd 40 aa ee 3c 06 cc 1d bd
       -0.071775 -0.07416563 0.029133916 -0.03852465
000040 cb 74 1a bd fe c2 82 bb 40 6a 5d bd e9 9a 6e 3d
       -0.03770904 -0.00399053 -0.054056406 0.058253203
000050 50 99 bd 3c 85 63 a8 bd 87 fe 80 3d 87 7a 93 bd
       0.023144394 -0.08222107 0.06298547 -0.072011046
000060 3d 91 12 bd c2 77 3e 3d b4 14 1c bd 0e db 1f bd
       -0.03578304 0.04650093 -0.03810568 -0.039027266
000070 4e 3e ca bd fb 56 20 3d 46 fb 58 3d dc 81 05 3d
       -0.09875165 0.03914545 0.052974008 0.032594547
000080 89 11 da bc 2a 9e 7d 3d 14 d3 50 3d 0b 04 77 3d
       -0.02661969 0.061918415 0.05098255 0.06030659
000090 5d 62 20 bd d9 b0 73 3c 5a b5 f9 3c 96 e4 04 bd
       -0.039156307 0.014873707 0.030481983 -0.03244456
0000a0 f8 ac 2f 3d 24 44 a5 bd c8 9d 8a bd 7c 33 a6 3d
       0.042889565 -0.080696374 -0.06768376 0.081152886
0000b0 de 49 8e 3c 90 1e 23 3d 3b 0f 97 bc c2 f2 95 3d
       0.017369207 0.03982407 -0.01843988 0.07321693
0000c0 ba 45 e0 bc e0 ed 08 be 33 92 9c 3d 06 28 cc 3d
       -0.027376998 -0.13371992 0.07645073 0.09968571
0000d0 50 01 1e 3d 2c 26 8a bd 01 bc 2d bd c3 df dd 3c
       0.03857547 -0.06745562 -0.042415623 0.027084237
0000e0 1e 1c 21 3d e9 92 b2 bc 14 b7 6d bd d1 c3 1c bc
       0.039333455 -0.021798568 -0.058035925 -0.009568171
0000f0 b3 d7 c5 3d 93 34 3c 3d b0 67 27 bd c7 69 7d bd
       0.09660282 0.045948576 -0.04087037 -0.061868455
000100 70 75 13 bd b1 c6 dd bc 05 d0 5f 3d bb 1a 3f 3d
       -0.03600067 -0.027072283 0.054641742 0.04665635
000110 80 cb 19 3d 8d ea 79 3d 61 31 1c bc 27 87 20 bd
       0.03754759 0.0610147 -0.009533257 -0.03919139
000120 91 77 18 3d 9d 6a d3 3a 2b 61 0a 3c af 50 29 3d
       0.037223402 0.0016129796 0.008446018 0.04133671
000130 46 ee 79 3d ec 21 96 bd ac ed 6d 3d 02 91 8f 3d
       0.06101825 -0.07330689 0.05808799 0.0701008
000140 50 6c 27 bd 3a 34 99 3d af 43 e9 3c f6 eb e8 bc
       -0.04087478 0.074806646 0.028474657 -0.028432827
000150 a9 71 4f bc 75 99 a1 bd 4f 95 b8 bb f3 2a 64 3c
       -0.012661376 -0.07890598 -0.0056330333 0.0139262555
000160 bf 82 bc bd 59 66 89 bc be 39 36 3d 6e 86 7b bd
       -0.09204625 -0.016772436 0.04448866 -0.0614075
000170 b9 d6 29 bd 2c 67 7f 3d a8 7c 56 bd f0 94 7c 3d
       -0.04146454 0.06235425 -0.052364975 0.061665475
000180 08 b6 99 bc 4b c6 ef bc 76 31 74 3d 27 99 bb 3d
       -0.018763557 -0.029269358 0.059617482 0.09160071
000190 90 60 97 bc 3c ec 50 3d d4 02 99 3d 27 d0 83 bd
       -0.018478662 0.05100654 0.074712425 -0.06436186
0001a0 4d 20 8e 3d c3 b1 ca ba f4 d7 18 bd eb e3 7f 3d
       0.06939755 -0.0015464354 -0.037315324 0.06247322
0001b0 28 3f 29 3c f2 37 8a bd b6 ac 71 bd 84 40 14 3d
       0.010329999 -0.06748952 -0.0590026 0.03619434
0001c0 02 1a 7c bd 20 e2 13 bd 57 bc 94 3d e6 8a 81 3d
       -0.06154824 -0.03610432 0.072624855 0.06325321
0001d0 4a 37 9f 3c 3d 49 72 bc 89 0c 18 3d a4 c1 5a 3d
       0.019435544 -0.014787969 0.03712133 0.053407326
0001e0 d8 25 8c 3c 2b 2a ac bd c7 a8 92 3d ec 37 a4 3c
       0.017107889 -0.084064804 0.07161098 0.020046197
0001f0 72 d6 c5 bb 04 b1 68 3d c1 35 4f bd f9 8f 2b bc
       -0.0060375268 0.05680944 -0.050588373 -0.0104713375
000200 d3 74 84 bd 6f 36 f7 3d 43 d5 f7 3c 2e 8c 04 bd
       -0.06467595 0.12070929 0.030253058 -0.03236025
000210 4d 70 93 bd 13 60 a4 bd 9b a7 bf bd 53 38 a3 bc
       -0.07199154 -0.08026137 -0.0935814 -0.019924318
000220 96 12 db 3c 0a a6 98 3c 73 cd ed 3a 9d a9 29 3d
       0.02674226 0.018633861 0.0018142894 0.04142152
000230 5a 4e a1 bd 01 e6 68 3d 17 82 a4 bd 5e c2 e9 3a
       -0.078762725 0.056859974 -0.08032625 0.0017834415
000240 50 93 bb 3d da 30 0d bd 0c 2e 08 bd 3c f5 79 bd
       0.09158957 -0.034470417 -0.03324704 -0.06102489
000250 1f 7a 31 3c a0 60 aa bd 33 93 8a bd 3c 2f b8 bd
       0.010832339 -0.08319211 -0.06766357 -0.08993384
000260 df 9b 3c bd 42 be 97 bd 5a ba d1 3c c1 89 c6 3c
       -0.046047088 -0.07409336 0.025601555 0.024235608
000270 d6 cd 1c bc 6f 77 3c bc 14 73 4b bd ee f9 2b 3d
       -0.0095705595 -0.011503085 -0.049670294 0.0419864
000280 ba ed 31 3c 87 94 a0 bb f3 3d bb 3d ac 70 31 bd
       0.010859901 -0.0049005183 0.09142675 -0.043320343
000290 fa 7f ca 3d a4 7e cc 3c 1a 64 94 3d c2 be 98 bc
       0.09887691 0.02496273 0.07245655 -0.018645648
0002a0 d5 4b 1c 3d cb d9 ba 3d 37 f8 b6 bd 29 18 a5 bd
       0.038158257 0.09123572 -0.08934062 -0.08061249
0002b0 23 14 45 bd 37 de 1b 3d 33 20 f0 3b ac e5 91 bc
       -0.048114907 0.038053717 0.007328057 -0.017809711
0002c0 cc 92 c6 bd a4 eb b1 3d a9 6b 85 bd 77 e4 9e bd
       -0.09695968 0.08687523 -0.06514675 -0.0775842
0002d0 c7 e3 68 3d 6c 89 88 bd 66 ac 22 bd a3 7a 7b 3d
       0.05685785 -0.06666836 -0.039715193 0.061396252
0002e0 5f ba 16 bd f6 17 4b 3c 82 75 9e 3d 1a 77 3a bd
       -0.03679883 0.012395849 0.077372566 -0.04552374
0002f0 2d f6 75 3c be a4 98 3d c2 35 7d 3b 6e 2c e4 bc
       0.015012306 0.07453297 0.0038636778 -0.027853217
000300 a0 d8 9d bd 04 6b 7c 3c b5 7e 75 bc 2e ab 7f 3d
       -0.077073336 0.015406374 -0.014983823 0.06241911
000310 11 a8 f4 3c f8 1c 55 bd 9f 4b 5a bc f5 52 4c bd
       0.029865297 -0.05202958 -0.013323694 -0.0498838
000320 4f 62 fd bc 1d c3 96 3c a0 c4 d9 bc 67 2f d0 3c
       -0.030930666 0.018403584 -0.026583016 0.025413228
000330 4c 02 97 3d 62 80 38 bd ef 53 6a 3d 95 c8 c5 3c
       0.07373485 -0.04504431 0.05720895 0.024143497
000340 a9 d8 8e 3c 6e c0 ab bd 67 b4 85 3d 30 b5 97 bd
       0.017437296 -0.083863124 0.0652855 -0.07407606
000350 ae 46 a5 3d a9 b7 6a bc fd 41 b2 3d cd a2 22 bc
       0.08070122 -0.014326015 0.087039925 -0.00992651
000360 21 b5 b1 3c 1a 03 66 3d 44 fc 05 bc 72 d8 ff bc
       0.021692814 0.0561553 -0.008177821 -0.031231139
000370 37 33 28 3c 53 7b 0d 3d 68 22 08 bd cc e7 c7 bb
       0.010266117 0.03454144 -0.033235937 -0.0061006304
000380 5d ae 99 bd 86 47 8e 3c dc a3 34 bd 3b f0 1c 3c
       -0.0750396 0.01736809 -0.04410158 0.00957876
000390 d8 ac d8 bd 2b f5 45 bd 65 35 a7 3c af 3d a6 bb
       -0.10579842 -0.048329514 0.020411203 -0.005073271
0003a0 db ac 37 bd 00 b4 af bd e9 a8 40 bc 8f ab 12 bb
       -0.044842582 -0.08579254 -0.011759021 -0.002238009
0003b0 7d d2 74 3c d5 66 23 bd e2 e9 21 bd b2 5c ab bd
       0.014942762 -0.03989299 -0.03952969 -0.083672896
0003c0 2a 18 c6 3b 76 8b 10 3d b5 fd 88 3d f8 15 14 3c
       0.006045361 0.03528925 0.06689016 0.009038441
0003d0 bf 3f a4 bd d6 ae 76 bd e7 11 9e bd c9 f1 7f 3d
       -0.08019971 -0.06022533 -0.07718258 0.062486444
0003e0 58 e0 b0 bb d0 bd a5 3c 64 8d 00 3c 01 72 9b 3d
       -0.0053978376 0.020232111 0.00784621 0.07590104
0003f0 dd d8 0e bc b4 3a 9d bd 92 25 07 bc 60 b8 d7 3a
       -0.008718696 -0.07677212 -0.008248704 0.0016458146

middle_layers.1.bias f4 [120]
000000 7d 6b 5f bd 9f 51 68 bc ec c8 de 3c fc 4a 2a bd
       -0.05454587 -0.014179616 0.027195416 -0.041575417
000010 d6 22 a6 bd 20 5e 3e 3b b8 4b 1f 3c 4a 73 dd 3c
       -0.08112113 0.0029047802 0.009722643 0.027032513
000020 6f 55 9f bd 31 26 ba bd 49 e1 ce bc 03 86 f8 3c
       -0.07779967 -0.09089316 -0.025253909 0.03033734
000030 7a 3d 51 3d 99 db c4 3c 4e 34 9e 3d c5 7a 92 3d
       0.05108402 0.024030494 0.0772482 0.07152323
000040 72 bc a2 bd 8e 19 66 bd d6 04 00 3d 1f 74 12 3d
       -0.07946099 -0.056176715 0.031254612 0.035755273
000050 58 e4 97 bb b6 e5 f7 bc 30 47 26 3d a5 49 a8 bd
       -0.004635375 -0.030260902 0.040595233 -0.082171716
000060 0f 14 4e bd 4c d0 71 3c 40 15 c1 bd 4b 2e b7 3d
       -0.050312098 0.0147591345 -0.09427881 0.089443766
000070 71 9d b7 bd df 91 10 3d 72 2c a9 3d 17 7d 37 bc
       -0.089655764 0.035295364 0.082604304 -0.011199257
000080 4a 5c 7c bd 0c ce bc bd 4b 6b b5 bd 2b bb 43 3d
       -0.06161145 -0.09218988 -0.08858355 0.04778592
000090 26 2a a6 bd f9 d8 00 3d a5 a9 37 3d 14 67 b0 3c
       -0.08113508 0.03145692 0.04483952 0.021533526
0000a0 87 47 ad 3d 60 9d 46 3d cf ec 85 3d f3 4c 11 bd
       0.084609084 0.04848993 0.06539308 -0.035473775
0000b0 ee f3 02 3d 6e 77 87 bd 1c 69 fe bc af 4c 23 bc
       0.03197091 -0.06614576 -0.03105598 -0.009967013
0000c0 3f 7a 4a 3d 5f 7f 87 bd a9 df aa bc b9 c0 93 3c
       0.04943299 -0.06616091 -0.020858603 0.018036233
0000d0 bd e1 6a bd eb 43 90 bc 10 bf 4a bb ed 76 79 3d
       -0.057344187 -0.01761051 -0.0030936636 0.060904432
0000e0 ee c1 80 3d 3b ad f1 bc cf 6a ab 3d 4e e8 53 3d
       0.06286989 -0.029501548 0.083699815 0.051735215
0000f0 88 6d 92 3d e1 a2 a0 bd 72 76 04 bd 3e 09 ea bc
       0.07149798 -0.07843567 -0.03233952 -0.02856886
000100 64 c3 44 bd 14 e7 95 bd 73 6b e6 bb 0b ec 49 bd
       -0.0480379 -0.07319465 -0.007031852 -0.049297374
000110 e7 a7 9f bd ca 93 8d 3b d5 ca 0c 3d 12 b7 bb 3d
       -0.07795697 0.0043205963 0.034373123 0.09165777
000120 52 49 82 bd c2 f6 b6 bd 59 30 dc bc a2 55 af bb
       -0.06361641 -0.08933784 -0.026878523 -0.0053507844
000130 b6 16 dd bb be 83 69 3d ef e3 34 3d b3 8a a4 bd
       -0.006747092 0.057010405 0.044162687 -0.08034267
000140 45 70 2f bd 01 fb 30 bd df 5c fd 3c 28 ef f3 bb
       -0.042831678 -0.043208126 0.030928073 -0.007444281
000150 2f 8d b2 bd 10 82 4e 3d 25 b7 a1 bd da fc 6f 3d
       -0.08718335 0.050417006 -0.0789626 0.058590747
000160 7f 83 99 3c 3e 2e 51 3d ba 71 a8 bd db 46 28 3d
       0.01873946 0.05106949 -0.082248166 0.041083198
000170 d4 bb 60 3d 14 55 b3 bd b6 1a 9a bd 4e 94 b3 bd
       0.054866627 -0.08756462 -0.07524626 -0.08768521
000180 7d fd 9c 3d 69 58 b2 3d a6 6f b1 bd 60 b0 5e 3d
       0.076655366 0.08708269 -0.086638734 0.054367423
000190 2a b8 05 bd 0f 6f ba bd 0f ee 13 bd 76 cc b1 bd
       -0.032646336 -0.09103214 -0.036115702 -0.08681576
0001a0 6d 5b 75 3d a7 9b 8c bd 71 2b 83 3d 3f f3 9a 3d
       0.059901644 -0.06865626 0.0640477 0.07565927
0001b0 0f 4b 18 bd d9 75 59 bd e1 06 84 bd 80 ef 02 3d
       -0.037180956 -0.053090904 -0.064466245 0.031966686
0001c0 59 05 1c bd 78 47 c5 bd e4 78 ab 3d ca a4 3c 3d
       -0.038091037 -0.09632772 0.083726674 0.046055593
0001d0 d3 58 1b 3c 74 5b 85 b8 94 d1 93 bd 3a 94 e3 3a
       0.009481627 -6.358969e-05 -0.07217708 0.00173629

middle_layers.2.weight f4 [120, 120]
000000 63 45 81 3c cf fc 45 3d 77 e6 97 bc 6c c0 b6 3c
       0.015780156 0.0483368 -0.018542511 0.02230855
000010 07 6f cd bc 91 be b3 3d c4 9e a5 bd 61 bc e6 3c
       -0.025077356 0.08776582 -0.08086923 0.028165998
000020 40 4c ab bd cd 7a c1 3d 41 37 9f 3d 8a 8d b8 3d
       -0.08364153 0.094472505 0.07774211 0.090113714
000030 0e c4 bb bc 25 93 30 3c 41 b1 af 3c 2f f1 88 3d
       -0.022920635 0.0107772695 0.021446826 0.06686627
000040 16 58 7f bd de 71 c5 bc 0e 8f 21 3d ac 89 0a bd
       -0.062339865 -0.024102148 0.03944307 -0.0338227
000050 93 48 43 3d dc 71 a9 bc f2 ad 44 3d 8b 6f b3 bd
       0.047676634 -0.020684175 0.04801745 -0.087615095
000060 4b b8 9e 3d c2 45 86 bd 7d fc 68 3d ef fd 34 bd
       0.07749995 -0.06556274 0.056881417 -0.044187482
000070 0d 36 55 3d b7 2e f9 b7 d9 a0 0a 3c d7 b7 b1 3c
       0.0520535 -2.9704866e-05 0.008461201 0.021694107
000080 49 1f 0a bd 25 09 0d bd d8 8d a0 bd 59 f1 71 3d
       -0.033721242 -0.03443255 -0.078395545 0.059068058
000090 b2 a5 47 bd f8 09 a1 bd e5 41 08 3c 72 15 9d 3d
       -0.048742004 -0.078632295 0.008316492 0.07670106
0000a0 da c7 33 3d 5c 12 72 3d 90 42 78 bd 29 d6 a0 3d
       0.043891765 0.05909954 -0.060610354 0.07853348
0000b0 19 11 5b bd 6a a2 69 3c 1a 02 78 bd b0 5c 93 3d
       -0.053483102 0.014259914 -0.06054888 0.07195413
0000c0 30 25 2c bd 9d 9b 99 3d d6 79 4d 3c be 88 a9 bd
       -0.042027652 0.07500384 0.012541255 -0.082780346
0000d0 94 fb 11 bd 7b 75 e8 3c 7e 36 14 3c 10 62 8e bd
       -0.035640314 0.028376332 0.009046195 -0.06952298
0000e0 f8 a4 b2 3d ea c4 5e 3d 14 ef e5 bb 48 98 13 bd
       0.087228715 0.05438701 -0.0070170257 -0.0360339
0000f0 97 e8 95 3d 0a 2a 24 bd b3 bb 96 bc 02 69 b1 3d
       0.073197536 -0.040079154 -0.018400049 0.08662607
000100 d8 8c 89 3c 62 78 2e 3d 47 25 81 bd 2e 90 9b bd
       0.016790792 0.042595275 -0.06305938 -0.075958595
000110 5a ed c9 bb 2f c5 14 bd da c6 b5 3b 4c 2f bb bd
       -0.0061623277 -0.03632086 0.0055473866 -0.091398805
000120 25 5e 6e bd 4e 09 a8 3d 30 1b 8b bd 72 f3 3d 3d
       -0.058195252 0.082049 -0.06792295 0.046374746
000130 80 e7 4f 3d e0 fc 4b bd b1 15 aa 3d 80 74 42 3d
       0.050757885 -0.049801707 0.083049186 0.047474384
000140 02 52 10 3d 5f 40 38 bd c1 f0 3c bd e8 24 94 bc
       0.03523446 -0.044983264 -0.04612804 -0.018084005
000150 94 96 8f 3d ea ea c6 bd 16 6d c2 bc 9c 61 59 bd
       0.070111424 -0.09712775 -0.023733657 -0.053071603
000160 e3 8d 59 bd 82 55 ce 3c 8c 36 b8 bd e0 c5 06 3d
       -0.05311383 0.025187258 -0.08994779 0.032903552
000170 54 10 87 bd 86 9f f0 bc 58 80 d7 3c f1 93 69 bd
       -0.06594911 -0.029372942 0.026306316 -0.057025854
000180 d9 a6 39 3c 50 b5 77 bd 32 3a a4 3d f5 6e f1 3c
       0.0113312835 -0.060475647 0.080189124 0.029471854
000190 f3 76 a0 bd 16 86 96 3d 69 3f fa bb 81 de a0 bd
       -0.07835188 0.073497936 -0.0076369536 -0.07854939
0001a0 ed 04 4f bd ea 17 fb bc 0f 5e 85 3d 6e 4c d2 3d
       -0.050541807 -0.030651052 0.06512081 0.10268484
0001b0 2b 7a 81 bd 5f 9a 2d ba c5 c9 de 3c ff f1 7c bd
       -0.0632213 -0.00066224294 0.02719582 -0.061754223
0001c0 f9 6d 93 3d 98 95 76 bd 9c 25 28 3c 74 b7 6d 3d
       0.0719871 -0.060201257 0.010262873 0.058036283
0001d0 cd 20 a9 3d 0c e6 aa bc 97 d3 c0 bd b9 66 a9 3c
       0.082582094 -0.020861648 -0.094153576 0.020678865
0001e0 5f 1c 6b 3d 5f e9 c8 bd d8 2c 8c 3d 34 e2 0d 3d
       0.057400104 -0.09810137 0.06844491 0.034639552
0001f0 41 02 8a bd f9 1b a8 bd dd 26 b5 bb 10 09 a5 bd
       -0.06738711 -0.0820846 -0.0055283145 -0.08058369
000200 3b 09 62 3d f1 96 e0 3c ba 7f 3d bd 5d bc 9b 3d
       0.055184584 0.027415724 -0.046264388 0.07604287
000210 fc 9d 1a 3d 84 16 34 3a f3 c1 63 bd ea 39 5a 3d
       0.037748322 0.000686981 -0.055604886 0.053277887
000220 8d 29 77 3d a6 d8 ae 3b 95 f9 56 bd ef 68 59 bd
       0.06034236 0.005335885 -0.052484114 -0.053078588
000230 a8 8a 58 bc 6d db 46 bd 16 94 b7 3c 3d 0b 2d bd
       -0.013216652 -0.048549104 0.02240948 -0.042247046
000240 88 ac 14 bd db 0e 8c 3d f7 a3 ac bc 93 4c 86 3c
       -0.03629735 0.06838771 -0.021074278 0.016393935
000250 b5 f5 60 bd 0f c5 06 bd 24 2f ff 3c 3c af 2e bd
       -0.054921824 -0.032902773 0.031150408 -0.042647585
000260 55 9b 19 3d c0 03 73 3d b4 07 93 bc 49 5e c9 bc
       0.03750165 0.05932975 -0.01794801 -0.024581091
000270 b1 b2 be 3b b0 af 83 3d 91 62 8d 3d cf 51 66 3d
       0.0058196415 0.06429994 0.06903566 0.056230363
000280 67 26 9b bd bf e3 ad bc a3 8a 8f 3d 43 0c ec ba
       -0.07575684 -0.021226762 0.07008865 -0.0018009025
000290 b3 25 9b 3c 1c 13 9f 3d da 46 c9 bc 9c 3a ba 3c
       0.018938875 0.07767317 -0.024569917 0.022733025
0002a0 89 62 68 3d 1c b7 4c 3d 6c b7 90 bd 4b 4f 8f 3d
       0.056734595 0.049979314 -0.07066235 0.06997546
0002b0 88 f2 a9 3d 6f 7c 33 bd ba 13 f2 bb 82 2b 2c 3d
       0.08298212 -0.04381984 -0.0073876055 0.04203368
0002c0 0c 3c 75 3c e6 b4 af 3d 5d f5 9e 3d 61 55 69 3d
       0.01496793 0.085794255 0.07761643 0.05696619
0002d0 58 09 22 3d 9b 45 b8 3c e0 c3 c2 bd 2e 19 20 bd
       0.039559692 0.022494128 -0.095100164 -0.039086513
0002e0 ee 71 19 3c 07 ca 93 bc 7b a8 cf bd a6 8a 8d 3d
       0.009365542 -0.01804067 -0.10139557 0.06911211
0002f0 8a 20 8c bd 2a 37 4b bd a0 8d 9f bd ef 7b b9 bc
       -0.06842144 -0.049613155 -0.07790685 -0.022642104
000300 29 62 a0 3d a2 e3 93 bd d2 f0 99 bd f9 a5 45 bd
       0.078312226 -0.07221152 -0.07516636 -0.048253987
000310 66 21 c7 3c 5e d2 52 3d 26 65 c2 bb 45 ff 60 bc
       0.024307918 0.051470153 -0.005932468 -0.013732736
000320 61 d4 f6 3c 0e bc 57 3d 63 ab 0a 3c 6a 25 cf 3d
       0.030130567 0.052669577 0.008463713 0.10114558
000330 8d 69 5b bd 50 a3 ca bd 77 22 ab bd b7 51 16 3c
       -0.053567458 -0.09894431 -0.08356183 0.009174756
000340 77 f0 d6 3d ce ea 00 bd 3c 7a 88 3c 09 d3 90 3d
       0.10495084 -0.031473927 0.016659848 0.07071502
000350 f6 d0 dd bc 84 22 f9 3c 14 f4 2c 3b 99 a8 58 bd
       -0.02707718 0.030411966 0.00263906 -0.052895162
000360 83 d6 ba 3b f4 cc 8f bd e3 09 9c 3d eb f3 75 bd
       0.0057018413 -0.070215136 0.07619073 -0.06004707
000370 b6 08 fa 3b 24 4b 91 bd 91 0d b4 bd de ee 1a 3c
       0.007630433 -0.0709441 -0.0879165 0.009456364
000380 68 ab 14 bd 76 cd d3 bc e9 09 f9 bc aa e4 0b bd
       -0.03629628 -0.025854807 -0.030400233 -0.034153618
000390 59 4a 2b bd 20 71 b7 bc 98 71 99 3d 13 85 da 3c
       -0.04181895 -0.02239281 0.074923694 0.026674783
0003a0 5c 54 1f bd 20 87 a3 3d a0 8a d2 bc 54 32 ef bc
       -0.03889881 0.079847574 -0.025700867 -0.029198803
0003b0 d1 d8 ba 3d f5 4f 2d bd 9d 13 9f bb e9 f9 a6 bd
       0.09123386 -0.04231258 -0.004854633 -0.08153135
0003c0 e6 1c 8a ba fe 3e 34 bb 6d a5 4e 3d fc c1 8f bd
       -0.0010537177 -0.0027503367 0.05045073 -0.070194215
0003d0 75 71 71 bd 83 52 b3 bd 9d e8 a7 3d 0d 01 52 bb
       -0.05894609 -0.08755972 0.08198664 -0.0032044083
0003e0 63 be 03 3b fe c2 89 bd 9f 7c 0c 3d f1 16 96 3d
       0.0020102493 -0.06726645 0.034298535 0.073285945
0003f0 6e 03 91 bd 51 79 82 3d b3 09 a2 3c 99 45 60 bc
       -0.07080732 0.063707955 0.019780016 -0.013688468

middle_layers.2.bias f4 [120]
000000 93 03 47 bd ca 05 8e 3d 0d 1b 95 bd 46 2f 7f 3b
       -0.048587393 0.06934698 -0.0728055 0.003893809
000010 c3 00 6e 3d 19 2d 2b 3d 1f 4d 50 3c 8a 86 cd bd
       0.058106195 0.041791055 0.0127137 -0.10035427
000020 c7 53 85 bd 08 ce ab 3d fb 78 bc 3d 7b 6e a0 3d
       -0.0651012 0.08388907 0.09202763 0.078335725
000030 f0 57 cd 3d e1 a6 b5 bd 79 5c 22 3d 34 b9 75 bd
       0.10026538 -0.0886972 0.03963897 -0.059991077
000040 36 32 8d bd 54 34 a2 3d 31 aa b3 3d 82 e1 b4 3d
       -0.068943426 0.07920137 0.08772696 0.08832075
000050 84 85 2b bd e8 a7 7b bc 8a 76 9a bd 90 e9 8b bd
       -0.041875377 -0.015359856 -0.07542141 -0.06831658
000060 3c 0a 11 3d e0 d5 36 bd 3b bf a2 bd ac 17 7f bd
       0.03541015 -0.04463756 -0.079466306 -0.062278435
000070 73 61 08 bd 56 d4 0e 3b f2 a6 36 bd f8 69 66 39
       -0.03329606 0.0021794043 -0.044592805 0.00021973986
000080 b1 12 de bb 1a f8 bf bc a9 44 94 3d 97 e1 c1 bd
       -0.0067771305 -0.023433734 0.072396584 -0.09466856
000090 1d 3d f4 3b 00 f0 e8 3c d6 95 86 3d 2f eb a1 ba
       0.0074535743 0.028434753 0.06571548 -0.0012353415
0000a0 5b 2e 16 bd ad c5 32 bd d3 ff 7b 3d f5 7b 9c 3d
       -0.0366653 -0.04364555 0.06152327 0.076408304
0000b0 c9 0d 23 bd 57 5e 7c 3d b9 82 b1 bd e7 07 39 bc
       -0.03980807 0.061613407 -0.086675115 -0.011293388
0000c0 5d c5 2e bc bb 04 c9 3d 34 c1 ae 3d d5 41 8f 3c
       -0.010667172 0.098153554 0.08532944 0.017487446
0000d0 e1 5a 13 3d 8c d4 6a 3d a7 63 56 bc 69 8b c4 3c
       0.03597534 0.057331607 -0.013085282 0.023992257
0000e0 9f d1 29 3c 47 9b 4f 3d c7 8f 48 3d 2a 05 c4 3b
       0.010364919 0.050685193 0.04896524 0.005982061
0000f0 ff 96 a4 bd 40 33 f4 bb 42 ff d5 bc ac fa b0 3d
       -0.08036613 -0.0074523985 -0.026122693 0.08641562
000100 e5 45 36 bc d8 7d a5 3d 08 61 b6 3c 55 7f 02 bd
       -0.011125063 0.080806434 0.022263065 -0.031859715
000110 81 08 a5 bc 07 bd 03 3d f7 82 08 bd 97 c9 54 bd
       -0.020145657 0.032162692 -0.033328023 -0.051950064
000120 6b df 09 3d 51 ab a4 3c f9 cf f1 bc b8 74 44 3d
       0.033660334 0.020101221 -0.029518114 0.047962874
000130 42 b8 aa 3b 6c e8 eb bc c3 77 76 3d 0d 77 ba bd
       0.0052099535 -0.02879735 0.060172807 -0.091047384
000140 2e 58 5d bd a9 d9 d3 3c 4e e6 34 3d e6 86 38 3d
       -0.054039173 0.025860624 0.04416495 0.045050524
000150 67 37 06 bd 0a 96 90 bb 3a 81 87 3c 8e 35 18 3d
       -0.03276768 -0.0044124173 0.016541112 0.03716045
000160 32 7e 01 bd f2 b5 f6 bb a2 6b 4a bd e4 c4 46 bd
       -0.03161449 -0.007529014 -0.049419053 -0.048527613
000170 1b 15 a9 3d cd 18 fb 3c 3d 61 9a bd 33 30 3f bc
       0.08255979 0.030651474 -0.07538078 -0.011669206
000180 e2 02 f6 bc 61 f7 88 3c c9 ff 9f bc f7 e6 a9 bd
       -0.030030672 0.016719522 -0.019531148 -0.08296006
000190 bc c7 9d 3c 10 0b cb bc e0 fd cb bc 14 59 1a bd
       0.01926028 -0.024785548 -0.02490133 -0.037682608
0001a0 e2 73 9a 3d 40 8e 6a 3d 6e 0a 4c bb 3f 11 c7 bb
       0.07541634 0.057264566 -0.0031134146 -0.006075054
0001b0 09 7f c1 bc 86 df b1 3d 2a cb 57 3b 6a c0 ec bc
       -0.023620145 0.08685212 0.0032927492 -0.028900344
0001c0 1a 42 b3 bd ec 0f 65 3d bd db 45 bd 86 5e 90 3c
       -0.08752842 0.055923387 -0.048305262 0.017623197
0001d0 6b bc 9e 3d 78 cb 94 3c 4a ef ab bd c2 fa a3 bd
       0.077507816 0.018163428 -0.0839525 -0.08006813
