best_5.pt (torch, 652330 bytes, 25 tensors)

weight f4 [120, 3]
000000 f8 5e 7f be 36 74 c3 be bb ca 75 3e 22 6e 9b bd
       -0.24938571 -0.381746 0.24003117 -0.075893655
000010 74 80 b3 3d ab 60 08 bf 18 6c 1c 3e 96 78 00 be
       0.08764735 -0.53272504 0.1527561 -0.12546
000020 32 38 c7 3e 71 5b 46 be 0e 68 01 bf 69 8f 7e be
       0.3891006 -0.1937082 -0.505494 -0.24859394
000030 37 eb d3 be 6a 37 5f be e8 8c e5 be f0 e3 ee be
       -0.41390392 -0.21798483 -0.44834065 -0.46658278
000040 71 71 e8 3e 92 b2 9d bd 50 8c 8d bd c0 8d 04 bc
       0.4539905 -0.07700075 -0.06911528 -0.008090436
000050 5c 83 0d be 0a 90 01 3f 6c 1a 0f 3e 6b 20 d6 3e
       -0.13819641 0.5061041 0.13974923 0.41821608
000060 c2 b8 26 bd 33 e2 fc 3e 15 03 cf 3d 2f e0 7c 3d
       -0.040703543 0.49391326 0.1010801 0.061737236
000070 e2 53 b7 3d fa b3 e3 3e ad 3a 28 3d 2e 19 de bd
       0.08951546 0.4447325 0.041071583 -0.108446464
000080 a8 2a 8c 3d 6f 9f 01 bf 5f 8a 0d 3f 08 2c 60 bc
       0.068440735 -0.506339 0.5528926 -0.013682373
000090 75 f1 93 3d c2 65 f2 3e a7 c8 89 3e c9 bf 10 bf
       0.07223789 0.4734326 0.26910898 -0.5654264
0000a0 52 9e 82 3e 6e d4 0c bf 97 07 bd 3e 2c 13 26 be
       0.25511414 -0.5501164 0.36919853 -0.16218251
0000b0 da d3 f8 3c 34 e6 0d bf 34 13 fe bc 5c 18 5c bd
       0.030374456 -0.5542939 -0.031015016 -0.05373417
0000c0 d0 d3 f0 3e f3 1e a3 3e 39 22 33 be be b2 6c be
       0.470366 0.3185955 -0.17493524 -0.2311506
0000d0 e2 41 38 bc 25 d1 0d be 97 9b 85 be e0 7e da bd
       -0.011246176 -0.13849314 -0.26095268 -0.10668731
0000e0 a3 c9 8b 3e a8 57 4a be 88 fc ec 3e a7 17 63 be
       0.27302274 -0.1976 0.46286416 -0.22176991
0000f0 fb 26 34 3e 60 10 32 3e 9d 02 fe 3e 0c 03 76 3e
       0.17592995 0.17389059 0.4961137 0.240246
000100 f3 f0 86 3e b0 d6 d7 3e 9c 1c b7 3e e4 18 c5 be
       0.26355705 0.4215598 0.35764015 -0.38495553
000110 c2 e6 b3 be f5 c1 0a 3e 33 0e 19 3e e7 14 fa bd
       -0.35136992 0.13550551 0.14946823 -0.12211018
000120 81 07 e3 be 67 8c 0d 3e 10 4b 08 3e 2c f8 9e be
       -0.44341663 0.1382309 0.13309884 -0.31048715
000130 c7 77 01 3d e5 a8 aa be 83 7b ce be b6 c1 56 be
       0.03160837 -0.3333198 -0.40328607 -0.20972332
000140 59 3e e9 3e e9 79 37 bd 38 c2 c8 3e f7 6d 3d 3e
       0.4555538 -0.044793997 0.39210677 0.1849898
000150 ed b0 c5 be 2c 8c 7d 3e 6f 8d 02 bf a7 44 00 be
       -0.38611546 0.24760503 -0.5099706 -0.12526189
000160 a1 12 d1 be 8a 17 0a 3f dc ac 9f 3e 66 4d fb bd
       -0.40834525 0.5394217 0.3118657 -0.12270622
000170 b6 2b 11 3f d9 88 97 3e 26 f4 0d be da 9c b6 be
       0.5670732 0.29596594 -0.13862666 -0.35666543
000180 fd d2 8d be 48 3b a7 3d 2e 1c d3 be e8 34 0d bf
       -0.27700034 0.08165604 -0.41232437 -0.55158854
000190 9f 3a a6 3e 54 8f 9e bd a5 79 9f be 94 35 fb 3e
       0.324666 -0.077421814 -0.31147495 0.49064314
0001a0 94 fd 00 bf 3d 31 07 bf 15 2f 7d 3e 3f ee 47 3e
       -0.5038693 -0.52809507 0.24724992 0.19524477
0001b0 d0 39 8e be 44 2e 26 3e 50 19 3f be 34 d4 01 3f
       -0.27778482 0.16228586 -0.18662 0.5071442
0001c0 04 a9 0f 3f 7c a5 ad be 8c 00 b8 be 8a f2 b5 be
       0.5611727 -0.33915317 -0.35937917 -0.35536605
0001d0 c6 c6 fb be 42 50 e0 3e 4b fb c3 be 42 0f 0f 3d
       -0.4917509 0.43811232 -0.3827766 0.03492666
0001e0 1a a5 20 be 34 1a 8f 3e 3a 1f 50 bd fb a9 ea bc
       -0.15687981 0.2794968 -0.05081103 -0.028645506
0001f0 e3 18 94 be 34 43 c2 3e e8 a6 b4 be 39 04 a1 be
       -0.28925237 0.37941897 -0.3528359 -0.31448534
000200 1a f2 fe 3e e7 eb 12 3e d2 76 1e be f4 b8 f9 3e
       0.49794084 0.14347802 -0.15475014 0.4877392
000210 ff 9f e7 bc 75 81 dc 3c 34 85 cf be d0 05 ab 3e
       -0.028274534 0.026917199 -0.40531313 0.33402872
000220 42 31 60 3e d3 11 df 3e 93 02 2e bd 47 d9 e3 3e
       0.2189379 0.43568286 -0.042482924 0.44501707
000230 68 f8 88 3e a4 65 e4 3d f2 db 1e be 3e bf 05 bf
       0.2675202 0.11152199 -0.1551359 -0.5224494
000240 78 5e d3 be 13 cd fb be e0 45 8e be b0 fa 00 3e
       -0.4128301 -0.49179897 -0.27787685 0.1259563
000250 b8 db bc 3e 95 af 0d bf d8 d2 21 3e c9 bc 01 be
       0.36886382 -0.5534604 0.15803087 -0.12669672
000260 0a 2b 20 be 8c 17 50 3e 31 d6 52 3e ac 95 01 3f
       -0.15641418 0.20321482 0.2058952 0.50619006
000270 e5 f8 94 3e 29 88 b1 be 3f 27 0a be 3e 9b ba be
       0.2909614 -0.34674194 -0.13491534 -0.36446565
000280 3a f7 7f be 0d 73 86 be 87 47 21 3d 21 fb bd be
       -0.24996653 -0.26259652 0.039374854 -0.3710566
000290 b4 3c bb be ee 2a d9 3e dc fc bb 3d 77 92 ff be
       -0.3656975 0.42415565 0.091790885 -0.4991643
0002a0 a6 7c bb be 41 02 f5 be d7 f6 12 bf 46 08 d2 be
       -0.36618537 -0.47853282 -0.574079 -0.41021937
0002b0 60 f0 9d be b1 0c 10 bf 67 e7 42 3e a8 a8 02 be
       -0.30847454 -0.56269366 0.19033585 -0.1275965
0002c0 21 85 de 3e 70 b3 b9 be 9d d4 f4 3e 2e 9e cc 3e
       0.43460944 -0.36269712 0.4781846 0.39964432
0002d0 c9 f0 82 3e 60 e4 f6 be 5a cf 17 3f 81 c1 d0 bd
       0.2557433 -0.4822111 0.5930077 -0.10193158
0002e0 9a 81 88 be 33 0b 77 be 54 cf 5b be 2b 66 4f be
       -0.26661378 -0.24125366 -0.21465808 -0.20253818
0002f0 4c 50 13 be 69 b9 9a 3e ba 16 d9 3e 30 51 dd 3d
       -0.143861 0.30219582 0.42400151 0.10806501
000300 ec 73 a4 be 5f 32 af be b2 5d d0 be 89 a2 0b 3f
       -0.3211969 -0.34218118 -0.40696484 0.54544884
000310 8a cb 10 bf d0 69 37 3e 65 0e 84 3e 2f 7e 98 bd
       -0.56560576 0.17911458 0.25792232 -0.074459426
000320 01 17 00 bf ae fe a7 3d 93 ee f7 be 75 84 0e 3f
       -0.500351 0.08202873 -0.48424205 0.55670863
000330 19 79 fd be 85 4a ff be 73 cf 58 3e c0 76 98 3e
       -0.49506453 -0.4986154 0.21172886 0.297781
000340 7b fb 42 be 29 13 ed 3e 53 da 0d bf 22 0f dc be
       -0.19041245 0.4630368 -0.5541126 -0.42980295
000350 28 74 6e 3c ba 4c f0 3e 1c ff be 3d fa ca 09 bf
       0.014554061 0.46933538 0.09326002 -0.5382534
000360 15 e4 b9 be 9c fe 06 3f 37 dd e2 3d 26 e0 a6 3e
       -0.36306825 0.52732253 0.1107735 0.32592887
000370 15 4a 08 3f c5 d5 ae 3e 8a 72 09 3f 7f 58 a2 be
       0.5323804 0.34147468 0.536904 -0.31708142
000380 65 65 a8 be c2 48 ce 3d 9a 71 8b be 06 b0 f5 bd
       -0.32889858 0.10072471 -0.2723511 -0.119964644
000390 d9 e4 89 be 96 df bf 3e 9c 2d 9d 3e 4f 58 a5 bd
       -0.2693241 0.3747527 0.3069886 -0.08073484
0003a0 80 fb d6 3e 39 18 e2 3e 37 1f d1 3d ef 7a 08 3f
       0.41988754 0.44159105 0.10211032 0.5331258
0003b0 59 81 13 3f b8 49 d2 3e 3a 03 06 3e 5e ac 24 be
       0.57619244 0.41071868 0.13087168 -0.16081378
0003c0 ee 1b ec 3d ca 28 01 3f 42 c0 4c be 15 b8 fd 3e
       0.11528765 0.50452864 -0.19995216 0.49554506
0003d0 67 7f d0 be 8f 91 9c be 6b 0a e7 be be c9 a1 3e
       -0.407222 -0.30579802 -0.45125136 0.3159923
0003e0 d7 70 32 3d bb 86 9e 3d c2 2c b8 3e 66 0a 36 be
       0.043564644 0.077405415 0.35971648 -0.17777404
0003f0 c3 88 22 be 89 4d 3f 3e bd 5f cb 3e 31 2c fd be
       -0.15872483 0.18681921 0.3972148 -0.49447778

bias f4 [120]
000000 35 24 a5 3e 73 1a 84 3d 61 b4 b0 be bd 74 27 3e
       0.32254186 0.06450357 -0.34512618 0.16353126
000010 e9 4c 2b 3e 63 9e 96 3d 22 a2 b3 3e b8 42 db be
       0.16728558 0.073544286 0.35084635 -0.4282434
000020 66 3d dc 3e fb d2 14 3f 36 1f de 3e 31 5b 12 3f
       0.43015593 0.5813443 0.43383187 0.571704
000030 65 7d 75 3d f3 66 5f 3e e1 92 57 be f7 2b 06 bf
       0.05993404 0.21816616 -0.21052124 -0.52410835
000040 f7 3c 73 be 81 0b d5 3e 58 62 14 3f 8f ce f3 3e
       -0.23753725 0.4161034 0.5796256 0.4761853
000050 25 48 16 bf dd 70 06 bf d5 b4 2e bc 57 d0 a2 be
       -0.58703834 -0.52515966 -0.010663231 -0.31799576
000060 0c 90 93 be b0 a0 c0 be e7 84 08 3f 5a ab fb be
       -0.28820837 -0.37622595 0.5332779 -0.49154168
000070 92 5a 0b 3f c1 83 04 bf 81 16 84 3e 26 12 d5 be
       0.54435074 -0.5176354 0.2579842 -0.4161541
000080 7b 78 d6 be 99 d1 01 bf d8 fe df be 07 e1 4b bc
       -0.41888794 -0.50710446 -0.43749118 -0.012443787
000090 04 8a 23 3e 46 4e a4 bd ba 41 d2 be 63 27 71 be
       0.15970618 -0.08022742 -0.4106577 -0.23550181
0000a0 47 bd 82 3d 52 ed d9 3e a0 43 54 be d7 aa e4 be
       0.06383758 0.42563874 -0.20728922 -0.4466159
0000b0 eb 64 13 bf 9a 5c 0b bf 28 01 e4 3e dd 08 d7 bd
       -0.57575864 -0.54438174 0.44532132 -0.104997374
0000c0 84 8f 70 be 59 e5 2f 3e bc 3a 83 bd d9 0a db 3e
       -0.23492247 0.17177333 -0.06407687 0.42781714
0000d0 82 16 f5 3e 56 6e 5c bd 1d 1a 58 3e 0e 4a 9b be
       0.47868735 -0.053816162 0.21103711 -0.30329937
0000e0 99 f0 c3 be 6d 42 c9 3e 58 0f 0b 3f 1d 14 0d bf
       -0.382695 0.3930849 0.5432029 -0.55108815
0000f0 03 de fc 3e 83 8f af 3e 58 60 4d 3e 36 a4 d7 be
       0.49388131 0.34289178 0.20056283 -0.4211747
000100 db 8d c0 be 61 99 44 be 40 bf 35 bd a9 b7 09 bf
       -0.37608227 -0.19199134 -0.044371843 -0.5379587
000110 2a 08 e1 3e 03 2c fb 3d 29 c7 0f 3f 9a e6 73 bd
       0.4395154 0.12264254 0.5616327 -0.05954609
000120 d5 48 e7 3e fc f5 b0 3e 82 2e 11 3f 10 13 54 3e
       0.45172754 0.3456267 0.5671159 0.20710397
000130 87 a3 6a be 5d 45 ee be 55 4b 74 3e 72 5b 00 bf
       -0.22913943 -0.46537295 0.23856862 -0.50139534
000140 5f 59 ea 3e 6b ac a6 be 44 60 8f bd b6 62 c0 be
       0.4577131 -0.3255342 -0.07000783 -0.3757531
000150 71 30 c1 3e 67 b1 c2 3d 74 fa 12 bf 60 cc 0c 3d
       0.3773227 0.09506493 -0.5741341 0.034374595
000160 5a 70 49 3d 80 6e fd 3d d7 bb a8 3e 61 a0 a6 3e
       0.049179412 0.12374592 0.3295581 0.32544234
000170 00 92 d2 3e 6f 81 e6 be 33 8c 88 bc 1d d5 85 be
       0.41127014 -0.45020625 -0.016668415 -0.26139155
000180 b9 51 f8 be dd fb 05 3f 6f d2 00 bf bb 29 b3 3c
       -0.4849985 0.5233744 -0.50321096 0.021870485
000190 0d d5 6f 3e 95 a6 02 bf 30 c3 02 3e 69 86 f1 bd
       0.23421116 -0.51035434 0.1276977 -0.11793215
0001a0 22 f4 f5 bd d2 39 c5 bd c9 d7 b4 be 54 27 02 3e
       -0.12009455 -0.09630169 -0.3532088 0.12710315
0001b0 47 1e 3e 3e 98 31 b3 3e 6c d5 0b bf a0 bb bc 3e
       0.18566237 0.34998775 -0.5462253 0.36861897
0001c0 b4 c5 d6 3e 81 18 f2 3e 6f 1d 05 bf f8 e4 88 be
       0.4194771 0.4728432 -0.5199804 -0.2673719
0001d0 5c a4 8e be f9 f8 12 3f a0 96 4e 3e 81 2a e0 bd
       -0.2785977 0.5741115 0.20174646 -0.10945607

weight f4 [1, 120]
000000 a6 3a 3b bd a5 ba aa bc ed 84 96 bd e0 84 aa 3d
       -0.04571023 -0.020840952 -0.07349572 0.08326125
000010 86 ee dc bc 8b 39 88 bd c7 80 59 3d d6 31 99 bb
       -0.026969206 -0.066516005 0.053101327 -0.0046751304
000020 de 4e 57 3d 44 36 5f bd 2d 22 cb bc 2b cb bb bd
       0.052565448 -0.05449511 -0.02479657 -0.091696106
000030 f9 9b 81 3d ff 8d 22 3c 98 59 66 3d be bc 3e bc
       0.063285775 0.00992155 0.056237787 -0.011641679
000040 85 17 41 3c ae 5a b4 3d 96 37 a7 bd dd 2a 2e bb
       0.011785393 0.08806358 -0.08164899 -0.0026575841
000050 40 5e 58 3d 79 79 4b 3d 50 67 97 3d b2 69 7c bd
       0.05282426 0.049676392 0.07392752 -0.061624236
000060 ff 82 40 3d 5b 0a a0 3d a6 a7 99 bc 7c d0 31 3c
       0.046999928 0.07814475 -0.018756699 0.010852929
000070 cc 3f dd bc b8 ef ae 3d 4d ac 72 bd b2 13 06 3d
       -0.02700796 0.085418165 -0.05924635 0.032733627
000080 4e bd 2d 3d bc 65 2f 3b 23 91 26 bd 83 1b 31 3d
       0.042416863 0.002676352 -0.040665757 0.043239128
000090 4b 60 0f bd 38 5e 91 bd 39 ca b2 bc 7b ea 35 bd
       -0.03500394 -0.07098049 -0.021824943 -0.04441307
0000a0 dd ea b4 bd 1d 48 1c ba 36 32 f0 bc ab 2e 3d 3d
       -0.08833859 -0.00059616735 -0.029320817 0.046187084
0000b0 7c c1 8a bd 78 52 0b bd f1 20 5c bd 37 03 7b 3d
       -0.067751855 -0.034014195 -0.053742353 0.061282363
0000c0 cd 45 10 3d 4a 66 e4 3b 4a a0 9d 3d 7b 1a 3e bd
       0.035222817 0.0069702016 0.07696588 -0.046411972
0000d0 d7 0f b5 bc 88 f7 95 bc d7 da 67 3d 9a 42 1b bc
       -0.02210228 -0.018306509 0.056605186 -0.009476328
0000e0 b8 6b f7 3c 17 4e 4e bd 0e f5 a1 3d 43 6c 86 3d
       0.030202731 -0.05036744 0.079080686 0.06563618
0000f0 76 47 af bd bc 4c 45 3d e7 c8 c5 bd 0e 1f 1e bd
       -0.08558552 0.048168883 -0.0965746 -0.038603835
000100 67 11 89 3d a3 19 23 bd 3d 36 5a bd b9 74 7f bd
       0.06692772 -0.03981937 -0.053274382 -0.062367175
000110 ab 29 74 bd 3d 53 57 bd d0 a0 1a 3c f7 f4 a9 3d
       -0.05961005 -0.052569617 0.009437755 0.082986765
000120 a6 8c a3 3d 52 ef 8c bd 1c 49 a9 bd 32 c4 83 3c
       0.07985811 -0.06881584 -0.08265898 0.016084764
000130 f0 83 ae bd 81 4e 32 3c 44 5c 59 b9 2d b0 cb bb
       -0.08521259 0.010882975 -0.00020729104 -0.00621607
000140 8c 79 23 bd 59 11 3a 3d e4 17 36 bc 78 2c 45 bd
       -0.039910838 0.0454267 -0.011114094 -0.04813811
000150 3b 9d 93 bd a6 7b 43 3c 94 6f 7e bd f3 53 b3 3d
       -0.07207724 0.011931336 -0.062118128 0.087562464
000160 da 05 6a 3d ad c8 bd bc a8 58 8c 3b d8 a2 98 bc
       0.057134487 -0.023166979 0.0042830296 -0.018632337
000170 46 f5 46 3b 3e e7 4e 3d d7 56 8b 3d 6b d2 7f 3d
       0.0030358597 0.0505135 0.06803673 0.06245653
000180 22 76 37 bd 31 a0 b9 3c d6 a2 d2 3c 48 2a 5f bc
       -0.044790395 0.022659393 0.025712412 -0.0136209205
000190 98 aa 3a bd 77 9b c7 3c a3 0e 2c 3d 43 84 85 bd
       -0.045572847 0.024366124 0.042006146 -0.065193675
0001a0 25 e9 50 3d d9 b9 a4 bc 5f bd c3 3b 43 bb 8e bd
       0.051003594 -0.02010815 0.0059735025 -0.06969311
0001b0 b0 f9 4c 3d cd ba d4 3c e7 a3 a1 3d 87 fd 2a 3d
       0.050042808 0.02596798 0.0789259 0.04174569
0001c0 e1 22 f6 3c 46 3a 5e 3c 1b b8 91 3d 41 30 83 bd
       0.030045928 0.013563698 0.071151935 -0.06405688
0001d0 66 fc a0 bc 40 07 f4 3c bb cc a0 bd f0 a9 8a bd
       -0.019651603 0.029788613 -0.07851549 -0.06770694

weight f4 [120, 120]
000000 de 2e a7 bb ab de 8a 3c 08 c8 63 3d e0 10 ab bd
       -0.0051020226 0.01695188 0.055610687 -0.08352828
000010 7e c3 6c bd ba ec a1 bd 5c 89 cb 3d d1 01 2d bd
       -0.057803623 -0.0790648 0.099383086 -0.04223806
000020 e1 ad 9d bd f9 73 19 bc 95 ac a7 bd d7 29 a2 3c
       -0.076991804 -0.009366029 -0.08187214 0.019795341
000030 e9 02 19 3d 89 bf 22 3b 78 ed 91 bc d2 e5 98 bc
       0.03735629 0.0024833402 -0.01781343 -0.018664274
000040 f2 9f a0 3d 3f 0b 25 3d 8b c2 ad 3d dd 78 3c bd
       0.07843007 0.04029393 0.08484372 -0.0460137
000050 51 93 db 3c bc 22 d8 3c 16 70 c8 bd 2d 57 2a bd
       0.026803644 0.02638375 -0.09787004 -0.041587044
000060 3b eb 2b bd 5c 9a 33 3d 3a 2c 8a bd 85 0c be bd
       -0.04197238 0.04384838 -0.06746717 -0.09279732
000070 f4 e2 7f bd 28 6e 7d bc f1 9e 90 3d 4f de 98 3c
       -0.0624723 -0.015468158 0.07061566 0.018660692
000080 7b 49 94 bb 73 03 0f 3c 78 30 bf bc 3e 4b 29 bb
       -0.004525361 0.00872885 -0.023338541 -0.0025832201
000090 ac 69 5a 3d 48 aa 93 3d a3 07 4f bd 0e fe b3 bd
       0.053323433 0.07210213 -0.050544392 -0.087886915
0000a0 b3 58 49 3d c2 14 77 3d a8 05 3b bd e0 f5 8d 3d
       0.049156856 0.06032253 -0.04565969 0.069316626
0000b0 a5 d7 19 bd f8 cd 1a 3d 4c 67 1a bc b4 77 ec bc
       -0.03755917 0.037794083 -0.009424042 -0.028865673
0000c0 b2 1d 40 3d bd 0b c0 bc 7a 41 8e bd d0 fd 34 3c
       0.04690332 -0.023443097 -0.069460824 0.011046842
0000d0 b1 26 29 bc ca e1 50 bd 0c 63 6c 3d fa be 22 bc
       -0.010324166 -0.05099658 0.057711646 -0.009933228
0000e0 f2 cc 9d 3c 8d e9 94 bd 75 49 15 bd 89 17 a9 bd
       0.019262765 -0.07271109 -0.036447007 -0.08256442
0000f0 99 ad a9 3d b3 7d bc 3c 4b 65 48 bb 3f 68 1a bd
       0.08285064 0.023009157 -0.0030577953 -0.037697073
000100 2d 7d 5a bd 79 a3 22 bd e5 3f 12 3d 2a 98 56 bd
       -0.053342033 -0.03970668 0.035705466 -0.05239121
000110 81 19 42 bd 4b 9f 9a 3d 52 d1 7b bb 4d 2b 08 b9
       -0.047387604 0.07549914 -0.0038424325 -0.00012986102
000120 20 e9 99 bd 1f 81 1a 3d 9b 3b 1a 3d 3a fa 24 3d
       -0.07515168 0.037720796 0.0376545 0.040277697
000130 fb 86 e0 3d 7a 55 16 3c b8 05 72 3d b8 72 a2 3d
       0.109632455 0.009175653 0.059087485 0.07932037
000140 0c ed 98 3d 19 26 6f bd 15 49 b1 3c 0a 3f ca bc
       0.07467088 -0.058385942 0.021641294 -0.024688262
000150 3d f4 0f bd 6d 8f 25 bd bc 96 9e 3c c8 b4 b7 3c
       -0.035145033 -0.040419985 0.019358985 0.02242507
000160 a5 1d 97 3d 59 57 48 3d d3 d2 b0 bd 0d b2 b2 bc
       0.07378701 0.048911426 -0.086339615 -0.021813417
000170 be a0 1d bd 3c 5d c4 bc 11 ef 1b 3c 19 4f 72 3d
       -0.038483374 -0.023970239 0.009517447 0.059157465
000180 19 df 34 bd 33 99 eb bc 57 d1 c2 bc 8e 0e b4 3c
       -0.044158075 -0.028759575 -0.023781462 0.021979596
000190 b0 4d 64 bd 7f 90 83 bd 9a 7d a0 bd 71 9d 8b 3d
       -0.05573815 -0.06424045 -0.078364566 0.06817139
0001a0 b6 62 b1 bd aa a1 03 bc 65 bf a0 bd f9 f4 10 bd
       -0.08661406 -0.008034149 -0.078490056 -0.035389874
0001b0 df 17 b9 bc 7e 16 83 3d 41 a3 2d 3d c5 3b 70 3c
       -0.02259439 0.064007744 0.04239202 0.014662688
0001c0 30 c2 64 bd 56 ba ac 3c 9f a9 37 bd 77 b9 26 bc
       -0.055849254 0.021084946 -0.044839498 -0.010176054
0001d0 8c 65 ec 3c 00 0f 2d 3d 02 4e 6d 3d 26 be 85 bd
       0.028857015 0.042250633 0.057935722 -0.065304086
0001e0 8c ce 5e bd da a6 ba 3d e6 7b 8e bd fa c5 ee bc
       -0.054396197 0.09113856 -0.069572255 -0.029147137
0001f0 e7 82 5c 3d 1b 3e 9b 3d f8 a5 bf 3b 5c c3 10 bd
       0.053835776 0.07580205 0.0058486424 -0.03534256
000200 ce 2f d9 3c c0 2b 6b bd 96 c5 85 ba 4a 28 a1 3d
       0.026512053 -0.05741477 -0.001020598 0.07869013
000210 41 39 39 3c dc 2d 62 bd 93 9e ba 3d 74 20 85 3d
       0.011305154 -0.055219516 0.09112277 0.065003306
000220 d6 10 6f 3d bb 39 65 3b 1c 3e 82 3c 4e f8 93 3d
       0.058365665 0.0034977037 0.015898757 0.07225095
000230 22 16 1c bc 2d 81 df 3c e9 82 b0 3d 81 6d a0 bd
       -0.009526761 0.027283275 0.08618719 -0.07833386
000240 07 ae ef bc 84 88 fb 3c 6e c7 8b bc 62 9d 7d bc
       -0.029257787 0.030704744 -0.017062869 -0.0154794175
000250 ee b7 a0 bd 06 d0 96 3b d0 32 71 3d 5f 6d 84 3d
       -0.07847582 0.004602435 0.05888635 0.064661734
000260 00 a9 16 3c a5 3c 00 3c 6e 09 28 3c 75 fa 73 bd
       0.009195566 0.007826959 0.010256154 -0.059565026
000270 e0 24 72 3d f9 e7 00 3d 4c bc ab 3d 4c ca 69 3d
       0.059117198 0.031471226 0.08385524 0.05707769
000280 d3 ad b6 bd 8b f3 3d bd bd f1 10 3d 3d 0a ce 3c
       -0.08919873 -0.04637484 0.03538679 0.025151366
000290 06 4f 95 3d fa b5 33 3d 65 b8 8b 3c 24 b5 d7 bc
       0.07290463 0.04387472 0.0170557 -0.026331492
0002a0 4a f7 de 3c 77 3e 57 3b f1 68 91 3d dd e3 69 3d
       0.027217526 0.0032843628 0.07100094 0.057102073
0002b0 ef 37 18 bd e1 04 e3 bc 01 3f 22 bd 84 06 ec bc
       -0.037162717 -0.027712287 -0.039610866 -0.0288117
0002c0 e6 a5 8a 3d 81 fe a5 3d fe e6 80 bd 7c 6a ef 3c
       0.06769924 0.081051834 -0.06294058 0.02922558
0002d0 cd 6b 3d bd 1a 90 4f bd cc 18 00 3d 0d 0d 75 3d
       -0.046245385 -0.050674535 0.03127365 0.0598269
0002e0 62 5f 58 bd 84 20 39 bd e9 38 71 3c 02 f0 b3 3d
       -0.05282534 -0.045197025 0.014723041 0.08786012
0002f0 69 b9 af 3d 93 7c 73 bc ae ab 97 bc 56 5e f8 bc
       0.08580286 -0.014861244 -0.01851448 -0.03031842
000300 eb 01 ff 3c f4 d0 b9 bd 35 43 91 3d 6e ee 15 3d
       0.031128844 -0.09073058 0.07092897 0.036604337
000310 d5 17 a2 bd a9 ad 84 bd 0c 4a 96 3d 26 8d 60 3d
       -0.07914702 -0.064784355 0.07338342 0.05482211
000320 c9 6a 03 bd 2a 51 eb bc 8d f8 2c 3c 27 cc 94 3d
       -0.03208426 -0.028725225 0.010557306 0.072655015
000330 a3 7a 35 3d 56 8a a1 bd 02 c6 c0 bc 28 27 4a bb
       0.04430641 -0.078877136 -0.023531917 -0.0030846093
000340 02 80 7b 3c be d1 84 3d fa a1 85 3d 38 4c b9 bd
       0.015350344 0.06485318 0.06525035 -0.09047741
000350 3e d9 8c 3d f3 2f 31 3d bf 02 ec 3c ae 85 46 bc
       0.06877373 0.04325862 0.028809903 -0.012116833
000360 81 d1 c9 3c e0 6c 85 bd 47 fa 79 bd cb fe 36 3d
       0.024636032 -0.06514907 -0.0610297 0.044676583
000370 47 ca 1d bd b1 9a b7 bc 0e 31 5a bd 9d 2f 81 bd
       -0.038522985 -0.02241263 -0.05326944 -0.0630791
000380 c7 1d 3a bd cc 39 1c 3d dc 11 9a 3d 2d 4f a0 bd
       -0.045438554 0.038141057 0.07522938 -0.078276016
000390 8c ce dd bc 1d e7 8b 3d 30 77 c8 3d a1 8e 83 bd
       -0.027076028 0.06831191 0.09788358 -0.06423689
0003a0 d3 6d ba bd 9e 32 4b 3b 4b 92 88 bd a2 a2 8d bd
       -0.091029786 0.0031005512 -0.06668528 -0.06915785
0003b0 3b cb c0 3d 83 5c 49 bd ca db 44 bd 8b 22 7b bd
       0.09413763 -0.04916049 -0.04806117 -0.06131224
0003c0 e2 fb 81 3d 6f 65 ac bc 5d 2c cd bc 24 60 90 bd
       0.06346871 -0.021044461 -0.025045568 -0.07049587
0003d0 91 a7 56 3d 3c 06 96 3d aa 9c 3a 3c 74 55 4a bd
       0.052405898 0.07325408 0.011389891 -0.0493979
0003e0 45 6a a3 3d 74 d4 cc bc 16 b5 95 bd 08 31 3d 3d
       0.07979254 -0.02500365 -0.0730993 0.046189338
0003f0 7d 87 4c bd 8e 3e 2b bb 9f f3 5b 3c 69 9f 98 3d
       -0.0499339 -0.0026129815 0.013424783 0.0745228

bias f4 [120]
000000 61 c7 9f bd 1f 47 5b bc 70 ac 57 bd e3 1b ae 3d
       -0.078017004 -0.013383656 -0.052654684 0.08501413
000010 de 21 96 bc f7 13 e1 bc f7 87 8d 3c 33 ea a6 bc
       -0.018326696 -0.02747534 0.017276747 -0.020375347
000020 94 42 d8 3c 33 7f b3 bd b1 ac 46 bd 5d 8f 76 3c
       0.026398934 -0.08764496 -0.048504535 0.015048829
000030 83 5d 68 bc ff 3b 48 3d 00 05 49 3d 17 cc 9a 3c
       -0.014182451 0.04888534 0.049077034 0.018896146
000040 db be 28 3c a9 4b c4 39 fb 57 78 bd 27 62 fd 3c
       0.01029941 0.00037440404 -0.06063078 0.030930592
000050 4f d6 91 bd fb 41 46 3d 57 b2 32 bd 67 9c 52 bd
       -0.07120954 0.048402768 -0.04362711 -0.05141869
000060 11 e8 96 3a d1 d1 87 bd 6d a2 aa 3a 20 46 cf bd
       0.0011513253 -0.06631816 0.0013018377 -0.10120797
000070 3d 14 98 bd db e5 66 bd 57 cc 18 bd 88 2a d4 3c
       -0.07425735 -0.05637155 -0.03730425 0.025899187
000080 35 b6 1c 3d d2 79 6e 3d 42 96 b2 bd 42 fc f1 bc
       0.038259704 0.058221646 -0.08720066 -0.029539231
000090 19 52 25 3d 8b 99 45 3d 29 18 3f 3c fc 43 3b bc
       0.040361498 0.048242133 0.011663475 -0.011429783
0000a0 f2 00 a3 3d d8 d5 75 bd 46 cf 45 3c de 30 d3 bc
       0.07959165 -0.06001839 0.012073344 -0.025780138
0000b0 68 0d 0b 3d c1 5b 48 bc ba 3e 94 3d 73 fe 7b bc
       0.033948332 -0.012228907 0.07238527 -0.01538049
0000c0 c4 52 8a bd 01 bf b0 bd 04 ae 99 bd 5e 64 a3 bc
       -0.067540675 -0.08630181 -0.07503894 -0.01994532
0000d0 10 4d 3b 3c 72 cc 4a bd 4c 31 ca bc 22 1b 3e bd
       0.011431947 -0.04951138 -0.02468171 -0.046412595
0000e0 d8 73 98 3d 08 77 67 bd ca 43 49 3d 77 7f e8 3c
       0.074439704 -0.05651 0.049136914 0.028381092
0000f0 2a 7e 97 bd bf c6 6b 3d e5 95 50 bc f0 12 fb 3c
       -0.07397111 0.057562586 -0.01273105 0.030648679
000100 f5 ea 32 3c e7 b0 00 3c 17 1f 64 3d 52 1e 99 3d
       0.010920276 0.007854677 0.055693712 0.07476486
000110 b2 75 65 bd e3 60 09 3d cb 60 2c 3d 67 60 2e bd
       -0.056020446 0.033539664 0.042084496 -0.042572405
000120 95 13 b8 bd 58 ee 71 3d a6 98 83 3c 8c 21 54 bc
       -0.0898811 0.059065193 0.016064 -0.012947451
000130 6d f3 a0 3a 71 1b 51 bd ee 49 a6 bb 07 05 99 3d
       0.0012279578 -0.05105156 -0.005074731 0.07471662
000140 c7 79 97 bd cf 78 7a bd 8b 95 62 bd 5d 1b c8 bc
       -0.07396274 -0.06115037 -0.055318397 -0.02442711
000150 02 ad 7d 3d 4b 20 a8 3d 76 51 66 3c 65 93 9b bd
       0.06193257 0.082092844 0.014057508 -0.07596473
000160 43 99 56 3d 9a 8d 18 3d 3e 4b 93 bd 59 47 01 bb
       0.052392256 0.037244417 -0.07192086 -0.0019726364
000170 61 c0 73 3c be 23 30 bd 4c 46 56 3d dd fa b9 bd
       0.01487741 -0.043002836 0.052313134 -0.090810515
000180 40 8c f4 bc e4 b7 15 bd 01 fe a4 3c 6e 89 70 3d
       -0.029852033 -0.036552325 0.02014065 0.058724813
000190 a9 ff 4b 3b f4 30 d0 3d e1 ec 7d bd dc c8 84 bd
       0.0031127727 0.10165587 -0.061993483 -0.064836234
0001a0 01 d8 98 3d 37 c0 93 3d 9e 3e 3f bd 7e 69 16 3d
       0.074630745 0.072143964 -0.046690576 0.0367217
0001b0 7c 0d c8 3c 0d c8 ae bd 90 51 77 bd e7 83 3f 3c
       0.024420492 -0.085342504 -0.06038052 0.011689163
0001c0 e9 c6 ce bc e8 06 bd bd 5c 5f a0 3d 66 1e 5f bd
       -0.025241332 -0.09229833 0.07830688 -0.05447235
0001d0 0d 73 79 3c 42 a6 82 bd cf 74 9b bd 9a d0 f4 bc
       0.015225184 -0.063793674 -0.07590639 -0.029884625

weight f4 [120, 120]
000000 50 90 1b 3d c4 87 d6 3c a8 01 f2 ba 93 87 21 3d
       0.037979424 0.026187785 -0.0018463628 0.039435934
000010 18 7c 61 bc d4 5a 38 bd 90 34 2f 3d 56 5f 9f bd
       -0.013762496 -0.045008495 0.042774737 -0.07781856
000020 81 e7 55 3d 2c c4 4c bd f8 0e 82 3d 7c d6 e2 3c
       0.052222732 -0.04999177 0.06350511 0.027690165
000030 55 07 ed bc 50 1e 06 bd 5d d9 15 3d a9 9a 85 bd
       -0.02893416 -0.032743752 0.036584247 -0.0652364
000040 a5 55 a6 3d ed 79 4a 3d 81 db 34 bd 10 fe 8e bd
       0.08121804 0.049432684 -0.044154648 -0.06982052
000050 ca 54 2a 3d 01 b1 5c 3d 86 af 00 3d 1b 34 b6 3b
       0.041584767 0.05387974 0.031417392 0.0055604107
000060 85 4a ab bd ff aa 39 3d b2 15 93 3d 70 bf 8d 3d
       -0.08363823 0.04532909 0.071818724 0.069212794
000070 fe f4 6a bd 06 fa a4 bd 40 53 4d bd 3a 8a 70 bd
       -0.05736255 -0.08055501 -0.05012822 -0.058725573
000080 33 e0 ac 3d 47 ef 61 3d 70 7e 86 3d eb e1 4c bd
       0.084412 0.055159833 0.06567085 -0.05002014
000090 40 ee 0b 3d fe e4 84 bc d3 f5 4b 3d 0f ea c5 bd
       0.03416276 -0.016222473 0.049794983 -0.09663784
0000a0 77 19 a1 bd 82 cd 92 3d 6d 21 c6 3d 05 c1 2c bd
       -0.07866185 0.07168104 0.09674344 -0.042176265
0000b0 f1 d5 80 bd 7d 9d 8a bd 1d 93 27 bd 18 37 9b bd
       -0.06290806 -0.0676832 -0.040911783 -0.07578868
0000c0 4c 5e 89 3d fc fe 0e bc 73 28 f9 bc 5f a1 3d 3d
       0.06707439 -0.008727785 -0.030414796 0.046296474
0000d0 5c 41 34 bc c0 65 37 3d 0f 2c a3 bd 16 75 85 3d
       -0.011001911 0.04477477 -0.07967388 0.06516473
0000e0 9e 59 ec 3c 63 a6 be bd eb 52 ad 3d 84 82 16 3d
       0.028851327 -0.093090795 0.08463081 0.036745563
0000f0 63 8a cf 3d 9a a7 b5 bd ea f9 cd 3c 40 7d fd 3c
       0.10133817 -0.08869858 0.025143582 0.030943513
000100 82 5e 9f bd 51 a5 f4 3c 47 85 67 3d 71 33 bb 3d
       -0.07781698 0.029863985 0.056523588 0.09140671
000110 67 1a 72 bd 28 73 4e 3d f2 b0 8c bb 84 c1 29 bd
       -0.05910721 0.05040279 -0.0042935545 -0.041444317
000120 f1 0b 2d bd c5 cd ad 3d c4 2b e8 bc 0a 72 cb 3c
       -0.042247716 0.08486513 -0.028341182 0.024834651
000130 69 0d a2 3d 14 52 53 3d 45 3a 61 3c c2 08 bc bb
       0.07912714 0.051591948 0.013746803 -0.0057383487
000140 65 4a 33 3d 8c 42 03 bd a7 8a 64 bd 25 b9 1f 3d
       0.04377212 -0.032045886 -0.05579629 0.038994927
000150 80 84 72 bd 61 85 85 bd 71 3e 2f 3c 1f de b6 bd
       -0.059208393 -0.06519581 0.01069604 -0.08929085
000160 e1 d8 93 3c a6 ed a4 39 1c b0 36 3d 9b 8e 86 bc
       0.018047752 0.0003145758 0.044601545 -0.016425421
000170 c9 f8 77 3d 27 77 47 bd 2a a8 b5 bc f1 e7 b4 ba
       0.060539994 -0.048697617 -0.022174913 -0.0013802034
000180 bc 19 6d 3d b9 5c f9 bc 2e e8 3c 3d a0 f5 91 bc
       0.05788587 -0.030439721 0.04611986 -0.017817318
000190 af 0f 3f bc ca 4b a0 3c 01 c8 05 3c 6e a1 6f bd
       -0.011661454 0.019567389 0.00816536 -0.05850356
0001a0 1a 80 85 3d 23 dd a1 bd d4 4b c0 bd 0a 0b ad bd
       0.06518574 -0.079035066 -0.09389463 -0.08449371
0001b0 e8 6f 56 3d d2 6f 21 bc 8a 84 47 bd 5d 07 56 3c
       0.052352816 -0.00985332 -0.048710383 0.013063279
0001c0 c2 ed c2 3c 2f 67 d3 3d a6 af 55 3d 56 04 e2 bc
       0.023795012 0.10322415 0.052169465 -0.027589958
0001d0 2f ba 36 3d c3 88 a2 3d 91 cb 96 bc 10 dc 0e 3d
       0.044611152 0.079362415 -0.018407615 0.034877837
0001e0 45 0a 32 bd 7f 55 09 3d 16 ea e4 3c 46 7c 31 bd
       -0.043466825 0.0335288 0.027943652 -0.043331407
0001f0 3c 32 29 3b 7f 42 1b 3d 39 8e 7c bd 0a 66 ca bc
       0.0025817296 0.037905212 -0.06165907 -0.02470686
000200 f0 30 68 3d 51 5c c5 3c 82 49 5f 3d e2 21 7a bd
       0.056687295 0.024091871 0.054513462 -0.06106747
000210 11 51 a7 3d 7b f9 ac bd 61 66 27 3d 75 65 4d bd
       0.08169759 -0.08446022 0.04086912 -0.050145585
000220 00 4b 94 3d 91 1a 84 3c c6 9f 57 bd 9d db 0c bc
       0.072408676 0.01612595 -0.052642606 -0.008597282
000230 32 8d b5 3d 30 15 24 bc d6 05 1c 3c 28 f3 7e bc
       0.088648215 -0.010014817 0.009522876 -0.015560903
000240 51 fc 11 bd 3f b8 0e bc 7b 5b be 3c ca 4c 61 bd
       -0.03564102 -0.00871092 0.02323698 -0.055004872
000250 db ed ba 3d 0e ac 32 bc 5a 8c 00 bd 6f e6 23 3d
       0.091273986 -0.010905279 -0.03138385 0.04001468
000260 8d d6 e3 bc 5d b6 6c 3c fb 7a 3c 3d fe a8 8b 3d
       -0.027812267 0.014447776 0.04601572 0.06819342
000270 31 2f 76 bd 3d 77 28 3d 67 73 ba bc b7 30 85 3d
       -0.0601036 0.04112934 -0.022760106 0.06503432
000280 65 43 d8 3c d8 de a0 3d 9b 52 95 bd 54 1e 60 bc
       0.026399324 0.07855004 -0.07291146 -0.013679106
000290 d5 f6 a0 3d a4 56 1c bd 99 47 c2 3c c2 a9 86 bd
       0.078595795 -0.038168564 0.023715781 -0.065753475
0002a0 af ea c1 bd 50 dc 99 bd 32 38 91 bd 67 67 83 3d
       -0.094685905 -0.075127244 -0.070907965 0.06416207
0002b0 9c 63 b1 3d e0 2d b8 bd 17 99 c9 3c ae b5 8b bd
       0.08661577 -0.08993125 0.024609132 -0.06821762
0002c0 97 d8 2a bd 7a 71 ad 3d be 80 31 bd 37 76 89 3c
       -0.041710462 0.084689096 -0.04333567 0.016780002
0002d0 e4 3d 97 bd 7f e2 8a bd f8 fd 37 3b c4 b4 e3 3a
       -0.073848516 -0.06781482 0.002807496 0.0017372598
0002e0 61 75 9e 3d 5e 08 7a 3c 2e 5e c4 bd 5b 68 9c 3d
       0.07737232 0.015260784 -0.09588276 0.07637092
0002f0 01 88 cf 3d 47 dd bd 3d 7b 29 9d 3d 87 36 10 bd
       0.101333626 0.09270721 0.076739274 -0.03520825
000300 22 e6 92 3d 19 f7 b5 3c 61 30 4f 3d ec d6 a4 bc
       0.071728006 0.022212552 0.050583247 -0.020122014
000310 57 16 8c 3d b3 56 8d bd 9b df 54 3d 81 e4 61 3d
       0.068401985 -0.06901302 0.05197106 0.05514956
000320 2b f9 90 3d c5 79 9d 3d 57 8e c3 bd ae 75 79 3d
       0.07078775 0.07689241 -0.095486335 0.060903244
000330 31 c7 6f 3d 72 06 a6 bd 9b a7 37 bd fb 1a f5 bc
       0.058539573 -0.08106698 -0.044837575 -0.029920092
000340 c9 d0 5c 3d fe b1 0c bd b3 9e 82 bc 34 8b 07 bb
       0.05391005 -0.034349434 -0.015944814 -0.0020682337
000350 6f 94 76 bc c7 c3 a4 3d b4 4a a5 bd ca bb 99 bd
       -0.015050038 0.08045154 -0.08070889 -0.07506521
000360 ba a9 a5 3b cd 58 a4 3d 98 b2 8b bd 3b 0f ae bd
       0.0050556334 0.0802475 -0.068211734 -0.08498999
000370 f4 94 04 bd 80 47 50 bd 3a 55 85 3d ce 5d 92 3d
       -0.032368615 -0.050849438 0.06510396 0.07146798
000380 d7 37 a2 3d 02 72 19 3d 6e 33 bf bd 31 ee c1 bd
       0.07920807 0.037462242 -0.09335981 -0.094692595
000390 03 99 e3 3c 76 eb b8 3d 5d c9 55 3d f9 5e 2e 3d
       0.027782923 0.090292856 0.052193988 0.04257104
0003a0 37 da 2a bc 25 c1 f7 bc d3 dd ac 3c 21 99 77 bb
       -0.010428003 -0.030243466 0.021101868 -0.003778048
0003b0 5d f2 b7 3d 1d 39 0a bd 0a 11 99 3c 84 e7 9e 3d
       0.08981774 -0.033745874 0.018684883 0.07759002
0003c0 55 79 b1 3d b0 68 ea bc 8c 8d d1 3c 66 26 a0 3d
       0.086657204 -0.028614372 0.02558019 0.07819824
0003d0 ec 5a ff bb 0e 5d 8d bd 72 07 ad 3d 2b e5 73 3d
       -0.007792821 -0.069025144 0.08448686 0.059544723
0003e0 15 40 12 bc 97 47 f1 bb 53 ca 24 3d 40 5a e7 3c
       -0.008926411 -0.0073632705 0.040232014 0.028241277
0003f0 0a 0b a0 3d 92 ed ab bd dd ca a2 bd 00 2e 88 3d
       0.078146055 -0.08394922 -0.07948849 0.06649399

bias f4 [120]
000000 fd 75 15 3d af 05 6e bd 2d d8 6c 3d 08 26 7f bd
       0.036489476 -0.05811089 0.05782335 -0.06229213
000010 51 d9 f9 3c 34 ee 6d 3c 95 83 00 bd 58 f9 60 3d
       0.030499132 0.014522124 -0.031375486 0.054925293
000020 6e a2 7e bc 17 9b 20 3d d1 8a bb bd 23 6d 84 bd
       -0.015541656 0.039210405 -0.091573365 -0.06466129
000030 7f 62 52 bc 3f 70 50 3d c3 e3 9a bd d2 a6 3b bd
       -0.012840866 0.050888296 -0.07562973 -0.04581339
000040 e1 9b 2f bd e7 02 3d bd 0b df 08 bd 17 65 cb bb
       -0.042873267 -0.046145346 -0.033415835 -0.006207119
000050 3b 68 79 3d 74 e2 13 3b 16 af 8b 3d f1 d8 c5 3d
       0.060890418 0.0022565397 0.06820504 0.09660519
000060 8f fc 25 bc 82 71 72 3d cf 8a 24 bd ab db 2e 3c
       -0.010131015 0.05919028 -0.04017144 0.01067249
000070 18 c1 07 3b b5 06 08 3c c9 ac 26 bd 41 ed 6e bd
       0.0020714458 0.00830238 -0.040692125 -0.05833173
000080 01 b5 1f 3d 7c 79 1d bd 7e aa 4d 3d 4c d0 bc bd
       0.03899098 -0.038445935 0.050211422 -0.09219417
000090 8c c6 31 3d b0 07 a1 3d 4d 9d cb bc 13 06 66 3d
       0.04340224 0.078627944 -0.02485528 0.056158137
0000a0 70 1f 81 3d fa 4e 8b bc df 9a 12 bd df 58 a9 bd
       0.06304824 -0.017005432 -0.035792228 -0.08268904
0000b0 fb 8e 5d bb 79 dc f9 bc 9d d4 b7 bc 4f 86 ed 3b
       -0.0033807147 -0.030500637 -0.02244025 0.007248677
0000c0 7e 50 bf 3d 9a e2 35 bd ef ce a8 bd 87 c3 74 3d
       0.093415245 -0.044405557 -0.082425945 0.059756782
0000d0 6a 49 62 bd 5d 8f a7 bd 86 eb 7e 3d 16 11 5a bd
       -0.055245794 -0.08181641 0.06223633 -0.05323895
0000e0 25 f7 14 bd dd 6a ad 3d 14 98 b3 bd c6 9c b3 bd
       -0.036368508 0.08467648 -0.08769241 -0.087701365
0000f0 bf d3 b0 bd 54 53 91 bd 1b c6 5e 3d 71 89 99 bd
       -0.08634137 -0.07095972 0.054388147 -0.07496918
000100 61 af 0c bd 7c 28 be bd d2 10 a9 3c 7f 73 03 3d
       -0.03434694 -0.092850655 0.020637903 0.032092568
000110 8a 7e 45 bd 87 66 f6 3c 55 5f 96 bc ad f1 e9 3c
       -0.04821638 0.030078186 -0.018356005 0.028557623
000120 27 91 b1 3d f9 c5 88 bd d3 f4 5f bd a0 89 fe 3c
       0.08670264 -0.06678385 -0.054676842 0.031071484
000130 36 88 aa 3d 19 c0 8e bc c5 6f ba bd b5 93 e8 bc
       0.083267614 -0.017425584 -0.091033496 -0.028390745
000140 f1 b2 c4 3d f9 58 91 bd c9 1a 83 3c b3 d2 9f bd
       0.09604443 -0.07097048 0.016003983 -0.078038596
000150 4a 7a fb 3c 60 3b 1e 3d 7f d4 68 3d 0a 81 55 3d
       0.03069796 0.038630843 0.056843277 0.052125014
000160 7d 0e 26 3d 74 b1 8d bc a0 08 79 3d 04 f9 ac bc
       0.04054116 -0.01729653 0.06079924 -0.021114834
000170 f7 ef e1 3b 61 c6 d2 3c 0a 34 9e bd 23 05 62 bb
       0.006895061 0.02572936 -0.077247694 -0.0034487925
000180 1c ac 49 bd 17 e5 04 3a ae 3c 26 3d b7 ee 82 3d
       -0.049236402 0.00050695374 0.040585212 0.063931875
000190 2a b4 83 bd 3c 8e 09 3c aa 25 62 bd 23 84 ce bc
       -0.06430848 0.008395728 -0.0552117 -0.025209492
0001a0 f1 14 a9 3d aa 48 ea bc 3d 90 3c bd b5 76 91 3d
       0.082559474 -0.028599102 -0.046035994 0.0710272
0001b0 f0 6e 09 3d 23 84 ce 3c 4f 3e c9 bd 99 6b 83 3d
       0.033553064 0.025209492 -0.098263375 0.06417007
0001c0 56 d2 9d bd be 14 88 bd 00 44 64 bc a9 60 b7 bd
       -0.07706134 -0.06644581 -0.013932228 -0.08953983
0001d0 73 fc 17 bd ad e3 93 3d d6 db cf 3d 07 1d ae bc
       -0.03710599 0.0722116 0.10149352 -0.021254076

weight f4 [120, 120]
000000 df 20 e8 bc 23 f0 6f 3d fb 8d c2 3c 97 e1 c7 bd
       -0.028335987 0.05857862 0.023749342 -0.09759825
000010 aa 19 bd 3d 20 8f db bc 5c b8 2e bd d3 ee b6 bd
       0.09233411 -0.026801646 -0.042656288 -0.08932271
000020 c8 b1 f1 bc 9a 87 89 3b dd d2 31 bd 80 04 0e 3d
       -0.029503718 0.004197073 -0.043413986 0.03467226
000030 d3 35 a9 bd 3e 18 63 3d cf 15 2b bd 2d 53 97 bd
       -0.08262219 0.05544304 -0.041768845 -0.073889114
000040 a5 b0 32 3d ac 24 9c bd 73 b6 fd 3c ca 06 cd 3b
       0.043625493 -0.07624182 0.030970788 0.006256913
000050 7b ce 79 3d bd e2 07 bd 02 08 b1 bc 7e 8a 10 3c
       0.06098793 -0.03317522 -0.021610264 0.008822082
000060 41 7a fa 3b 34 8c 7f bd 67 4c a6 bd 9b 8a f3 3c
       0.0076439683 -0.062389567 -0.08120041 0.029729178
000070 a1 ba c7 3d 27 24 17 3d eb 4e 58 bd 23 4d a4 bd
       0.097523935 0.036899712 -0.052809637 -0.08022525
000080 8f 42 c5 3d 5e 4a 98 3d 48 9b bc 3d 21 e9 68 3d
       0.09631836 0.074360594 0.09209305 0.056862954
000090 74 63 ab 3d 53 2c 85 bc b2 7e 92 bd dc d0 8c 3d
       0.083685786 -0.016256487 -0.071530715 0.06875774
0000a0 18 5a b5 bd f7 d9 1e 3d b2 b1 57 3c 14 41 a0 3d
       -0.08855075 0.038782086 0.013164924 0.07824913
0000b0 08 48 5e bd 45 d7 79 3d 15 00 6e 3d c1 ab 92 3b
       -0.054267913 0.060996313 0.058105547 0.004476041
0000c0 2e 78 c8 3d b0 8e 94 3d 03 3a 48 3d 63 fe f1 bb
       0.097885475 0.07253778 0.04888345 -0.0073850616
0000d0 a6 b9 8e bd 8d 35 0b bd e6 a6 43 3d 2e 1b 3f bd
       -0.069690034 -0.033986617 0.04776659 -0.04665678
0000e0 0a bc 38 bd 11 c8 42 bb c0 7d 19 3d 25 1f 5f 3d
       -0.045101203 -0.00297213 0.03747344 0.05447306
0000f0 5b 00 a6 bd 4c 3e 71 3d 18 26 33 3d 7b 3c 4a bd
       -0.081055366 0.0588973 0.0437375 -0.049374085
000100 9f c5 62 bd 07 d6 eb bb 29 37 ed 3c c6 4b ab 3a
       -0.055364247 -0.007197145 0.028956966 0.0013068847
000110 f2 3d 37 bd ed 78 99 3d 5b 4c 9b 3d 86 20 1f 3d
       -0.04473681 0.07493768 0.07582923 0.038849376
000120 6a 54 0a bd d8 18 89 bd d8 6b 4b 3d 39 66 54 3d
       -0.03377191 -0.06694192 0.049663395 0.0518553
000130 92 75 7e bd bf 1b d3 3c 4f d4 83 3d 91 46 5b bd
       -0.062123843 0.025770066 0.06436979 -0.053534094
000140 99 76 a3 bc af 66 24 bd 4e da b5 3d 8e b3 98 3d
       -0.019954013 -0.04013699 0.08879529 0.07456122
000150 54 5b 43 bd 88 cc 64 bd c9 b4 a7 3d ca 56 58 bd
       -0.04769452 -0.05585912 0.08188779 -0.052817143
000160 51 ac 46 3d 25 f5 9f bd ae 9d b2 bd 7d 38 e0 bc
       0.048504177 -0.078104295 -0.08721481 -0.027370686
000170 cf 65 95 bc f8 c7 4a bd 64 19 ea bc 4a 93 72 bd
       -0.018237023 -0.04950711 -0.02857656 -0.059222497
000180 18 9a 9a 3d 0c d1 95 3d 64 3c c2 bd 4b e2 a1 bd
       0.07548922 0.07315263 -0.09484175 -0.0790449
000190 56 94 76 bd 49 42 54 bc a4 7c 26 3c a6 24 24 bd
       -0.060200058 -0.012955257 0.010161553 -0.040074013
0001a0 d5 5a 36 3d fe db ab bd 24 4f 8e 3a 32 87 b0 3d
       0.044520218 -0.083915696 0.0010857326 0.086195365
0001b0 c5 22 2d bd 31 31 31 bd a4 8c c0 3c 2f 8d 83 bd
       -0.042269487 -0.043259803 0.023504563 -0.06423413
0001c0 63 3d 95 3c ee 4f 45 3d 05 63 18 bd c6 5d 4d bd
       0.018217748 0.04817193 -0.037203807 -0.050138257
0001d0 51 83 9d bd 6d 64 ce 3c 3f 21 96 3c 02 55 98 3d
       -0.07691062 0.025194371 0.0183264 0.07438089
0001e0 8d 73 65 3c 6b c3 ab 3d d0 7d 95 bd b0 2e ce 3d
       0.0140046 0.083868824 -0.072993875 0.10067499
0001f0 4e fb 9b 3d 47 fd 70 3d 88 fe 7b bc 98 0c 80 3d
       0.07616292 0.058835294 -0.015380509 0.06252402
000200 36 48 0b 3d ba 4c b1 bd 63 fb 74 bd 13 40 7b 3d
       0.034004413 -0.086572126 -0.059810054 0.061340403
000210 20 52 a0 3c fe 24 81 3d ef a4 ea 3b 9f ac 8c bc
       0.01957041 0.06305884 0.007160775 -0.017172156
000220 74 42 69 3d aa 6c 37 bc c0 a7 8d bd 93 9f 00 bd
       0.05694814 -0.011195341 -0.069167614 -0.03140218
000230 e6 5e a7 3d 91 28 ac bb 84 54 a9 bc 9d d9 8f bb
       0.08172397 -0.0052538593 -0.020670183 -0.004389955
000240 dc 5b 01 bd 54 1b b9 bc a4 1c 30 3d 87 76 7e bd
       -0.031581745 -0.022596039 0.042996064 -0.062124755
000250 30 57 15 bd 3d d1 88 3d b8 b3 81 bd 98 a5 e1 bc
       -0.0364601 0.06680534 -0.06333107 -0.027544782
000260 ea 03 83 3d e4 48 9c 3d 9f ab 8f bd 0f 24 24 bd
       0.06397231 0.0763109 -0.07015156 -0.04007345
000270 d4 9b 0f 3d e9 0e 3b 3d c4 45 98 3d 60 06 28 bd
       0.03506072 0.045668516 0.07435182 -0.041021705
000280 c8 7b 23 bd 93 e7 1e bc 23 30 07 3d 0d 3f bd 3d
       -0.03991297 -0.009698766 0.03300489 0.092405416
000290 96 b5 ee bc f7 88 32 3d f1 a7 af 3d 99 ee 34 3d
       -0.029139321 0.04358765 0.08576954 0.044172857
0002a0 8a a2 9f 3d 28 2f b3 bd 68 9c 95 3c 4f a3 86 bd
       0.07794674 -0.08749229 0.018263057 -0.065741174
0002b0 61 f9 27 3d 47 86 65 3d 55 34 87 bd 87 2d 56 3b
       0.04100931 0.05603626 -0.066017784 0.0032680945
0002c0 1c bc b8 bc c7 71 a1 3d c4 8f 45 3d 84 0f 07 3d
       -0.022550635 0.078830294 0.04823281 0.03297378
0002d0 11 4d 0d bc 14 f3 85 bd 49 ac 8f bd d9 41 ba 3d
       -0.008624331 -0.06540504 -0.07015283 0.09094591
0002e0 3d 90 83 3d cd 1c be 3d 95 ee a4 bd 70 da 8d bd
       0.06423996 0.09282837 -0.080533184 -0.06926429
0002f0 38 c7 6e 3c af aa 89 bc 2a 2a 65 3d 5d 1f ab bd
       0.014573865 -0.016805021 0.055948414 -0.083555914
000300 11 e9 78 bd 00 67 ae bd 90 e6 f9 ba e0 ad 71 3d
       -0.060769144 -0.085157394 -0.0019065905 0.05900371
000310 4f fe 97 bc 88 4a 9c bd e0 a1 50 bc 16 d0 99 bd
       -0.018553881 -0.07631403 -0.0127339065 -0.07510392
000320 c7 5e 6d bd 71 f0 c1 3c 29 7d c1 bc c5 4c a7 bd
       -0.057951715 0.023674222 -0.023619251 -0.081689395
000330 8d b2 64 3d 65 3c 19 3c 4c d0 3d 3c 16 e7 8b 3d
       0.05583434 0.009352778 0.011585306 0.068311855
000340 c2 16 16 3c ba 71 b1 bc 09 30 a7 bb 01 76 d4 bb
       0.009160699 -0.021660674 -0.005102162 -0.0064837937
000350 f9 ae ad 3d 4f 4b 85 bd 4f 51 92 bd 54 d9 49 bd
       0.08480639 -0.065085046 -0.07144415 -0.049279526
000360 23 fd b8 b9 ee 81 dd 3b 82 9b 00 3d 46 e9 89 3c
       -0.00035283816 0.0067598736 0.031398304 0.016834866
000370 e1 56 58 bc 6b 71 b9 bd 14 24 05 3d 48 53 6e 3c
       -0.013204307 -0.09054836 0.03250511 0.014546223
000380 04 05 ef 3c a7 cf 89 bd d6 75 8e 3c 99 70 aa bd
       0.029177196 -0.0672906 0.017390173 -0.083222575
000390 c7 a3 46 3b b6 3b e7 bc b0 8a 24 3d f3 54 58 3d
       0.0030310021 -0.028226715 0.040171325 0.05281539
0003a0 f6 ac 73 3d 8d b7 2b bd 84 29 0a 3d 01 20 ee 3b
       0.05949112 -0.041923095 0.033731 0.0072669988
0003b0 b1 c9 8a bd 31 8f 63 3d c6 24 79 bd ce 92 de bb
       -0.06776751 0.05555648 -0.060826086 -0.006792403
0003c0 5c fe 29 3c 5b 32 af 3a 97 38 8f 3d b2 a1 04 bd
       0.010375585 0.0013366448 0.069932155 -0.032380767
0003d0 2d e3 32 3d d9 bc a5 3d 44 d2 0f 3c c5 fa c4 3d
       0.043673683 0.080926605 0.008778159 0.09618143
0003e0 fc 6e 5d 3c 39 53 24 3d d1 ae fd 3c 23 98 95 bc
       0.01351523 0.04011843 0.030967148 -0.018261021
0003f0 54 f8 8e 3d e9 f1 ad 3d 63 62 04 3d ec e8 5e 3d
       0.069809586 0.08493406 0.03232039 0.05442135

bias f4 [120]
000000 08 1f 62 3d 23 5d 35 bd 13 fd 7d bd 33 f2 75 bd
       0.055205375 -0.044278275 -0.06200893 -0.060045432
000010 cb d9 11 bd fb 61 11 bc d9 f5 a9 3d 5d 03 8c 3d
       -0.035608094 -0.008873458 0.08298845 0.06836579
000020 b5 85 35 bd b4 f1 8c bd c7 1e b3 bd 17 5e 10 3d
       -0.044316966 -0.06882039 -0.08746105 0.03524598
000030 0f 85 c2 3d c2 d1 c5 bb fd bf 91 3d e5 ce 3e bd
       0.09498035 -0.006036968 0.07116697 -0.04658403
000040 08 4d a9 bd 6b 40 ba 3d 71 37 ce 3d 79 85 b8 3c
       -0.08266646 0.09094318 0.10069168 0.022524582
000050 f1 eb 7f bd 6e ef 97 3c 1a 98 b0 3d 29 4e 66 3d
       -0.06248087 0.018546786 0.08622761 0.056226883
000060 1f 7e 3e 3d 29 31 44 3d 77 8a 6f 3d bf a3 a1 bd
       0.046506997 0.047898445 0.05848166 -0.0789256
000070 67 00 9b 3d bd bc 35 3d a5 b6 85 3d df 5c c0 bd
       0.07568436 0.044369448 0.06528977 -0.09392714
000080 a3 89 51 3c be 5b 03 bd 3e 04 1e 3d 9e f9 56 3d
       0.012789163 -0.032069914 0.038578264 0.052484147
000090 e5 6c 3f bd 6a b6 c3 bd 6a c3 76 bc d5 17 86 3b
       -0.04673471 -0.09556277 -0.015061239 0.0040921965
0000a0 61 51 a4 3d ee 96 d9 3c 25 14 b4 3b 63 5b 58 3c
       0.08023334 0.026561227 0.0054955655 0.013205382
0000b0 3a 01 d2 bc 61 ff 13 bd 68 8c 7a bd 33 e5 84 3c
       -0.02563535 -0.03613222 -0.061169058 0.016222572
0000c0 bf 3e b0 3d 20 e1 b1 bd 7b 82 9a bd f9 e6 50 bd
       0.08605718 -0.08685517 -0.075444184 -0.051001523
0000d0 a8 64 6e bd 08 41 42 3d 07 90 c1 3c 6c c8 2a bd
       -0.058201462 0.0474253 0.023628248 -0.041695043
0000e0 b9 26 16 bd b8 9b 63 3d 3a 1f e7 ba 5d 32 da 3c
       -0.036658023 0.055568427 -0.0017633208 0.026635343
0000f0 48 fa af bd ce 7f 6e 3b c3 30 2e bb 7e f3 3f bc
       -0.08592659 0.0036392095 -0.0026579357 -0.011715768
000100 0e 8f ab 3d 8a b8 a9 bd 5c f2 d6 3b bd e6 76 3d
       0.08376895 -0.08287151 0.006559653 0.060278643
000110 2c 5f 9c bc e7 09 9c bd d1 a3 4c bd e8 8b 30 bd
       -0.01908835 -0.07619076 -0.049960915 -0.043102175
000120 ce f3 49 bd 27 df 60 bd 42 02 a7 3d 1f ff 06 3d
       -0.049304776 -0.054900315 0.081547275 0.032958146
000130 21 97 44 3c c6 0d 52 bd e2 94 3c bc ba fa cd 3d
       0.011998923 -0.051282667 -0.011510106 0.10057588
000140 3a af a4 bd d7 ac 03 bc 8f f5 8a 3d 94 c4 a5 bd
       -0.08041234 -0.008036814 0.06785118 -0.08094135
000150 6a 61 ab 3d 31 b7 8f bd b6 c6 29 bd c8 d5 d0 bb
       0.0836819 -0.07017363 -0.04144927 -0.006373141
000160 00 60 ed 3a 1c d2 9e bd d3 fc a8 3d 61 be 9a bc
       0.0018110275 -0.07754919 0.082513474 -0.018889608
000170 b9 66 70 bd 93 3e 86 bb 6e 9e eb bc 5c 23 0a 3d
       -0.058691714 -0.004096815 -0.028762069 0.033725128
000180 e6 c0 4e 3d df 03 ed 3c 61 13 92 3c ac 76 b0 3d
       0.05047693 0.02893251 0.017831506 0.08616385
000190 e3 14 1e bd f6 d6 38 3d ec 7e 5e bd 42 4b 8c 3c
       -0.038594138 0.045126878 -0.05432026 0.01712573
0001a0 88 2b 69 bc 1e c6 b6 bc 93 73 c1 bc 46 c8 81 3c
       -0.01423157 -0.022311267 -0.02361468 0.015842568
0001b0 f6 10 80 bd 54 67 75 bd 1f 5b a5 bc 58 45 23 3d
       -0.06253235 -0.059912995 -0.020185051 0.039861053
0001c0 e0 96 b5 3b eb 34 96 bd 5c f1 3b 3d 59 d5 cf 3c
       0.0055416673 -0.07334312 0.045884475 0.025370287
0001d0 83 99 44 bd 8e ab 01 bd 68 5c a2 3c 2b 9a 72 3d
       -0.047997963 -0.031657748 0.019819453 0.059229057
