best_3.pt (torch, 652330 bytes, 25 tensors)

weight f4 [120, 3]
000000 d4 11 06 bf d1 a0 60 3e c7 74 87 be 2c ae b2 bd
       -0.52370954 0.21936347 -0.26456282 -0.08724627
000010 e4 f3 cf be 7c a6 ca be 8b 55 03 3f d6 0d 26 3e
       -0.4061576 -0.39580142 0.51302403 0.16216215
000020 d7 89 82 bd bc fd e6 3d f1 8e 18 bf 5d da 24 bf
       -0.06373947 0.11278865 -0.5959311 -0.64395696
000030 6b ab ce 3d 7d f0 cf 3e 09 cc 75 be 94 4b 3c be
       0.10091289 0.40613165 -0.24003614 -0.18388206
000040 49 83 f7 3e 54 2f 00 be 09 39 64 3e 4e 4e 14 be
       0.4834235 -0.12518054 0.22287382 -0.14482996
000050 87 be 1b 3f 3c 44 c7 3e ea 1e c5 bd cc 5e cb bd
       0.60837597 0.38919246 -0.09625037 -0.099301904
000060 7b 30 1d 3e 31 df 8e 3e df 6c 77 3e 95 46 e8 3d
       0.15350525 0.27904657 0.24162625 0.113415875
000070 18 ac d3 bd 84 1e e0 be e0 7a dc 3e e2 5f 16 bf
       -0.10335559 -0.43773282 0.43062496 -0.58740056
000080 99 fb 0e 3f 60 4c 1a 3f da 2f 45 be 51 90 0a 3f
       0.5585266 0.6027279 -0.19256535 0.5412646
000090 ac 11 01 bf 7d e2 0b 3f 03 12 a4 3e 78 3d 08 bf
       -0.5041759 0.5464247 0.32044992 -0.53218794
0000a0 ae a6 d4 3e cd ea 9d 3d bd 09 21 3f 31 18 21 be
       0.41533417 0.077108 0.62905484 -0.15731885
0000b0 a0 68 14 3f 2c 4d 13 bf 6d 43 af 3e ef be 29 3e
       0.57972145 -0.5753963 0.3423113 0.16576742
0000c0 9d 4f f1 bd f6 6c 27 3e 16 1a 0b bf c2 bb 05 bf
       -0.11782763 0.16350159 -0.5433668 -0.5223962
0000d0 25 4f 99 3e c1 f1 b3 3c a3 d4 e3 be 77 98 ae be
       0.29943195 0.021965863 -0.44498166 -0.34100696
0000e0 28 aa db be 5a ec cd 3e af 8e eb be 51 cb a5 be
       -0.42903256 0.40219384 -0.46007296 -0.3238168
0000f0 33 75 22 bf 8f 4e 34 3e 53 e7 95 be 48 56 6c be
       -0.6346008 0.17608093 -0.2927805 -0.23079789
000100 62 24 14 bc b9 26 c8 3e c4 37 c2 3e 00 94 e9 3d
       -0.009041877 0.39092043 0.3793317 0.11405182
000110 39 ed 67 3d aa 95 d4 3e f5 71 4f be dd 8b 36 3d
       0.056622718 0.41520435 -0.20258315 0.044566978
000120 21 c3 17 bc 28 3d 60 3d 8c 8a 05 bf d4 a2 d8 3e
       -0.009262831 0.054745823 -0.5216453 0.42311728
000130 b8 82 03 bf 08 bb a8 be ce 9c bf 3c 74 a0 4c be
       -0.51371336 -0.32955194 0.0233902 -0.19983083
000140 43 5b a7 3e 96 a9 8f be 66 86 f6 3d 55 d5 ff 3e
       0.32686815 -0.2805907 0.12037353 0.49967447
000150 38 7f 65 bd 51 ca 6e 3d a0 d9 2c bf ef ca 0f bf
       -0.05602953 0.058298413 -0.6751957 -0.5616903
000160 b3 dd e3 3e ee ca 7d bc 6d c9 8e 3e f0 92 c1 be
       0.4450508 -0.015490277 0.2788805 -0.37807417
000170 25 3e fa be 16 e5 ab 3e b6 bc 6a 3e 5a 9b 1e be
       -0.48875538 0.33573216 0.2292355 -0.1548895
000180 5d fc e7 3d 4e b5 80 be 5a 86 11 3f 2b eb 90 3e
       0.11327431 -0.25138324 0.5684563 0.2830442
000190 1a 44 96 3d 1c 7c ba be 7a 2b 64 3e fe 23 01 3f
       0.07337208 -0.36422813 0.2228221 0.50445545
0001a0 a5 50 0c 3f 83 5f f4 3e 45 95 5a 3d ca 64 32 bf
       0.54810554 0.4772912 0.05336501 -0.6968504
0001b0 ba 2d 42 3e 7b 1d 7f be 8e 7a 1d bf da 35 29 be
       0.18962756 -0.2491359 -0.6151513 -0.16524449
0001c0 64 9d 4c be b3 30 8d 3e 19 12 e5 bd 32 e9 82 3e
       -0.19981915 0.27576217 -0.111850925 0.2556854
0001d0 d8 93 12 bf 23 46 f6 bd 45 64 bb 3e c1 07 3a 3e
       -0.5725684 -0.12025096 0.36599937 0.1816702
0001e0 57 29 2a 3e d5 f9 91 3e ef f4 ba 3e 83 52 61 be
       0.16617332 0.2851092 0.36514995 -0.22004132
0001f0 9e 17 88 3e 7c 3c f7 be 62 19 fb bd d5 b5 fd 3e
       0.26580518 -0.48288333 -0.12260701 0.4955279
000200 b3 dd 36 bf a2 97 ea be 43 83 97 be f7 9d 7a be
       -0.71432036 -0.45818812 -0.29592332 -0.24474321
000210 e5 52 27 bd 58 cb 25 bd 84 bd 79 3e 43 d6 06 3e
       -0.04085054 -0.040477127 0.243887 0.13167672
000220 ec 36 18 bf c8 cb cc be ca 86 23 3e d0 28 a4 be
       -0.59458804 -0.39999223 0.15969387 -0.32062387
000230 6d 9f 14 3e ae 56 a6 be c8 1d 9e 3d f5 17 99 be
       0.14513941 -0.32488006 0.07720524 -0.2990109
000240 d9 a4 be bc da 63 1d 3f 2e 33 21 3e 99 74 c6 3e
       -0.023271965 0.61480486 0.1574218 0.38760832
000250 e5 8c ce bd 25 b4 a2 be c9 5f 86 3e 31 34 0a 3e
       -0.10085467 -0.31778064 0.26244953 0.13496472
000260 d8 80 13 3f 9a f6 0f 3f a8 b6 0a bf 5c 9e 20 3f
       0.57618475 0.5623566 -0.5418496 0.6274164
000270 0d ec 11 bf 5d 31 0f 3d cb dc 10 bf f2 a6 33 be
       -0.5700081 0.034959186 -0.56586903 -0.17544153
000280 86 88 a3 bd 95 c1 db bd 92 b5 e0 bd 9e 53 9a bd
       -0.07985024 -0.10730282 -0.10972132 -0.0753548
000290 bf 98 67 3e 70 35 cb 3e 9e a2 85 bd f3 4e 04 3f
       0.22616862 0.39689207 -0.065251574 0.51682967
0002a0 36 e7 8a bd 42 61 95 bc 37 a9 0c bf 38 2e b1 3e
       -0.06782381 -0.018234853 -0.549457 0.34605575
0002b0 c9 08 91 3e 5d 46 52 3e 45 01 e5 3d e5 51 5e 3e
       0.28327015 0.20534654 0.11181883 0.21710928
0002c0 ae 2b 1b bf c5 5f e4 be 48 83 2b bd 08 71 0a 3e
       -0.60613525 -0.44604316 -0.041873246 0.1351968
0002d0 37 50 8d be 39 fd 64 3e 07 34 d1 be b3 41 c9 3e
       -0.27600262 0.22362222 -0.40860006 0.39307937
0002e0 d4 44 d6 3d 13 bd 4b bf f2 46 82 be 6e 50 d8 3e
       0.10462347 -0.7958538 -0.25444752 0.42248863
0002f0 69 3b 55 3e 71 f9 00 3e 4d ae 66 3e 4d 98 97 be
       0.20823444 0.12595154 0.22527428 -0.29608384
000300 f4 b4 10 bf e3 6a 08 bc 66 bf 5a be 02 ce ff 3c
       -0.5652611 -0.008326265 -0.21362075 0.031226162
000310 5c 29 06 3f 6b 2f 2c 3e d9 b1 e5 3e a0 8c b8 be
       0.5240686 0.16814964 0.4486225 -0.36044788
000320 96 7a 73 be 5d 27 0a 3f ed 8e 57 be 98 7f f5 be
       -0.23777232 0.53966314 -0.21050616 -0.4794891
000330 eb 66 87 be d9 a5 47 be b2 42 c4 be 69 15 c2 3e
       -0.26445708 -0.1949686 -0.38332134 0.3790696
000340 90 dd fb be 87 a2 9d bc 0b 39 6e bc c5 a4 90 bd
       -0.49192476 -0.019242538 -0.014539967 -0.07062677
000350 39 95 f7 be dc bd ae 3d 32 7b 6e be 8a 2d c4 3d
       -0.48356035 0.085323066 -0.23289183 0.095789984
000360 ca 2f a0 bc 4d a3 a8 be 80 c0 de be 14 9d d4 be
       -0.019554038 -0.3293709 -0.4350624 -0.4152609
000370 68 40 3d be e8 8b e7 3e 4d c2 f2 3e fa 25 c4 be
       -0.184816 0.45223927 0.47413865 -0.38310224
000380 7f 86 1c 3f 42 e0 f6 be e8 7c 2f bd 36 4e 01 bd
       0.61142725 -0.4821797 -0.04284373 -0.03156873
000390 78 3c bf be 43 89 61 3e 83 f5 c5 bc d2 66 04 bf
       -0.37350821 0.22025017 -0.02416492 -0.5171939
0003a0 83 84 54 bc b4 31 ca be d0 87 05 bf d4 0a 1b bf
       -0.012971046 -0.39491045 -0.5216036 -0.605634
0003b0 95 7f 79 be 2f 2d 9e bc a7 b3 a6 3e b0 69 48 3e
       -0.24365075 -0.019308655 0.3255894 0.19571567
0003c0 3b 3b a3 3e 01 41 fc 3e 0a f9 4c 3e b4 aa 81 3d
       0.31881127 0.49268344 0.20016876 0.06331387
0003d0 eb 59 58 be c0 07 e4 be 2c 55 08 bf b5 7b f1 3e
       -0.21128051 -0.44537163 -0.5325496 0.47164693
0003e0 4b 4d 58 be ca 44 70 bd 06 80 a1 be d8 1b c9 be
       -0.21123235 -0.058659352 -0.31542987 -0.39279056
0003f0 d5 c2 a6 3e db 92 d1 3e 59 93 69 3e f7 b5 ac be
       0.3257052 0.40932354 0.22810115 -0.33732578

bias f4 [120]
000000 8a 38 38 3d bc cf fd 3d 2d 8c 9c be 95 bf a5 be
       0.044975795 0.12393138 -0.30575696 -0.32372728
000010 20 70 28 3e 2d 61 2e be 70 20 00 3f 6d 46 e6 be
       0.16449022 -0.17029257 0.50049496 -0.44975606
000020 99 2c 4a be ec 19 31 3e 33 a5 37 3b db 63 d5 3e
       -0.19743575 0.17295045 0.002802205 0.41677746
000030 ad c0 64 be 81 a0 1b bf 44 8d d7 be fd ed d6 be
       -0.22339125 -0.60791785 -0.42099965 -0.41978446
000040 cb a6 bb 3e d5 ab ab bd 2c 2a 98 be b5 38 00 3f
       0.3665069 -0.08382384 -0.29719675 0.5008653
000050 2b a7 01 bf 48 94 80 3e 24 6c 9e 3d 97 4d 48 3e
       -0.50645703 0.2511313 0.0773547 0.19560848
000060 b8 a4 3a be 30 9d 9a be 1f aa d0 be 73 45 b7 be
       -0.18226898 -0.3019805 -0.40754792 -0.35795173
000070 f5 96 be bd 66 95 e0 bd 19 c8 d0 be de 2e 02 3f
       -0.093061365 -0.109659955 -0.40777662 0.50852764
000080 e2 e0 49 be 73 7f bc 3e 2b 63 d7 3e 86 1d d2 be
       -0.19714692 0.36815986 0.42067847 -0.4103815
000090 0f 96 c8 3e 75 c6 0f be 2d 52 ce 3d f9 0b 8c 3e
       0.39176986 -0.14040549 0.100742675 0.27352884
0000a0 f9 30 fa bd cb 0b 41 be 16 cc 97 be c0 50 84 be
       -0.12216372 -0.18852155 -0.29647893 -0.25842857
0000b0 e0 97 c4 3d a3 d8 86 be 8a 86 8d be 93 5e 08 bf
       0.0959928 -0.26337156 -0.27641708 -0.5326931
0000c0 16 76 b1 bc fd 91 9a be 72 3e f5 be 1a f4 76 be
       -0.021662753 -0.30189505 -0.47899204 -0.24116555
0000d0 f2 38 8e be 83 74 ca be c1 bf 4b bd 08 e4 05 3f
       -0.2777782 -0.39542016 -0.049743418 0.52301073
0000e0 bf 5f 63 3e 9d b2 15 3f 87 9c 52 3d 7f c6 18 3f
       0.22204493 0.5847567 0.051418807 0.5967788
0000f0 9d 95 5e be a5 2b 47 3e 0b 3f 09 bf e7 f4 0e 3f
       -0.2173676 0.19450243 -0.5361182 0.5584244
000100 0b 74 67 3e 3b 0b 07 3e e1 57 09 3f 07 5e 46 be
       0.2260286 0.13187878 0.5364972 -0.19371806
000110 8e 1b 07 bf ed 88 3f bc 08 fd 01 bd 55 78 0a bf
       -0.5277642 -0.0116903605 -0.03173545 -0.5408986
000120 3e a5 15 3f cc ae 18 be 93 0c f8 3e 81 0a 49 be
       0.58455265 -0.1491043 0.48447093 -0.19632913
000130 64 cc be 3e e7 b4 ba bd 9b 3e b2 3d 62 49 0e bf
       0.37265313 -0.09116536 0.08703347 -0.55580723
000140 ab fa e8 be 96 9c ae 3e f1 63 e2 3e c3 bd ba be
       -0.45503744 0.3410384 0.44216874 -0.36472902
000150 4a 4e a7 3d 50 c5 94 3e f3 7f c5 be 4f 99 ad 3e
       0.08169229 0.29056787 -0.3857418 0.33906028
000160 4b 2d 0d bf f3 77 b1 be 98 1f 02 bf 12 fa a0 3e
       -0.55147237 -0.34661826 -0.5082946 0.31440789
000170 09 14 06 bf bf 1d a3 be a3 86 eb 3e e8 fc b2 3e
       -0.5237432 -0.31858632 0.46001157 0.34958577
000180 4e 76 8e 3e 81 31 11 3f c3 0b 12 3f 3f e1 bd 3e
       0.27824634 0.5671616 0.57049197 0.37085912
000190 ef 6a c6 3d 65 38 97 be 92 25 c9 3e fb 87 de be
       0.09688365 -0.29535213 0.39286476 -0.4346312
0001a0 98 90 1e 3f ee 15 b6 3e ef c9 6c be d8 48 c1 3e
       0.6193938 0.35563606 -0.23123907 0.37750888
0001b0 5c 03 05 3f ed 1c ca bd e1 ae 01 3f 3d ee 12 3d
       0.5195825 -0.098687984 0.5065747 0.035871733
0001c0 dd f6 0d bf 12 59 e9 bc e6 1f 03 3d 07 54 09 bf
       -0.5545481 -0.028484855 0.032012843 -0.5364384
0001d0 cc 3d 7f 3c 64 f7 6f 3e 9a 3c 77 3e 5c b2 2b 3e
       0.015578698 0.23434216 0.24144211 0.16767257

weight f4 [1, 120]
000000 9d 28 76 bd 31 e0 b2 bd 4a a8 cb bc fd 0d 7d ba
       -0.060097326 -0.08734167 -0.02486052 -0.00096532685
000010 4a 3b 9b bd 15 3c c5 3d 9a 57 11 bd d6 58 a7 bd
       -0.07579668 0.096306 -0.035483934 -0.08171241
000020 7e b7 ff bb 36 f4 6d bd 28 d9 a9 bc 33 16 81 bd
       -0.0078038564 -0.058094226 -0.020733431 -0.06303062
000030 c8 72 91 3d be 3b 9e 3d 99 75 4c bd dd 35 49 3d
       0.07101971 0.07726239 -0.049916837 0.049123634
000040 f5 0e ad bc 35 e8 6a 3c 54 e0 7c bd 95 86 a5 3d
       -0.021125296 0.014337589 -0.061737373 0.0808231
000050 89 eb d5 3d a5 95 4c bd 78 ae 24 bd 0a 51 31 3b
       0.104453154 -0.0499474 -0.04020545 0.002705636
000060 77 10 67 bd 79 97 5f ba 53 78 c1 bd c8 a8 2b 3d
       -0.056412186 -0.0008529346 -0.09446778 0.04190901
000070 f5 d7 8f ba aa 89 97 3d b3 19 66 3d 91 76 2a 3c
       -0.0010974394 0.07399304 0.056176852 0.010404245
000080 bf 5a ef 3c df 60 9f bd 9f 61 76 bd 0d ae a6 bc
       0.029218076 -0.077821486 -0.060151692 -0.020346666
000090 23 d6 22 bd 17 f9 5b bd 8e 57 ae bd 4c c1 68 b8
       -0.039754998 -0.053704347 -0.085127935 -5.5493132e-05
0000a0 fe bc e0 bc 84 84 12 bc a0 64 89 3d 65 77 a4 bd
       -0.027433868 -0.008942727 0.06708646 -0.08030585
0000b0 5b cf 22 bd 76 57 c1 b9 17 89 90 bc 0d 60 6c bd
       -0.03974853 -0.00036876992 -0.017643495 -0.05770879
0000c0 94 8f 93 bd 7c dc 39 39 07 db 9f b8 e8 d5 b6 bd
       -0.0720512 0.00017725112 -7.622508e-05 -0.08927518
0000d0 e0 78 92 bc e5 a1 ca 3c ea 7d a0 ba bd 67 7c bd
       -0.017879903 0.0247354 -0.0012244557 -0.06162237
0000e0 83 bc 8d ba 82 6d 6a bd 0c 35 b3 39 40 5a 22 3d
       -0.0010813627 -0.05723334 0.00034181064 0.03963685
0000f0 ea d2 94 3d 70 52 af bd 6f 4e 97 bd 2d 88 59 bd
       0.07266791 -0.085606456 -0.07388007 -0.053108383
000100 ce 0e ac b9 7a a5 6f bd e8 6b 79 3c dc cb a0 3d
       -0.00032817427 -0.05850742 0.015223481 0.07851383
000110 75 04 b8 bc 15 b8 70 3d 05 22 a9 3b 24 b3 95 3d
       -0.022463063 0.058769304 0.005161526 0.07309559
000120 70 63 af 3d c4 9b 03 3d 51 21 1c bc ab aa a7 3a
       0.08563888 0.03213097 -0.009529428 0.0012791952
000130 8a 2b 95 3c 91 7b 89 3d 24 8e 6f 3d b0 06 45 bd
       0.018209238 0.067130215 0.058485165 -0.04810208
000140 25 da 95 3d 9d e0 45 3d 38 4d f1 3c 34 43 0d bd
       0.073169984 0.04830991 0.029455766 -0.034487918
000150 7c c7 9c 3d 09 fe 2b 3d d0 ea c9 3d f3 b7 dd bc
       0.07655236 0.041990314 0.0985924 -0.027065253
000160 a5 36 de 3c da 2c c1 bc 6c 28 27 bb bc 01 7b bd
       0.027125666 -0.023580957 -0.002550627 -0.06128095
000170 7d 66 02 3d 30 19 74 bd db 7d 89 bd eb 29 45 38
       0.03183602 -0.059594333 -0.06713458 4.70075e-05
000180 f4 2d 86 b8 00 dc 3a bc e3 91 46 39 22 2e db 3a
       -6.398177e-05 -0.011404991 0.00018937099 0.0016722123
000190 f7 26 c5 3c ab cc 7a bd 87 29 a4 3d 7a ba c5 3c
       0.024066431 -0.061230343 0.08015733 0.02413677
0001a0 f0 31 d5 39 e1 21 a0 3c 09 9a 70 bd 6c c4 7a 3d
       0.00040663732 0.019547405 -0.05874065 0.06122248
0001b0 2d 81 25 3d a4 94 6e 3d d1 f3 31 3d d0 78 c1 bd
       0.040406395 0.058247223 0.043445412 -0.09446871
0001c0 c0 75 b1 bd 48 a3 b6 bd 8f 4c 99 3d 19 0b 79 3d
       -0.08665037 -0.08917862 0.074853055 0.0608016
0001d0 67 2a 70 3d 96 a3 5d 3a 7c 26 aa 3d cf e7 66 3d
       0.058634188 0.0008454857 0.083081216 0.056373414

weight f4 [120, 120]
000000 36 70 9b bd aa a1 f1 bc 5c 48 33 3d f3 e6 ae bb
       -0.07589762 -0.029496033 0.04377018 -0.00533759
000010 cb 44 65 3d 10 7c 95 bd b0 b3 bc 3d dc 92 31 bd
       0.05597381 -0.07299054 0.0921396 -0.043352947
000020 ae 3b 6a 3d 3b 9a f0 bb 8f 2b fe 3d 32 24 3d bd
       0.05718582 -0.0073426045 0.12410652 -0.046177097
000030 30 f1 d6 bb 92 0b 03 bd 03 75 b3 3d a4 44 69 bc
       -0.0065595135 -0.031993456 0.087625526 -0.014237557
000040 34 c7 11 3b ca 48 82 bd 8b 65 d2 bc 77 03 49 bd
       0.0022243978 -0.0636154 -0.025683185 -0.04907557
000050 1a e1 80 bc 08 61 b4 3d 39 fd 05 bd 10 0e 92 39
       -0.015732337 0.0880757 -0.032712195 0.00027857767
000060 f8 f6 6f bd 9a af 1e bd ac 76 d3 3c e1 69 74 bd
       -0.058585137 -0.038741685 0.025813423 -0.059671286
000070 87 31 00 3d 4f 37 01 3d 97 35 c6 bd 2f fe 5c 3d
       0.031297233 0.031546887 -0.0967819 0.053953346
000080 a6 9b 16 3e ac 8b 9a bd 42 7b aa bd 48 73 cf bd
       0.14707813 -0.075461715 -0.08324291 -0.1012941
000090 98 67 70 3d 51 fe e5 3d 1d 53 42 bd 45 b3 92 bc
       0.058692545 0.11230148 -0.047442544 -0.017907748
0000a0 ed 8c 84 3d 3f 4e c0 bd 6d bd b8 bd a0 fc 2d bd
       0.06472192 -0.09389924 -0.09020505 -0.04247725
0000b0 8b 4e 7d 3e 20 76 10 3c 50 5a c3 3d 9b 19 73 bd
       0.24736993 0.008817226 0.0953871 -0.05935059
0000c0 0f 65 09 bd 3a 0a c1 bd 91 a1 56 3c 34 97 52 bb
       -0.033543643 -0.09425779 0.013100044 -0.003213358
0000d0 12 88 50 bd f4 3e 9f 3d 4f 05 06 3e fa 16 65 bb
       -0.050911017 0.07775679 0.13087963 -0.0034956322
0000e0 7d 42 b7 3c 58 8c 3b bd 4c 02 b3 bd 2f 94 16 3d
       0.022370571 -0.04578814 -0.087406725 0.036762413
0000f0 87 70 9b 3b 5f 44 d7 bc 35 cb 45 bd 07 03 ca 3c
       0.004743639 -0.026277719 -0.048289496 0.024659647
000100 93 d8 6f bd 0d 02 67 3d 28 e0 6c 3b 96 e4 9b bd
       -0.05855615 0.05639844 0.003614435 -0.07611959
000110 d7 34 0c bd 9a 04 33 3d 8c b8 68 3d 9f ba 83 bd
       -0.03423008 0.04370556 0.056816623 -0.064320795
000120 1d 98 87 bd b1 57 cc 3d 51 48 7c bc 3f da ce 3c
       -0.0662081 0.09977663 -0.015398101 0.025250552
000130 10 ec 74 3d 88 5d 2d bc 04 77 94 bd 25 46 f3 3b
       0.05979544 -0.010581382 -0.07249263 0.0074241334
000140 a3 ff 82 bd d6 37 71 3d 47 f4 a7 bc a9 eb 7a bd
       -0.06396415 0.05889114 -0.020502223 -0.0612599
000150 db 86 a9 bd a0 43 32 3c d6 a0 37 3d 79 b9 b8 bc
       -0.08277675 0.010880381 0.04483112 -0.022549378
000160 7a 69 6b 3d 92 28 4f 3d 22 31 17 bd bb 8c aa bd
       0.057473637 0.0505758 -0.03691209 -0.083276235
000170 5f 42 b2 bd ef 81 10 bd d2 e7 8c bd 7d 9c c8 3d
       -0.087040655 -0.035280164 -0.06880154 0.09795473
000180 ce ab c4 3c b9 a1 28 bc 05 7d 97 3d 36 c2 19 bd
       0.024007704 -0.010292464 0.073968925 -0.03753873
000190 48 3b 35 bc d0 31 75 bd d3 55 da 3c 0a d3 70 3d
       -0.011061497 -0.059861958 0.026652252 0.058795013
0001a0 e8 d8 ef 3d ae d9 52 bd 16 b5 43 3d b9 ce 34 bd
       0.117112935 -0.051477127 0.04778012 -0.04414246
0001b0 76 ff f6 3d f7 3b 19 3d c4 e2 c1 bc 21 57 a9 3d
       0.12060444 0.037410703 -0.0236677 0.08268572
0001c0 f6 90 9a bc 8f 68 57 bc a2 78 b8 bd 2e 34 ad bd
       -0.01886795 -0.013147487 -0.09007384 -0.08457218
0001d0 16 be 9a bc 0f d5 00 3d d8 8a 93 3d 29 83 5f bd
       -0.018889468 0.03145319 0.07204217 -0.054568443
0001e0 f7 41 ac 3d 2f 95 fd bc 0e 98 76 3d 12 be aa 3d
       0.08411019 -0.030954925 0.060203604 0.08337034
0001f0 35 1c 25 3d 87 9a 33 3d 5e 35 d1 bc 40 3e 35 3d
       0.040310103 0.04384854 -0.025538143 0.04424882
000200 0c 5f e8 3c 5b 1d fd 3c 98 b8 52 3d c3 2d 8e 3d
       0.028365634 0.030897787 0.051445574 0.06942322
000210 d3 98 c2 3c 3d 88 3d bd 61 38 86 bc bb a0 8c 3b
       0.023754513 -0.046272505 -0.016384305 0.0042916215
000220 da f8 1d bd 2c 90 06 bd c4 36 c7 3c 82 ee 67 3d
       -0.0385674 -0.032852337 0.024318106 0.056623943
000230 aa b1 22 3d 5f 04 03 bc 37 a2 80 bd 57 a3 7d 3d
       0.039720215 -0.007996648 -0.0628094 0.06192335
000240 91 53 ab 3d d2 c6 5f bb a5 09 f1 bc fa e4 31 bd
       0.083655484 -0.0034145606 -0.029423544 -0.04343126
000250 53 bf cf bc 9b 72 ef 3c d8 99 d8 3d 89 da 5e bd
       -0.025359785 0.029229453 0.10576218 -0.05440763
000260 4b d8 c6 bd 1a a6 49 3b c8 94 8f bd b7 81 9c 3c
       -0.09709223 0.003076917 -0.070108 0.019104822
000270 b2 7b 36 3d 92 de 45 bd 0c ef fb bc 05 9f cb bd
       0.04455156 -0.048307963 -0.030753635 -0.0994244
000280 3c 90 a0 3d 63 50 51 bd cb f0 6c bd e6 32 9f 3c
       0.078400105 -0.051102053 -0.057846826 0.01943345
000290 93 fe 34 be 32 f7 aa bc ae e9 fa 3c 52 85 a4 3d
       -0.17675237 -0.020869825 0.030629005 0.08033241
0002a0 f6 6c 3d 3c 07 37 49 bd 8b a6 bc 3d 76 36 af 3b
       0.011561623 -0.049124744 0.09211453 0.0053470684
0002b0 d2 5d 08 3d 71 d7 7f 3d 65 1f b1 bc c5 a3 ad 3d
       0.0332926 0.06246132 -0.021621415 0.08478502
0002c0 99 67 e9 3d 1a a8 10 3d ea cf ec 3d f3 63 f9 bc
       0.11396713 0.035316564 0.11563094 -0.030443167
0002d0 e8 7f 98 bc 95 98 75 bc 2e 84 b6 3b 3b d7 cd bc
       -0.018615678 -0.014989992 0.0055699563 -0.025127044
0002e0 a4 cb 56 3d 00 33 55 bc 7a 89 63 bd 4a 86 58 3d
       0.0524403 -0.013012648 -0.05555103 0.052862443
0002f0 46 c6 a0 3b 81 9e c2 bc 7a 78 e1 bc 94 2c 92 3d
       0.0049064485 -0.023757221 -0.027523268 0.07137409
000300 8c ee 84 bc e3 36 9c bc 59 d0 d4 bd ee f9 9c 3d
       -0.01622703 -0.01906914 -0.10391302 0.07664858
000310 98 18 4c 3d e1 a4 79 bd 6d 92 e5 bc 01 bc 70 3d
       0.049828142 -0.060948256 -0.028023923 0.058773044
000320 4a 17 95 bd 7a 61 7d bd 53 6b cd bd 4d 6d 8e 3d
       -0.07279833 -0.06186054 -0.10030236 0.06954441
000330 30 f1 57 3c f3 0e 8d 3d 96 de 3e bb 2c ab a6 3d
       0.013180062 0.06887617 -0.002912437 0.08138117
000340 e5 4a 8a bd d8 d4 5e bd 20 e5 27 3d 84 7d ed 3c
       -0.06752566 -0.054402202 0.040989995 0.028990515
000350 18 42 6a bd 2d 5c 1a 3e df ca 8c 3d 26 64 09 3d
       -0.05719194 0.15074225 0.06874632 0.033542775
000360 45 97 dd bd 15 90 62 bd cc 12 eb bc 9d d0 80 bc
       -0.10819868 -0.05531319 -0.028695486 -0.015724475
000370 b4 60 22 3d de b5 8b bd a7 6c 21 bd a5 f6 ec 3c
       0.039643005 -0.06821798 -0.03941026 0.028926203
000380 2d 4d 3a 3c ad a9 36 3d cd 63 9c 3d 97 61 83 bc
       0.011370939 0.04459541 0.07636223 -0.016037745
000390 20 d4 a9 bd 79 36 11 3d 8e 98 20 3d 11 6e 46 bd
       -0.08292413 0.03545234 0.039207987 -0.04844481
0003a0 e8 b8 45 3d 26 2c 43 bd d0 91 08 bc 1a b0 a7 3d
       0.048272043 -0.047649525 -0.008335546 0.081878856
0003b0 d5 2e b4 3d 3a 0f 68 3d 63 ec ae bd 9a fa 2a 3c
       0.08797995 0.056655146 -0.08541181 0.010435725
0003c0 bb e4 84 bc 42 2b c6 bd b4 61 3a bd 33 83 b9 bd
       -0.016222348 -0.096762195 -0.045503333 -0.090582274
0003d0 3b ce 93 3d 5c 06 be bd 4d 61 4c bb 52 8e 10 bc
       0.0721707 -0.09278557 -0.0031185925 -0.008822994
0003e0 20 eb b8 3d 65 a4 df 3c 0c 32 39 3a ce 5c d4 3d
       0.090292215 0.02730007 0.00070646475 0.103692636
0003f0 39 df e4 3c 51 3e 88 bd 27 51 42 bd 03 f7 ea 3c
       0.027938472 -0.06652511 -0.047440674 0.028682237

bias f4 [120]
000000 dd 7c ff ba d9 b1 c4 3d bc e0 45 3d 13 f0 7c bd
       -0.0019492168 0.09604234 0.048310027 -0.06175239
000010 15 84 a5 3c f4 87 3b 3d 13 de 7d bd 1e 89 95 3d
       0.020204583 0.045783952 -0.061979365 0.07301544
000020 aa 8f bb 3c 68 9f cc bd 8e 94 79 3d 35 03 26 3c
       0.022895653 -0.09991342 0.06093269 0.010132601
000030 d4 05 19 bd ff 65 97 bb a9 e0 d7 bd 8a 2d e3 3d
       -0.037359074 -0.004620313 -0.105408974 0.1109267
000040 22 1e ce bc 53 be bf 3c a2 af b4 3d ea 63 82 3d
       -0.025160853 0.023406183 0.08822562 0.06366713
000050 1e 2a 04 bd fb 8f 41 3c 3e 6b e0 3d fb b9 8c 3d
       -0.03226673 0.011814113 0.10957955 0.068714105
000060 25 df de 3d 12 ef 5c bd bd 11 28 bd 43 fd f9 bd
       0.10882405 -0.053938933 -0.04103254 -0.12206509
000070 e7 5b 29 bd 15 29 9a bd f5 6d 61 3d 2f db 26 bd
       -0.04134741 -0.07527367 0.055036504 -0.040736374
000080 6c 61 28 3d 7f 4a f3 bc f1 84 b9 3d 6e b4 da 3c
       0.041108534 -0.029698608 0.0905856 0.026697364
000090 7f bf 51 3d 23 9d 81 bd 47 77 09 bd d4 6a 2f bc
       0.051208016 -0.063287996 -0.033561017 -0.010706622
0000a0 04 09 22 bd 7c f9 ce 3d e2 08 82 bd 16 3c a1 3d
       -0.03955938 0.10106179 -0.063493505 0.078727886
0000b0 b4 31 bf bd 5c 65 88 3d d2 54 02 3d 9f 4c 19 3d
       -0.09335652 0.06659958 0.031819172 0.037426587
0000c0 e8 02 0b bd c5 ad ae 3d 96 68 2d 3d e3 67 91 bd
       -0.03393832 0.08529238 0.04233607 -0.07099893
0000d0 dd 82 22 3d ef e9 a3 bd cb 41 46 bd 28 45 39 3d
       0.039675582 -0.08003604 -0.04840259 0.04523197
0000e0 8f 1f ff bc 7d 95 49 bd a3 1c c0 3c 10 4b 94 bd
       -0.031142978 -0.04921483 0.023451155 -0.072408795
0000f0 f1 de c2 bc b4 d0 6c 3c e5 5e be b9 ff 50 bd 3d
       -0.023787947 0.014454056 -0.00036310326 0.092439644
000100 9f 06 61 3d c6 50 5d bd a4 42 37 3d 0c 5d f5 3b
       0.054937955 -0.05403211 0.044741288 0.0074878987
000110 bf f3 60 3d 1b 73 db bd 9c 89 75 3c bf d6 45 bd
       0.054919954 -0.10715314 0.014986422 -0.0483005
000120 c7 61 79 3d 88 5c 46 3c 5e 98 84 bd 13 0c c6 bd
       0.060884263 0.012107022 -0.06474374 -0.09670272
000130 2b 20 82 bd 2b f3 5c 3d 7b 28 19 bd be e4 ca 3c
       -0.06353792 0.05394284 -0.03739212 0.024767276
000140 07 23 b5 bd 6b 0f 18 3d 20 e7 7f bc 11 42 98 3d
       -0.088445716 0.03712408 -0.015619069 0.07434476
000150 bf 5f bf 3d 10 dc 58 3d 7a 3f a6 3a c7 56 b6 bd
       0.09344434 0.052944243 0.0012683712 -0.0890327
000160 61 33 43 bd 36 c0 a5 3c 7f c0 bf 3c 63 c5 a6 bd
       -0.04765642 0.020233255 0.023407219 -0.08143117
000170 ad 0d 35 3d 1f e6 56 bc 2c 8e 26 bd c3 55 56 bc
       0.044202495 -0.013116389 -0.04066293 -0.013081971
000180 26 19 78 bd 16 27 8d 3d 51 99 3d bd 69 c9 6b 3d
       -0.06057086 0.06892221 -0.046288792 0.057565127
000190 f4 8f a4 bd e7 7c 5a 3d 0f a0 a2 bc 83 c5 32 3d
       -0.080352694 0.053341772 -0.019851713 0.043645393
0001a0 30 8b 29 3d 20 b1 ec 3c 9d 04 9a bd 7a a2 72 3d
       0.041392505 0.028893054 -0.07520411 0.05923698
0001b0 66 2c be bd 02 2c be 3d b2 fd 04 bd b4 f3 80 bd
       -0.09285812 0.092857376 -0.032468505 -0.06296483
0001c0 7a c3 fd bc 3b 1e ae bd 12 d8 91 bd a6 0f 3b 3d
       -0.030977 -0.0850186 -0.0712129 0.04566922
0001d0 a8 99 0b 3d 77 d0 0e bd 33 98 5a 3b d4 57 ed bb
       0.034082085 -0.034866776 0.0033354878 -0.007243136

weight f4 [120, 120]
000000 24 20 5a bd 86 ad f3 bd 4f b2 34 3d 04 ec 52 3c
       -0.053253308 -0.11898331 0.04411536 0.012873653
000010 0b e4 1e 3d a4 61 b7 3d 7f d9 b8 bc ab c3 a7 3d
       0.038791697 0.0895417 -0.022564648 0.081916176
000020 4a 85 c5 bd dc b5 27 3d 26 a0 9b bd da c2 c4 bb
       -0.096445635 0.04094492 -0.07598905 -0.0060046734
000030 57 92 06 3e 27 1a 0c 3e 79 b1 83 bd c5 ac c8 3d
       0.13141762 0.13681851 -0.064303346 0.09798578
000040 cf 5f 43 bc 13 05 4e 3c 8e 18 34 bd a3 d3 8b 3d
       -0.011924698 0.012574452 -0.04396873 0.06827476
000050 4d 11 a2 bd 4a 3f 96 bd 32 61 84 bd 19 4e 46 3d
       -0.07913456 -0.0733629 -0.06463851 0.048414323
000060 26 64 85 bd c4 15 f4 3b 38 59 81 bb cb 25 eb 3d
       -0.065132424 0.0074488837 -0.0039474033 0.11481818
000070 d6 34 51 3d de 38 59 3d 8f 48 d5 3c d2 0e 7c bd
       0.05107578 0.05303275 0.026035575 -0.06153757
000080 76 8e de bd e7 08 87 3d aa e0 54 3d f8 4a 84 3a
       -0.10867016 0.06593495 0.05197207 0.0010093143
000090 6a 04 a6 bb aa b7 6b bd c4 06 0c 3d fa de c6 3d
       -0.005066444 -0.057548203 0.03418614 0.09710498
0000a0 ed 42 c9 bd e0 16 86 bd 78 ca 2a 3d 35 7b 91 3d
       -0.09827218 -0.06547332 0.041696995 0.07103578
0000b0 51 fc d4 bd 55 e4 90 bd ba 67 2a 3d 40 2f 01 bd
       -0.10399688 -0.07074801 0.041602828 -0.0315392
0000c0 e7 bf 29 3a 57 db 63 3d 67 d8 8a bd 3d e2 95 3c
       0.0006475434 0.0556291 -0.06779557 0.018296355
0000d0 c8 5a 74 bc 4a be 54 3d 0f b0 78 3d 2b 1d b0 bd
       -0.014914222 0.051939286 0.060714778 -0.08599313
0000e0 5d 9e 96 bd ea 6c 74 bd 87 af 89 3d 06 9f 17 3b
       -0.07354424 -0.05967418 0.06722932 0.0023135557
0000f0 51 f5 e9 bc 69 b9 74 bd 97 b5 59 3d 7c 2c 1a bc
       -0.028559359 -0.059747133 0.053151693 -0.00941002
000100 72 fa ae bc 3f 08 d1 3d 44 3f 8f 3d b0 57 15 3d
       -0.021359656 0.10206651 0.06994489 0.03646058
000110 48 6f 17 bd d6 f8 72 bc 5d c3 8a 3d 30 1a aa bd
       -0.03697136 -0.014829835 0.06775544 -0.08305776
000120 9e 03 92 bc 47 e3 a6 bd 30 1b 33 3d 69 6b 58 3c
       -0.01782399 -0.081488185 0.0437271 0.013209202
000130 b9 5c 4c 3d a1 27 6a bd b5 6c bd 3d 36 5d 97 bd
       0.049893115 -0.0571667 0.0924925 -0.073908255
000140 4f 9d a0 bd c4 e0 2d bd c8 63 4a 3e bf e4 9c bd
       -0.07842504 -0.04245068 0.19764626 -0.07660817
000150 a0 d7 c8 bc 55 63 a3 bc 54 d0 f0 bc 18 9d 98 37
       -0.02451688 -0.019944826 -0.029396214 1.8192964e-05
000160 c5 0a f8 3d 1d 1b 49 bd 25 5d 9f bd f3 6c 30 3d
       0.12111429 -0.049098123 -0.07781438 0.043072652
000170 da 6f 96 bc b7 cf 51 3c ef 16 de bc b4 b1 c2 3d
       -0.018363882 0.012805871 -0.027110545 0.095065504
000180 1e 46 4b bc c2 04 df 3b d4 a9 a7 bd 13 86 a6 bd
       -0.012406854 0.006805987 -0.08186689 -0.081310414
000190 fc d2 2c 3d 01 3d a0 bd 63 5d 7a bb 7a 53 83 3d
       0.042193398 -0.078241356 -0.0038202635 0.06412406
0001a0 e9 0e 86 3d 08 30 a7 3c a2 f8 37 bb 25 84 f2 3b
       0.06545813 0.020408645 -0.002807178 0.0074010068
0001b0 1a 31 2c 3d 33 c1 e8 bd b3 f1 91 bd 8a 96 2a bd
       0.042039014 -0.11364975 -0.071261786 -0.04164747
0001c0 78 21 22 bd 0b 5e 93 bd 30 dc 83 3c 94 af 81 bd
       -0.0395827 -0.07195672 0.016096205 -0.06332317
0001d0 60 07 a3 3d 73 1f 34 3d 7d 27 d3 bb e6 46 85 bd
       0.07960391 0.043975305 -0.0064439164 -0.065076634
0001e0 f8 a2 b1 3d ae 73 09 bd 3b d7 dd 3d 17 3d 3b bd
       0.08673662 -0.033557586 0.108320676 -0.045712557
0001f0 a7 d1 54 bd 99 e1 ba bd 77 6f d0 3d ee 7d 9f bc
       -0.051957753 -0.091250606 0.1017751 -0.019469228
000200 d9 c9 f8 3d 37 07 cf bd 86 31 98 3d 77 6c 33 3d
       0.121478744 -0.10108798 0.07431321 0.043804612
000210 a6 a2 b5 bd 7f 00 ce bd f4 37 83 3c 3c 8a a1 bc
       -0.08868913 -0.10058688 0.016017891 -0.019719236
000220 a3 e7 bf bc a9 9a 9e bc 6c 3e 29 bc 95 fa 0d bd
       -0.023425883 -0.019360857 -0.010329824 -0.0346628
000230 1b 8a 62 3d bf e6 e1 3b 24 a8 97 bd ef 53 c9 bd
       0.05530749 0.006893962 -0.07405117 -0.09830462
000240 24 7c 07 3d b6 b4 0a 3d 53 8f 9e 3d fd e4 41 bd
       0.033077374 0.033863746 0.07742181 -0.04733752
000250 f9 3c ad bc 11 fc b9 bd 1e 10 3e 3d 0b 4a fb 3d
       -0.021147238 -0.09081281 0.04640209 0.12269982
000260 9a 0b c1 3b a2 94 96 bc ca 21 a9 3d 72 20 8a bc
       0.0058912756 -0.01838142 0.08258398 -0.016861174
000270 86 f5 80 bd e3 e7 f0 bc 16 d9 7c 3d 71 79 a0 3d
       -0.0629683 -0.029407447 0.061730467 0.07835663
000280 64 97 56 3c fb bc d3 bd ac 67 71 bd 1b 6d 12 be
       0.013097618 -0.103387795 -0.05893676 -0.14299433
000290 f8 14 88 3d 96 6f 0f 3d 78 23 bc 3c 34 69 0d bd
       0.066446245 0.035018526 0.022966132 -0.034524158
0002a0 26 04 ae 3b 61 ef a3 3d 2b b3 a7 3d 70 90 8d 3d
       0.005310553 0.08004642 0.081884705 0.06912315
0002b0 4a 8c 67 3d 54 a1 41 3d 04 62 fa 3c 85 1c 4b bc
       0.056530274 0.047272995 0.030564316 -0.012396936
0002c0 82 1d c9 bd 30 cb 3a bd 49 84 06 3d 20 5b cd 3c
       -0.09820081 -0.04560393 0.032841 0.025067866
0002d0 1b ed a5 bd 5b 25 89 3d 16 86 7f bd 58 3b 67 bd
       -0.08101865 0.06696578 -0.062383734 -0.05645308
0002e0 bb c7 3d 3c 40 d9 b8 bc 7c b2 69 bd 25 4b eb bb
       0.011583264 -0.02256453 -0.05705498 -0.007180589
0002f0 22 4e 86 bd c3 6c d4 3d a6 82 00 be c2 b0 c9 3c
       -0.065578714 0.10372307 -0.12549838 0.024620418
000300 c8 41 82 bd 73 53 4b 3d 41 25 cd bd 93 28 9a 3d
       -0.06360203 0.04964013 -0.10016871 0.0752727
000310 a7 2a de bb fe 24 a3 bc ac 67 d8 bc 2c c3 9e 3c
       -0.006779987 -0.0199151 -0.026416622 0.019380175
000320 5e 8e 11 bd b2 66 54 3d b2 ca 65 bd 71 57 30 3d
       -0.035536163 0.05185575 -0.05610151 0.04305214
000330 44 53 c7 bc 12 eb 7e bd 09 61 cc bd 22 5a 06 bd
       -0.024331696 -0.0622359 -0.099794455 -0.0328008
000340 cf d1 d1 bd ec e0 9f 3d e2 9f 99 3d 10 3d 15 3d
       -0.10245096 0.07806572 0.07501198 0.036435187
000350 83 a3 98 3d 5c 02 1f bd 01 96 6f 3d 9e 45 eb 3b
       0.074530624 -0.03882061 0.058492664 0.00717993
000360 4a 27 49 3d d1 60 57 bd e9 45 96 ba 2e bd 57 3c
       0.049109735 -0.052582566 -0.0011464927 0.013167663
000370 16 92 85 3d 86 15 04 bc 8d b0 b4 bd 40 7e f9 3c
       0.06522004 -0.008061772 -0.08822737 0.030455709
000380 82 3e 94 3d 12 a0 cc 3d 69 c0 e6 3c 9e 1f 25 3c
       0.07238485 0.099914685 0.02816792 0.010078339
000390 fd 4a 4f 3c 31 b0 cf 3c 37 aa 95 bd 2c 62 85 bb
       0.012652156 0.02535257 -0.073078565 -0.004070541
0003a0 7f 77 1e 3d e7 11 61 bb d5 08 fe 3c 14 00 c2 bd
       0.03868818 -0.0034342946 0.03101007 -0.09472671
0003b0 74 eb 37 3d 27 19 82 3d 59 d0 36 bd aa 81 9e 3c
       0.04490228 0.06352454 -0.04463229 0.019348938
0003c0 e7 1d 85 3d 14 e1 09 3d c9 0f 1b 3d cc 9f 65 3b
       0.06499844 0.033661917 0.03785685 0.0035037873
0003d0 06 c5 1c bc f6 5a 69 3b 69 9b 1d 3d 3f 1c 34 bc
       -0.009568458 0.0035607195 0.03847829 -0.0109930625
0003e0 aa e1 ea 3b d1 59 94 bd 16 c3 06 bd 6d 1f e0 3c
       0.0071680145 -0.072436936 -0.032900892 0.027358735
0003f0 15 b4 0f be 29 7b 20 be 59 5f ed 3d 4a e2 8f 3d
       -0.1403354 -0.15671982 0.11590452 0.07025583

bias f4 [120]
000000 c1 3d b9 3d 82 90 f8 3c a1 26 02 3d 7d 66 e0 bc
       0.09044982 0.030342344 0.03177512 -0.02739262
000010 55 05 2a 3c 92 b2 28 bd 5a 74 66 bc db cd 8c bb
       0.010377248 -0.041185923 -0.014065826 -0.004297001
000020 55 3a c0 bd 20 d5 9c bc 76 bd b1 bd d9 c8 1f 3d
       -0.09386126 -0.019144595 -0.08678715 0.039009903
000030 32 a6 38 bd 06 70 a8 bd 33 75 9a 3d d8 ec df 3c
       -0.04508037 -0.08224492 0.07541885 0.027334616
000040 50 92 66 3d 04 64 c6 3c 94 a3 bb 3b ec 9a 13 bd
       0.05629188 0.024217613 0.005726287 -0.036036417
000050 55 65 32 3d 2b fc b4 bd 12 e5 7f 3d 21 33 97 bd
       0.04355367 -0.0883716 0.062474318 -0.07382799
000060 fc cb b4 3d 2c 5c 99 3c d9 c3 0f bd 1c 4e 20 bd
       0.088279694 0.018720709 -0.035098884 -0.03913699
000070 33 da be bd 63 86 80 bd f1 c7 b7 bd 33 6b df bc
       -0.09318962 -0.06275632 -0.08973683 -0.027272796
000080 d2 8a 5b bd a3 a9 b3 3d d9 11 ec 3c d2 ec b9 bc
       -0.053599186 0.0877259 0.028817104 -0.022695933
000090 85 db b9 3d d8 6c 5c 3d 54 5c d1 3c 3e bc 7d 3d
       0.09075073 0.05381474 0.02555672 0.0619471
0000a0 14 0d 15 bd 72 c5 1a 3d 97 ca 26 3d 95 06 f2 bc
       -0.036389425 0.037785955 0.04072055 -0.029544154
0000b0 d8 f3 a5 bd 01 c1 d2 3c 91 36 68 bc 52 4f af bd
       -0.0810315 0.025726797 -0.014173166 -0.08560051
0000c0 cd a2 8d 3c df b8 d6 bc 61 07 c2 bd 46 97 09 3d
       0.017289544 -0.0262112 -0.09474064 0.03359153
0000d0 4c a0 8e 3c 07 d5 74 bd 64 aa fd bc d7 80 4d 3d
       0.01741042 -0.05977347 -0.030965038 0.0501717
0000e0 21 9b 81 bd 1b ff 5d 3d 7d 64 be 3b b8 0a 55 3d
       -0.063284166 0.054198366 0.005810319 0.052012175
0000f0 f2 fc 5b bd 0b 6d 92 3d 7a ff d6 3c eb 6b 03 bc
       -0.053708024 0.071497045 0.026244868 -0.008021335
000100 a1 fc b6 3d 74 04 2f 3d 45 f0 93 bc eb d2 08 3d
       0.08934904 0.042728856 -0.018058905 0.033404272
000110 cc b4 81 3d 4e 43 78 bd ba 93 6a 3d 3f db 8e bd
       0.063333124 -0.06061106 0.05726979 -0.069754116
000120 a5 96 d6 3d a0 08 ca bd ed dd 2e 3c ac 68 81 3c
       0.10477952 -0.09864926 0.010673028 0.015796982
000130 57 27 85 3c d0 69 a7 bd dc 89 7c bd 9f 81 61 bd
       0.01625411 -0.08174479 -0.06165491 -0.055055257
000140 6a a8 c4 3c 26 a4 87 bd 64 3c 97 3d d9 39 e6 3c
       0.024006087 -0.06623106 0.073845655 0.028103756
000150 15 d2 5a 3c 72 95 27 3d cd fc bd 3c 70 f9 a8 3c
       0.0133557515 0.040914007 0.023191834 0.020626754
000160 b9 20 6c 3d 4b 88 10 bd b7 20 28 3d f8 e9 dd 3c
       0.057648394 -0.03528623 0.041046824 0.027089104
000170 5d 55 b6 bd 46 b8 16 bd 06 f5 06 bd f3 c0 ae 3c
       -0.089030005 -0.03679683 -0.032948516 0.02133224
000180 88 2c 89 3d 3b 7b 60 3d 1c d2 63 3c a0 c7 82 3c
       0.06697947 0.05480502 0.013905074 0.01596433
000190 42 d5 42 bc 9b 86 5c bd cf f6 a3 bd 96 c3 9b 3c
       -0.011891665 -0.053839307 -0.080060594 0.019014161
0001a0 8b 40 a9 bd 2b 5a a1 3d 3d 8b c6 bd 8d 37 9f 3d
       -0.08264264 0.07878526 -0.09694526 0.07774267
0001b0 51 48 05 bd da 0b 3e 3c 5e 30 07 3c 9d ce ae bc
       -0.03253967 0.011599505 0.008251278 -0.021338755
0001c0 d5 4b 57 bd 6c ae bf 3d a3 90 93 bc d9 60 4a bc
       -0.052562553 0.0935944 -0.018013304 -0.012352192
0001d0 9c ff da bc 82 76 e6 bc ec ff 4d 3d 59 03 ae 3c
       -0.026733212 -0.02813268 0.050292894 0.02124183

weight f4 [120, 120]
000000 ae 45 09 3e 2e 15 a0 bd 84 23 49 bd e2 04 ea bc
       0.13405487 -0.0781654 -0.049106136 -0.028566781
000010 14 92 f0 bd 51 72 2b bd 2b 58 46 bd b5 f4 92 3d
       -0.11746612 -0.041857067 -0.048423927 0.071755804
000020 9f c5 0b 3b 5a 2a 4f bc 3f a0 f7 3c 1c 80 06 3c
       0.0021327508 -0.012644375 0.030227778 0.008209255
000030 fe e1 6d bc 3d bb 97 bd 7e eb 7a bd 04 f4 ad 3d
       -0.014519213 -0.0740876 -0.06125974 0.08493808
000040 bc 1e ff bd 0c 31 bb bd e7 3b 6a bd 31 8b e5 bd
       -0.12457034 -0.09140214 -0.057186034 -0.11208189
000050 c0 64 7e bb a7 ad 49 3e 04 a7 10 3e cb 99 21 bd
       -0.0038817376 0.1969515 0.14126211 -0.03945331
000060 d4 e4 b9 3d 9d 6f 3d bd b9 32 c9 bd dc 91 19 3d
       0.090768486 -0.04624902 -0.09824128 0.037492618
000070 1e f4 42 bc 61 ff 94 bd 2e 92 59 3d 89 99 7b bd
       -0.011899022 -0.07275272 0.053117923 -0.06142572
000080 63 0c bb 3d 9b 30 bf bd 46 77 48 bd 78 80 d8 bd
       0.09133222 -0.09335443 -0.048941873 -0.105713785
000090 00 6b cc bd 9a 4c 43 3d fe 25 7c bd c6 05 a2 3d
       -0.09981346 0.047680475 -0.06155967 0.079112574
0000a0 b9 c2 4a 3d b3 95 c2 ba 75 ee 61 bd 92 72 37 bb
       0.04950211 -0.0014845639 -0.05515905 -0.0027991873
0000b0 01 b1 8a 3d 92 39 03 3d 67 71 b7 3c f5 a7 59 3d
       0.06772042 0.032037325 0.022392942 0.053138692
0000c0 e6 21 a5 bd 29 0d 84 bd b6 c8 83 bd 70 99 d2 bd
       -0.08063106 -0.064478226 -0.06434767 -0.10283172
0000d0 41 e4 bb bc c2 fb 1c bd 06 8a 3f bd 66 cb 8a 3d
       -0.022935988 -0.038326032 -0.04676249 0.067770764
0000e0 f5 29 76 bd f2 7f b6 bd 20 12 9e bd 07 cf bf 3a
       -0.060098607 -0.089111224 -0.07718301 0.0014633843
0000f0 aa 48 ef bd 72 8a 39 bd e8 87 08 bd e1 b4 b0 3b
       -0.116837814 -0.045298047 -0.033332735 0.005392656
000100 af d9 83 3c f4 31 4d 3d 67 d7 b9 3d d7 af 7b bd
       0.01609501 0.050096467 0.09074288 -0.06144699
000110 c4 1b 24 3a 4b 3a 26 bd 99 4a 2f 3b f2 6d f7 bd
       0.0006260241 -0.040582936 0.0026747345 -0.12081517
000120 f4 a0 eb bc 53 d3 ac bd de b4 bc bd cf e8 e6 bd
       -0.028763272 -0.084387444 -0.09214185 -0.112748735
000130 b4 16 e2 bc 63 7e 9b bd dc 84 d3 3c 3c 03 26 3e
       -0.027598716 -0.07592466 0.025820188 0.16212171
000140 bc 4d 82 3d 5a 77 62 bc 0c d8 bf 3d 5d 0d fa bd
       0.06362483 -0.013822401 0.093673795 -0.1220958
000150 f3 5b c6 bd 3d 15 6d bd 5a c6 18 be 36 24 39 3e
       -0.09685507 -0.057881583 -0.14919415 0.1808022
000160 0d f0 0a 3e e4 79 98 bd 40 7e 17 3e d4 ec 1e 3d
       0.13568135 -0.07445124 0.14794254 0.038800076
000170 ec 60 41 bc 36 db fc 3d 1b e5 04 3d 19 a8 01 3d
       -0.011802893 0.12346499 0.032445055 0.03165445
000180 c5 37 6a 3d 16 cb eb bc 78 98 5d bd 61 ed 8e bd
       0.057182092 -0.028783362 -0.054100484 -0.0697887
000190 7d 4f d0 3c 7e 20 29 3b bd a6 80 bd 0f e7 0c 3e
       0.025428528 0.002580672 -0.06281803 0.13760017
0001a0 fc f0 73 bd 24 e5 4c bd 05 01 c3 3c de 9b c5 bc
       -0.059555992 -0.050023213 0.023804197 -0.024122175
0001b0 54 38 c7 bd 79 cf d5 bd 28 ad b5 bd e6 33 fb 3c
       -0.097275406 -0.10439963 -0.088709176 0.030664396
0001c0 07 83 ca 3d cd c3 db 3d 42 bf d9 3c de f7 3c 3d
       0.09888273 0.107307054 0.026580457 0.046134822
0001d0 75 63 57 bd 17 8d 6a 3b 82 90 50 bd d4 51 94 3d
       -0.052585084 0.0035789663 -0.050919063 0.0724217
0001e0 18 7b 8b bd 4e e5 12 3c 29 63 45 bc 27 43 32 bc
       -0.06810588 0.008965803 -0.012047567 -0.010880268
0001f0 14 f2 88 3d a7 88 a1 bd 11 f6 08 be a5 ad 30 bd
       0.06686798 -0.078873925 -0.13375117 -0.04313435
000200 28 31 83 bd f1 ba 39 3b 53 ea e5 bd 14 b0 a8 3d
       -0.0640586 0.0028340186 -0.112263344 0.08236709
000210 aa 47 d1 3d b4 7b f1 bd b9 9e 53 3d ae 61 f2 bb
       0.10218747 -0.117911726 0.05166504 -0.007396898
000220 00 05 10 3d e7 22 a0 3d 8f a7 41 bd 36 49 92 3d
       0.03516102 0.07819157 -0.047278937 0.0714287
000230 a4 39 1e 3c 3d ef 85 3d 1c c5 9d 3d 30 e8 03 3d
       0.009657297 0.06539772 0.07703611 0.032203853
000240 8a fa ec 3d 5f a5 a1 3d a9 fc a9 bc 07 7b 0d 3d
       0.11571224 0.0789287 -0.02075036 0.034541156
000250 0e c5 bb 3c 7e 2d e8 3c 3b 59 d9 bd f1 95 aa 3d
       0.022921111 0.028342005 -0.106127225 0.0832938
000260 3a 40 14 3d ec f5 d1 bc b0 f4 ac bb c0 d6 6d 3d
       0.036194064 -0.02562996 -0.0052781925 0.05806613
000270 c7 84 c8 3d f1 4c d1 3d 11 30 3e 3d 3d 52 9f bd
       0.0979095 0.102197535 0.04643256 -0.077793576
000280 43 3f 9c 3d e4 a3 c4 bd 9e a9 86 bd d0 d1 c1 3d
       0.07629254 -0.09601572 -0.06575321 0.09463847
000290 43 d2 f2 bd cf 22 93 3d c2 08 70 3d 1b bd 7b 3d
       -0.118565105 0.071843736 0.058602102 0.061459642
0002a0 f9 95 a3 3d dc 56 02 3e 3f 8c 99 3d 5f 19 7a bd
       0.079875894 0.12728447 0.07497453 -0.061059352
0002b0 b7 0c 3b bc d1 de 3d 3d 98 f2 24 3e fa d4 80 bd
       -0.011416606 0.046355072 0.16108167 -0.06290622
0002c0 3f eb 63 3d e8 18 d3 bc c6 49 a5 ba 4b d7 68 bd
       0.05564427 -0.025768712 -0.0012610487 -0.056845944
0002d0 a2 5d a8 3c 51 ce 94 bd 27 19 88 3d b5 3c 63 3d
       0.02055246 -0.07265914 0.066454224 0.055477817
0002e0 3a b1 01 3b 0d 57 8b bd c7 05 08 3c e2 27 f2 bd
       0.0019789473 -0.06803713 0.008302159 -0.11824013
0002f0 ab e5 99 bd 46 91 3e bd b6 f8 4f 3d e9 81 92 3d
       -0.07514509 -0.046525262 0.0507743 0.07153685
000300 34 d0 fd ba cc ac 13 bd f5 79 ab 3c 20 1c ba 3d
       -0.0019364418 -0.036053464 0.020932177 0.09087396
000310 d4 ec 9a bd 99 81 3f bc 99 c2 80 bc 6d 9a 07 bd
       -0.07564703 -0.011688613 -0.015717791 -0.033106256
000320 ae 14 67 3d 6b 3f b9 3c 18 7f 83 bd ec 3c 59 3d
       0.056416206 0.022613248 -0.064207256 0.053036615
000330 a7 e6 65 bd 4d ac d1 3d 49 ea b3 3c b7 58 81 3c
       -0.05612817 0.10237942 0.021962302 0.015789373
000340 98 92 0d bd ec 23 2d 3d e5 bf 77 3d 28 ff ce bc
       -0.03456363 0.042270586 0.06048574 -0.025268152
000350 d5 4f e3 3d 5e 77 b1 3c 47 cd 09 bd 46 fd be 3c
       0.11099211 0.021663364 -0.033643033 0.02331413
000360 fc 8c 69 3c 6a 88 72 3d db e0 f4 3a 28 8a de 3d
       0.014254805 0.059212126 0.0018682735 0.10866195
000370 7b 7d 69 bd df 1c 9b bd 42 a5 85 3d 72 07 a7 3d
       -0.057004433 -0.07573866 0.06525661 0.08155717
000380 63 7a 2c 3d 4f 97 44 3d a4 07 25 3d 3f 6f ae 3d
       0.042108905 0.04799586 0.04029049 0.08517312
000390 93 b5 87 bd a9 83 ea bd eb 80 1f bd f6 4b b3 bd
       -0.066264294 -0.114508934 -0.038941305 -0.08754723
0003a0 85 ff 02 be 45 db bd bd 83 17 94 bc f2 03 f1 3c
       -0.12792785 -0.09270338 -0.018077618 0.029420827
0003b0 38 4d d8 bd e2 c1 e4 bb ae c6 f5 bc 1e 40 dd bc
       -0.10561603 -0.0069811204 -0.030001964 -0.027008113
0003c0 26 f4 9f 3d 46 7d 46 bc 93 eb 5c bd e2 89 fc bb
       0.078102395 -0.012114828 -0.0539356 -0.0077068666
0003d0 67 7d 50 bd 64 43 53 3c 73 10 53 bc 04 bd ac bd
       -0.050900843 0.012894485 -0.01288234 -0.08434489
0003e0 3d c5 b8 bd 2b 30 b7 3b 2a 93 26 3c 81 08 b7 3d
       -0.09021995 0.005590459 0.010166923 0.08937169
0003f0 d8 e7 82 3d 73 b0 49 bd 4d 53 ed 3c 4d e7 21 3d
       0.06391877 -0.04924054 0.028970385 0.039527226

bias f4 [120]
000000 42 fa 3f 3d 53 d4 25 3d 16 b5 7e 3d fc 92 4b 3b
       0.046869524 0.04048569 0.062184416 0.0031062951
000010 36 7b 2a b9 b8 9b fb bc a3 4d a6 bd 3b be 5c bc
       -0.00016258363 -0.0307139 -0.08120277 -0.013473089
000020 8a 61 11 bd e3 79 b2 3d 32 5a 70 3d c0 14 bd bd
       -0.03549341 0.08714654 0.058679767 -0.092324734
000030 42 25 12 3d 72 9b 80 3c 39 71 07 bb c9 8b 08 3d
       0.035680063 0.015699122 -0.0020666851 0.033336435
000040 d4 a1 b1 bd 05 70 c0 3c 57 37 e9 ba 1d dd 31 bc
       -0.086734444 0.023490915 -0.0017792982 -0.01085594
000050 bd 66 74 bb de 37 85 3d dd 8a 1a 3d 87 a2 de bd
       -0.0037292682 0.065047964 0.037730087 -0.108708434
000060 24 b5 8f 3d eb 9b b0 3c 9c ec 46 bc 35 f6 90 bc
       0.07016972 0.021558722 -0.012141373 -0.017695526
000070 57 27 a7 bd 75 ab bd 3d 9f 04 5e 3d 98 46 eb 3d
       -0.081618 0.092612185 0.054203626 0.11488074
000080 da d4 01 3d 18 69 8b bd ac 6f 99 bd bb be 9e 3d
       0.03169713 -0.068071544 -0.07492003 0.07751223
000090 f1 ef b7 bd f0 1f d2 3c dc 1f 5a 3d b8 50 e2 3b
       -0.08981312 0.025649995 0.05325304 0.006906595
0000a0 47 9a 8b bc ad 18 58 bd db 2f b4 bd 38 cb b0 bd
       -0.017041339 -0.052757908 -0.0879819 -0.08632511
0000b0 57 17 b8 bd a1 d6 e2 3c b0 d1 e5 3c a5 32 08 bd
       -0.08988827 0.027690234 0.028054088 -0.033251423
0000c0 12 b6 55 bd 52 3a 0e 3d 92 a7 4e 3d 01 4d 02 bd
       -0.05217559 0.034723587 0.050452776 -0.031811718
0000d0 68 86 42 3d 35 16 a8 3d 05 35 71 bd 20 da 2e 3d
       0.04749146 0.08207361 -0.058888454 0.04268849
0000e0 c0 0c 17 3c a0 7a 2a 3b c3 5e 0b 3c 75 6c 86 bd
       0.009219348 0.0026013032 0.00850648 -0.06563655
0000f0 58 35 99 3d 7a 59 8e bd 42 3a 25 3d 3c f5 42 bd
       0.07480878 -0.0695066 0.040338762 -0.047597155
000100 c1 36 4d bd 62 67 b6 bc a4 66 91 bd 62 eb ca bc
       -0.050101046 -0.022266094 -0.07099655 -0.024770442
000110 aa 45 4a 3d 88 36 97 3d 16 ec 69 3d f8 b6 41 bd
       0.049382843 0.07383448 0.057109915 -0.047293633
000120 2c 5b ac 3d e7 8a 88 bd 4b 5c 25 3d 9c cb ea 3b
       0.08415827 -0.066671185 0.04037122 0.0071653854
000130 09 dd b6 bd 58 f2 cc 3b 63 03 fe 3c cb 98 21 bc
       -0.08928878 0.0062544756 0.031007474 -0.009863089
000140 42 69 0b 3d bb ce 66 bd 53 7d 03 bd 29 6a 5f 3d
       0.03403593 -0.056349497 -0.03210194 0.0545446
000150 c4 75 c2 3a 53 14 bc bc db de d7 ba b4 28 73 bd
       0.0014836122 -0.02295891 -0.0016469614 -0.05936499
000160 84 e5 19 bd 95 35 c6 3c 67 f8 8f bd 2b 81 44 bc
       -0.0375724 0.024195472 -0.07029801 -0.011993687
000170 04 a6 b9 bc 61 c3 e0 3d a4 b3 31 bd d2 48 05 bd
       -0.02266217 0.109747656 -0.04338421 -0.03254015
000180 f8 f5 5d bd ad 60 6b 3d a0 b6 1a bd 6a 70 2a bb
       -0.054189652 0.057465244 -0.03777182 -0.0026006945
000190 1c 7d 88 bd 9c cf 19 3d 94 27 32 3d cd 32 fb 3c
       -0.06664488 0.037551507 0.043494776 0.030663872
0001a0 78 55 76 3d 63 09 83 3d 19 a7 82 ba 9f 18 3b bc
       0.060140103 0.06398275 -0.0009968012 -0.011419444
0001b0 d9 ac 44 3d bc 20 26 bc af c8 96 3d 86 cf 9d bc
       0.048016403 -0.01013964 0.07362496 -0.019263994
0001c0 7d 63 4f bd 69 ae 42 bd d3 96 01 bc b0 26 c7 3b
       -0.05063199 -0.04752961 -0.007909494 0.00607761
0001d0 78 da 4a 3d a8 10 12 bd 32 03 6e bd c3 ca ec bc
       0.049524754 -0.035660416 -0.058108516 -0.028905278
