best_100.pt (torch, 653094 bytes, 25 tensors)

weight f4 [120, 3]
0.172401 0.36216724 -0.41537678 0.041464273 0.20381503 -0.3189868 0.1559081 -0.232484
0.06635016 0.08286383 0.47301143 0.24752758 -0.009108483 0.12087623 0.18603292 0.4902295
0.13475771 -0.39169106 0.17143343 0.25186372 -0.5452963 -0.41017658 0.45551077 0.4657672
0.43932927 0.41781193 -0.12284306 0.39741352 -0.009137278 -0.19780919 0.082597464 0.12639958
-0.2253224 -0.34736437 -0.26301265 0.14701445 -0.3854805 -0.25557977 0.53248113 -0.097839445
-0.3167285 0.44871643 0.4159026 -0.2585004 -0.28735012 0.3226116 0.36358204 0.5277423
0.07765074 -0.5123769 -0.07786552 -0.2541515 -0.0783266 -0.23619275 -0.5055802 -0.07026385
0.5256313 0.5592228 -0.0030788926 0.163205 0.07466223 -0.3339138 0.34038955 0.46143213
0.45951235 -0.51977307 -0.040810008 -0.13617139 -0.25205952 0.44488138 0.41117844 0.24455093
0.5453217 0.009736097 0.34881392 0.005962214 -0.34745088 0.51479447 -0.24117371 -0.00028455633
0.08805205 -0.50211746 0.33311015 0.0022454197 -0.5569663 0.4182444 -0.17001276 0.054765917
-0.10986549 0.27200633 -0.4877397 0.27716386 0.4037582 -0.33433008 -0.25310165 0.09892858
0.2255822 0.28150633 -0.29305574 -0.14788532 -0.23554774 -0.4839495 -0.19370177 -0.09834839
0.16892552 0.57464176 -0.5268792 0.5533294 0.35636443 -0.04966261 -0.57345814 0.56403184
0.4238406 -0.46878374 0.007051535 0.4727737 -0.038348194 -0.3926484 0.027887678 0.4754274
-0.027371297 -0.5426204 -0.45686328 -0.40334818 0.08574459 0.46182424 -0.38630566 -0.06357673
0.56947947 0.22871749 0.14633244 0.037608318 0.42785847 -0.52066207 -0.27291828 0.07257687
0.35183856 -0.51053894 0.45511028 0.1778157 -0.545738 -0.35747412 -0.30452275 -0.25563282
-0.47922087 -0.08395949 -0.5743328 -0.06687512 -0.5659541 -0.27089614 -0.5112233 0.09873325
-0.50271374 -0.26732147 0.1938783 -0.39856815 -0.5325905 -0.19829592 -0.12728377 -0.087208435
-0.3596695 -0.1147593 -0.5025167 -0.3678913 -0.06756617 0.36831358 0.20597515 0.22102045
-0.22364111 -0.3086992 -0.5449377 0.48182803 0.052996174 0.46102273 0.46723452 -0.08010625
0.26385656 -0.29964748 0.21037138 -0.3255285 -0.35924962 0.072811544 -0.23300107 -0.27965248
-0.049120724 0.31699005 0.56994027 0.32880202 -0.45261332 -0.129477 0.2658071 -0.16492182
-0.3440074 0.526974 -0.003960642 -0.10751921 -0.41089773 -0.2261189 0.21305932 -0.10452144
-0.35109437 -0.15925796 -0.12068731 0.11294015 -0.4418114 -0.027073404 0.20589356 0.016226444
0.43602794 0.5293696 -0.41497463 -0.499891 -0.34498665 -0.34544426 -0.46259215 0.38649517
0.51091045 -0.50774914 -0.1865417 -0.28280148 -0.4568631 0.54918146 -0.21517572 0.11026419
0.40162003 -0.54352826 0.08716963 0.1509645 -0.38149107 0.5587109 0.4886589 -0.38814276
-0.39198405 0.43754804 0.106664896 0.41928563 0.5127015 -0.27897236 0.12738913 0.4231769
-0.15076259 0.5020274 -0.04558174 0.076319106 -0.15201743 -0.45715407 0.1897015 -0.09823977
-0.22149651 -0.57853997 0.04421531 -0.11096866 0.047189288 -0.009424976 0.0028091806 -0.042479254
00000000: e389 303e fc6d b93e 44ac d4be 71d6 293d
00000010: e3b4 503e 3d52 a3be 5fa6 1f3e 4910 6ebe
00000020: 98e2 873d 83b4 a93d 8e2e f23e df77 7d3e
00000030: bf3b 15bc f58d f73d 6a7f 3e3e 5cff fa3e
00000040: edfd 093e bb8b c8be 3f8c 2f3e 48f4 803e
00000050: 8a98 0bbf aa02 d2be b538 e93e 0a79 ee3e
00000060: c4ef e03e 72eb d53e 2495 fbbd c979 cb3e
00000070: 86b4 15bc 7e8e 4abe dc28 a93d e46e 013e
00000080: eaba 66be bed9 b1be 98a9 86be f58a 163e
00000090: b35d c5be 5adb 82be af50 083f 0c60 c8bd
000000a0: 3d2a a2be 29be e53e 30f1 d43e 2a5a 84be
000000b0: 8e1f 93be 592d a53e 6d27 ba3e 1f1a 073f
000000c0: 5a07 9f3d 222b 03bf f577 9fbd 2520 82be
000000d0: b269 a0bd 83dc 71be b46d 01bf 7ee6 8fbd
000000e0: c68f 063f 3a29 0f3f 3fc7 49bb 361f 273e
000000f0: 83e8 983d c0f6 aabe 8a47 ae3e d540 ec3e
00000100: 3445 eb3e d90f 05bf 6528 27bd 8370 0bbe
00000110: f20d 81be 7ec7 e33e fb85 d23e 8f6b 7a3e
00000120: 349a 0b3f 2784 1f3c bd97 b23e ad5e c33b
00000130: 15e5 b1be 92c9 033f 3ef6 76be 8130 95b9
00000140: a254 b43d c58a 00bf 6a8d aa3e e427 133b
00000150: 5895 0ebf 2124 d63e d317 2ebe 3a52 603d
00000160: 2801 e1bd 6a44 8b3e 05b9 f9be 6ce8 8d3e
00000170: 65b9 ce3e 502d abbe 8a96 81be 119b ca3d
00000180: 05ff 663e 9921 903e 670b 96be 406f 17be
00000190: 6d33 71be 3bc8 f7be c259 46be e16a c9bd
000001a0: d0fa 2c3e b91b 133f 8ee1 06bf ffa6 0d3f
000001b0: 6675 b63e 056b 4bbd 27ce 12bf 6464 103f
000001c0: a301 d93e 6c04 f0be 9010 e73b 650f f23e
000001d0: ff12 1dbd 3609 c9be b374 e43c 386b f33e
000001e0: c539 e0bc 2ce9 0abf fce9 e9be a783 cebe
000001f0: dc9a af3d 3a74 ec3e dbc9 c5be 8434 82bd
00000200: 68c9 113f eb34 6a3e 2cd8 153e 2e0b 1a3d
00000210: 4410 db3e 1c4a 05bf f2bb 8bbe 2fa3 943d
00000220: 2f24 b43e aeb2 02bf 3704 e93e 5215 363e
00000230: 7cb5 0bbf d906 b7be 68ea 9bbe 4ee2 82be
00000240: 705c f5be f4f2 abbd 7907 13bf d3f5 88bd
00000250: 5ee2 10bf e6b2 8abe 88df 02bf a834 ca3d
00000260: d9b1 00bf 5cde 88be 0888 463e 2011 ccbe
00000270: da57 08bf 160e 4bbe ad56 02be 569a b2bd
00000280: 9a26 b8be ed06 ebbd efa4 00bf 405c bcbe
00000290: 2260 8abd 9993 bc3e 26eb 523e 2f53 623e
000002a0: 2d02 65be d20d 9ebe 0981 0bbf 2ab2 f63e
000002b0: 8412 593d 2c0b ec3e 5d39 ef3e bf0e a4bd
000002c0: 3518 873e 656b 99be 986b 573e acab a6be
000002d0: 91ef b7be 381e 953d d597 6ebe 9c2e 8fbe
000002e0: d032 49bd 854c a23e 9be7 113f bd58 a83e
000002f0: efbc e7be 9e95 04be de17 883e 44e1 28be
00000300: bd21 b0be c5e7 063f 46c8 81bb 0833 dcbd
00000310: 3061 d2be b78b 67be 392c 5a3e 560f d6bd
00000320: a4c2 b3be 8514 23be e92a f7bd 2a4d e73d
00000330: 1b35 e2be 0bc9 ddbc c3d5 523e 52ed 843c
00000340: 0e3f df3e c484 073f 8e77 d4be b7f1 ffbe
00000350: 17a2 b0be 12de b0be e1d8 ecbe b2e2 c53e
00000360: 07cb 023f d9fb 01bf ca04 3fbe 5bcb 90be
00000370: f6e9 e9be 2897 0c3f 0657 5cbe 31d2 e13d
00000380: 24a1 cd3e ab24 0bbf fe85 b23d 7096 1a3e
00000390: cc52 c3be ad07 0f3f 8031 fa3e a6ba c6be
000003a0: 22b2 c8be 4c06 e03e 2073 da3d 9bac d63e
000003b0: 6840 033f 77d5 8ebe 4c72 023e a5aa d83e
000003c0: 8261 1abe de84 003f ebb3 3abd 314d 9c3d
000003d0: 75aa 1bbe 1910 eabe 1c41 423e ef31 c9bd
000003e0: fbcf 62be 321b 14bf 1d1b 353d 8943 e3bd
000003f0: 8e49 413d 376b 1abc 3b1a 383b bafe 2dbd

bias f4 [120]
-0.4408351 -0.514337 0.100982755 0.046410777 0.073134676 -0.082742564 0.2754246 -0.5059095
0.4194633 -0.49663225 -0.2205137 0.5253077 -0.41267765 0.48061836 -0.5199556 -0.4561138
0.3139041 0.5375098 -0.2666423 0.383945 0.3183656 0.5124135 0.10020192 -0.08760786
0.48862168 0.4243473 0.08980655 0.19006594 -0.39669463 0.2754671 0.047960367 0.39218813
-0.20416689 0.3714968 -0.16284035 0.48285598 0.34833598 0.15290345 -0.42573145 0.3168984
-0.2573425 0.27713522 0.46334288 -0.06845382 0.1541218 -0.30434078 0.11585316 0.08150662
-0.38986072 -0.35711426 -0.08852179 0.2173268 0.4257777 0.23755471 0.010131807 0.56819916
-0.3142192 0.11293993 -0.029594138 0.084596224 -0.31199571 0.5714344 -0.40391994 -0.45204875
-0.24539505 0.52673775 -0.523707 -0.15223908 -0.35489976 0.34857905 0.30946997 -0.54931736
-0.10398612 -0.53853184 -0.35160398 -0.09441847 -0.55105346 -0.15064068 -0.5574355 0.42361498
-0.5649257 0.15790328 0.3166249 -0.090135776 -0.28487816 -0.0237073 0.46265683 -0.35417265
0.0027341153 -0.4170653 -0.06712564 0.30848002 0.48215705 -0.017945843 -0.27429205 -0.46115792
-0.0057597784 0.33552137 -0.5479653 0.38193586 -0.37906966 -0.5178706 -0.50085574 -0.25957617
0.14403515 -0.045722477 -0.26445255 -0.2559761 0.11538431 -0.297389 0.14281854 -0.15937097
0.5461739 -0.07820273 -0.11322511 0.29095727 -0.12327107 0.17275274 0.4977167 -0.11052588
00000000: 23b5 e1be 97ab 03bf 0cd0 ce3d 3a19 3e3d
00000010: a2c7 953d ef74 a9bd 7404 8d3e 4983 01bf
00000020: e5c3 d63e 9546 febe 58ce 61be 917a 063f
00000030: 7c4a d3be 9c13 f63e cf1b 05bf bf87 e9be
00000040: 0ab8 a03e 3e9a 093f 5785 88be 7094 c43e
00000050: d100 a33e 882d 033f aa36 cd3d c06b b3bd
00000060: 9f2c fa3e 0d44 d93e 7fec b73d a5a0 423e
00000070: 8f1b cbbe 060a 8d3e 1772 443d e2cc c83e
00000080: 2011 51be d434 be3e 9fbf 26be e638 f73e
00000090: 1859 b23e b992 1c3e 79f9 d9be 8240 a23e
000000a0: 65c2 83be abe4 8d3e 473b ed3e 8431 8cbd
000000b0: 1bd2 1d3e 8ed2 9bbe 6c44 ed3d f1ec a63d
000000c0: d39b c7be aed7 b6be ea4a b5bd eb8a 5e3e
000000d0: 89ff d93e 8b41 733e e1ff 253c 8075 113f
000000e0: 57e1 a0be 0d4d e73d 686f f2bc c940 ad3d
000000f0: e7bd 9fbe 8649 123f 98ce cebe ef72 e7be
00000100: d748 7bbe 49d8 063f a911 06bf 90e4 1bbe
00000110: 6cb5 b5be f478 b23e d972 9e3e 10a0 0cbf
00000120: adf6 d4bd 39dd 09bf 7005 b4be 795e c1bd
00000130: d711 0dbf 8d41 1abe 18b4 0ebf 10e4 d83e
00000140: f89e 10bf 66b1 213e a91c a23e 1b99 b8bd
00000150: 8ddb 91be d035 c2bc 5be1 ec3e 1e56 b5be
00000160: d82e 333b 9589 d5be 2b79 89bd 18f1 9d3e
00000170: 4add f63e 2903 93bc 0270 8cbe e41c ecbe
00000180: 86bc bcbb 75c9 ab3e 7447 0cbf 198d c33e
00000190: 6b15 c2be 2b93 04bf 1538 00bf 2be7 84be
000001a0: f37d 133e 7e47 3bbd 5366 87be 4d0f 83be
000001b0: 9c4e ec3d 5f43 98be 063f 123e 2532 23be
000001c0: 0dd2 0b3f c128 a0bd 91e2 e7bd 5af8 943e
000001d0: 8b75 fcbd 18e6 303e b9d4 fe3e 645b e2bd

weight f4 [1, 120]
0.04133143 0.052904475 -0.022370744 0.010655203 0.0632582 0.06726383 0.05279361 -0.07213588
-0.04662388 0.0036854642 -0.088875115 -0.03081121 -0.048483334 0.034011714 0.08732821 0.047599353
-0.064561516 -0.06138564 -0.05868131 0.07307554 -0.03234675 0.017366305 -0.026164709 -0.018875709
0.011952337 -0.0041664504 0.058359597 0.0048975423 0.018637344 -0.037532456 -0.06975225 0.02244281
-0.06436206 0.07048892 -0.0356719 -0.07544991 -0.06039239 -0.06731879 0.03336634 -0.041651852
-0.07092813 0.006840401 0.03816701 0.052437443 -0.06461026 0.0911936 0.06011561 -0.081076145
-0.00090431364 -0.04749441 0.025816955 -0.059577532 0.07086547 -0.048122283 0.0066702636 0.010980714
0.02678672 0.057670366 -0.05812478 0.028928524 -0.016151978 0.00867154 -0.09433448 0.02261537
0.07436949 0.014659159 0.053648163 -0.0073050708 0.08876376 -0.016534159 -0.008025606 -0.07373937
-0.037864767 0.060109876 -0.059622988 -0.019295216 3.342891e-05 -0.0009242371 -0.07728746 0.0003900086
-0.02140437 0.048329055 -0.060044553 -0.073142804 -0.024580644 0.07071274 0.011477083 0.05624018
-0.0726929 0.04148043 0.032025494 -0.063605696 -0.049490083 -0.09284275 0.05485057 -0.053728856
0.0052704946 -0.04928052 0.07577599 -0.01813288 -0.04129594 0.07785406 -0.009705106 0.012743706
0.035618503 -0.05752973 -0.06588498 0.051659144 -0.069231644 -0.052860644 -0.032795843 0.048577018
-0.0719561 0.08952987 0.023548337 0.064208604 -0.090584256 -0.0018564586 -0.025551045 0.013400214
00000000: 254b 293d 5db2 583d da42 b7bc 2993 2e3c
00000010: 848d 813d 9ec1 893d 1d3e 583d fabb 93bd
00000020: aef8 3ebd d487 713b 2804 b6bd ca67 fcbc
00000030: 7696 46bd de4f 0b3d 22d9 b23d 8af7 423d
00000040: d438 84bd 826f 7bbd d05b 70bd a1a8 953d
00000050: 077e 04bd c843 8e3c 5f57 d6bc 3ba1 9abc
00000060: bcd3 433c b886 88bb 790a 6f3d 907b a03b
00000070: 58ad 983c a2bb 19bd 45da 8ebd fcd9 b73c
00000080: 41d0 83bd 7f5c 903d b31c 12bd 7b85 9abd
00000090: 035e 77bd 6fde 89bd 25ab 083d 229b 2abd
000000a0: c442 91bd 7125 e03b 0355 1c3d a5c8 563d
000000b0: 6252 84bd b6c3 ba3d c93b 763d 400b a6bd
000000c0: 760f 6dba 8089 42bd 147e d33c 9207 74bd
000000d0: ea21 913d df1b 45bd 3a92 da3b 74e8 333c
000000e0: d36f db3c c337 6c3d 4014 6ebd 83fb ec3c
000000f0: 2751 84bc 1313 0e3c 7032 c1bd de43 b93c
00000100: 084f 983d f82c 703c 2dbe 5b3d 605f efbb
00000110: c6c9 b53d a572 87bc d57d 03bc ab04 97bd
00000120: 1618 1bbd c635 763d 3c37 74bd 0011 9ebc
00000130: 0536 0c38 8048 72ba e348 9ebd 117a cc39
00000140: 3858 afbc b0f4 453d 47f1 75bd e5cb 95bd
00000150: 595d c9bc d7d1 903d 600a 3c3c 1a5c 663d
00000160: 04e0 94bd 62e7 293d 2a2d 033d b443 82bd
00000170: 1db6 4abd 5724 bebd feaa 603d ca12 5cbd
00000180: 1db4 ac3b 5fda 49bd 7130 9b3d 688b 94bc
00000190: ee25 29bd f371 9f3d 2a02 1fbc faca 503c
000001a0: b5e4 113d 4ba4 6bbd b4ee 86bd 8a98 533d
000001b0: 52c9 8dbd 6784 58bd ef54 06bd b2f8 463d
000001c0: b85d 93bd 705b b73d 71e8 c03c cd7f 833d
000001d0: 3d84 b9bd 6a54 f3ba 6d50 d1bc 928c 5b3c

weight f4 [120, 120]
0.04114492 0.023940662 -0.03866521 -0.0785662 0.068383746 0.06559954 0.06725963 0.07590369
0.0034549867 0.050107908 -0.09598166 0.044535313 0.028881717 0.04977531 -0.026473515 0.07748315
0.0042843046 0.0562618 -0.097038105 0.059187006 0.0055295555 0.088825226 0.067747995 0.06829059
0.088652395 -0.016924916 -0.07302422 -0.07831037 0.00057550136 0.07841765 -0.0712769 -0.01602911
-0.034752596 -0.041055016 0.05532463 0.005994243 -0.00796185 -0.024222594 -0.07748116 -0.080264054
0.067202084 0.017907422 -0.030526849 -0.07035876 0.02746758 0.079830706 -0.04807126 0.01737256
0.04416436 -0.0446158 -0.04494733 -0.06525134 0.08005378 0.060512334 -0.07967643 -0.0029059423
-0.05580024 -0.0816564 0.017429272 0.057475977 -0.081551164 0.0013135541 0.05419838 0.053846013
-0.045339786 0.04093643 0.02995278 0.023938324 0.07436715 -0.07272682 0.03218368 -0.09982364
0.059931006 -0.015644232 0.009927918 -0.04711656 0.07913431 -0.07428118 0.060523473 -0.0031224757
0.043014254 0.046275172 0.09647084 0.081241064 0.0240052 -0.079332195 0.020279763 0.01864321
0.067391895 -0.03880169 -0.010878383 0.039989583 0.06372695 -0.0062251347 -0.028209567 0.059409
-0.07577622 0.093869284 0.051314414 -0.0005118039 -0.078527 -0.09483318 0.054489512 0.012227209
0.017728813 0.07465546 0.022287637 0.06673105 0.0019122588 0.06654168 0.0815828 0.062675074
0.012165063 0.046633508 0.05930768 0.084922224 -0.032528177 0.020804752 -0.058001123 -0.03789226
0.07961404 0.029504234 -0.045978487 -0.048681118 0.0063089957 0.0585593 -0.00707285 0.073413655
0.02995575 -0.045112375 0.07969766 0.060731523 -0.08192417 0.04289289 -0.04058621 -0.031294577
0.045843244 0.0333045 0.015519988 -0.008565788 0.04802564 -0.008941691 -0.009004227 0.0758087
0.051697046 -0.029755194 -0.055905696 -0.0010909674 -0.088345416 0.08186275 0.009152314 0.060307577
0.082197644 -0.04376495 0.053418413 -0.063375846 0.022214748 -0.018405616 0.030591667 -0.04629515
-0.0760655 -0.06828622 0.077685684 -0.06042769 -0.02439574 -0.07639563 -0.05827209 0.055276547
0.022266867 0.0076683015 -0.021300219 0.054915644 0.062300883 0.005712389 0.009572404 0.02904563
-0.06975308 0.050115585 0.08427236 0.07106863 -0.039494026 0.060770534 0.08751353 -0.004314144
0.0054271985 -0.069404386 -0.037701406 0.031403057 0.004464771 0.081787445 0.040266644 -0.044210635
-0.040858265 -0.016099658 -0.06775187 -0.04966813 0.009829811 -0.056780264 -0.051767368 -0.06804385
-0.07420544 -0.0747718 0.09713731 -0.0050585447 -0.08166249 -0.013404986 0.009054803 -0.02633903
-0.050335217 0.06648058 0.020287778 -0.029032383 0.035787527 -0.054610297 -0.019814435 -0.09317682
-0.06364064 0.078198746 -0.053585913 -0.07877992 -0.07150617 0.0018170519 0.03012328 -0.08523186
0.05021084 -0.04449634 -0.045711186 -0.038772114 0.096526995 -0.014334849 0.08275408 0.041185766
-0.025542567 0.030252121 0.027579894 0.06677052 -0.069772445 -0.002238091 0.09052005 0.011928678
-0.0042122365 -0.0091048 0.015316174 -0.038538653 0.009396407 -0.08707746 0.06158756 -0.026916461
0.035619818 -0.039851766 0.019397479 0.09178684 0.0017064725 0.003568659 -0.024017131 0.022703968
00000000: 9387 283d 351f c43c 695f 1ebd 51e7 a0bd
00000010: c70c 8c3d 0d59 863d 6bbf 893d 6573 9b3d
00000020: 0f6d 623b f33d 4d3d 0892 c4bd a96a 363d
00000030: 5a99 ec3c 32e1 4b3d fcde d8bc 7caf 9e3d
00000040: 5a63 8c3b c672 663d eabb c6bd 136e 723d
00000050: 4631 b53b 00ea b53d 76bf 8a3d f0db 8b3d
00000060: 638f b53d 1fa6 8abc b98d 95bd 3061 a0bd
00000070: 3edd 163a 6f99 a03d a0f9 91bd 7b4f 83bc
00000080: bd58 0ebd 4e29 28bd 149c 623d 5b6b c43b
00000090: 6b72 02bc 766e c6bc 71ae 9ebd 7b61 a4bd
000000a0: 3fa1 893d 96b2 923c 7113 fabc 4118 90bd
000000b0: b103 e13c 487e a33d 5fe6 44bd e650 8e3c
000000c0: b0e5 343d 0fbf 36bd b11a 38bd 7fa2 85bd
000000d0: 3cf3 a33d c8db 773d 652d a3bd 9f71 3ebb
000000e0: cb8e 64bd 783b a7bd d5c7 8e3c ee6b 6b3d
000000f0: 4c04 a7bd 902b ac3a 1fff 5d3d a38d 5c3d
00000100: 36b6 39bd f5ac 273d 885f f53c 4e1a c43c
00000110: ce4d 983d cdf1 94bd 09d3 033d 5670 ccbd
00000120: 377a 753d 5528 80bc b5a8 223c 4bfd 40bd
00000130: 2b11 a23d bb20 98bd 76e7 773d 73a2 4cbb
00000140: b72f 303d 098b 3d3d 8192 c53d b761 a63d
00000150: 8ea6 c43c eb78 a2bd bf21 a63c a5b9 983c
00000160: c304 8a3d 85ee 1ebd 3f3b 32bc 1ecc 233d
00000170: 4683 823d 37fc cbbb c017 e7bc da56 733d
00000180: 9030 9bbd 8a3e c03d 102f 523d 942a 06ba
00000190: c4d2 a0bd e637 c2bd 6530 5f3d a254 483c
000001a0: 043c 913c f6e4 983d 9094 b63c 4aaa 883d
000001b0: c2a4 fa3a 0147 883d e214 a73d ca5b 803d
000001c0: f94f 473c c702 3f3d 9cec 723d b4eb ad3d
000001d0: 443c 05bd ba6e aa3c 9692 6dbd ea34 1bbd
000001e0: b00c a33d ddb2 f13c f053 3cbd da65 47bd
000001f0: b1bb ce3b e0db 6f3d 5ec3 e7bb e659 963d
00000200: c365 f53c c1c7 38bd 8738 a33d 9ec1 783d
00000210: dcc7 a7bd 74b0 2f3d ba3d 26bd be2e 00bd
00000220: 20c6 3b3d 4d6a 083d 8c47 7e3c 8557 0cbc
00000230: 89b6 443d 2c80 12bc 7786 13bc 9741 9b3d
00000240: 48c0 533d 2ac1 f3bc 5ffd 64bd cbfe 8eba
00000250: 71ee b4bd a8a7 a73d 96f3 153c 1405 773d
00000260: 3d57 a83d e042 33bd 44cd 5a3d 32cb 81bd
00000270: b4fb b53c 60c7 96bc 609b fa3c fc9f 3dbd
00000280: 3bc8 9bbd a5d9 8bbd ac19 9f3d 0783 77bd
00000290: 93d9 c7bc 5075 9cbd b7ae 6ebd a969 623d
000002a0: 0169 b63c 6046 fb3b cc7d aebc 3aef 603d
000002b0: 362f 7f3d fe2e bb3b 93d5 1c3c 1af1 ed3c
000002c0: b4da 8ebd 0046 4d3d fd96 ac3d 6e8c 913d
000002d0: 7dc4 21bd 86ea 783d 4b3a b33d aa5d 8dbb
000002e0: a4d6 b13b e323 8ebd ca6c 1abd 7ea0 003d
000002f0: 374d 923b 2d80 a73d a3ee 243d 3616 35bd
00000300: ff5a 27bd 6ee3 83bc 7ec1 8abd cf70 4bbd
00000310: 370d 213c 6c92 68bd 050a 54bd 935a 8bbd
00000320: 06f9 97bd f521 99bd edef c63d 26c2 a5bb
00000330: aa3e a7bd 96a0 5bbc 995a 143c f3c4 d7bc
00000340: 4d2c 4ebd f826 883d 8e32 a63c 52d5 edbc
00000350: f195 123d 0caf 5fbd e251 a2bc 7dd3 bebd
00000360: 0656 82bd aa26 a03d e77c 5bbd 5e57 a1bd
00000370: d471 92bd 252a ee3a 19c5 f63c 0b8e aebd
00000380: e2a9 4d3d cb41 36bd a73b 3bbd 82cf 1ebd
00000390: f2af c53d b7dc 6abc f97a a93d 68b2 283d
000003a0: a53e d1bc 4cd3 f73c 3bef e13c fbbe 883d
000003b0: dbe4 8ebd f0ac 12bb 9362 b93d 8070 433c
000003c0: cd06 8abb 4d2c 15bc b1f0 7a3c b5da 1dbd
000003d0: 63f3 193c ab55 b2bd 3d43 7c3d e97f dcbc
000003e0: 16e6 113d 9b3b 23bd 76e7 9e3c bdfa bb3d
000003f0: b7ab df3a 2ae0 693b 93bf c4bc acfd b93c

bias f4 [120]
0.077296175 0.03408445 0.027598979 0.007617746 -0.046148766 0.012060911 0.025220245 0.037405293
0.050667033 0.004381763 -0.05803054 0.05044283 -0.043772202 0.0040133907 0.07350475 -0.06253819
0.0928985 -0.07441475 0.03642177 -0.0440305 -0.04096122 0.084153086 0.079788014 0.0057049766
-0.082578905 -0.064726576 0.068936095 0.09628523 -0.02396081 0.0125289615 0.046792876 0.04446801
0.03550315 -0.08214132 -0.030659879 -0.08220819 0.06623466 0.030411538 -0.053770218 -0.07563782
0.031351797 -0.059677143 -0.070149235 0.027713351 -0.006511867 -0.030913321 -0.013502377 0.06431624
-0.033288326 0.031897854 -0.07424489 0.060851157 0.04792977 -0.0033370468 -0.10073995 -0.03706945
-0.00892488 -0.029201055 -0.07767437 -0.09073978 -0.059361365 -0.07660273 -0.02878813 0.06685348
0.01960932 -0.020907449 -0.05395408 0.009082906 -0.058679126 -0.014939789 -0.03414251 0.060085498
-0.036617592 -0.032197304 0.08062567 -0.070520714 0.025959758 -0.08109273 -0.05831183 0.081775606
0.042774066 0.08363939 -0.09989041 0.037284262 0.04233755 -0.048072938 -0.0020174333 -0.023543345
-0.011213004 0.0051837116 -0.0759493 -0.03885678 -0.004133704 0.0064200615 0.07050265 0.04211902
0.020226955 0.013374665 0.029195314 -0.0635607 -0.039837375 -0.002021303 -0.039170623 -0.04023991
-0.025405223 0.061834075 0.04146481 -0.026277836 -0.0007263791 0.07559448 0.07045659 0.060796
0.03540789 0.065485254 -0.08748783 0.03921577 0.023900358 0.027153017 0.08010517 -0.049436547
00000000: 754d 9e3d 239c 0b3d 4117 e23c 499e f93b
00000010: 7d06 3dbd 219b 453c b09a ce3c 4b36 193d
00000020: 3c88 4f3d e494 8f3b 6eb1 6dbd 249d 4e3d
00000030: 7b4a 33bd c382 833b a989 963d 0614 80bd
00000040: 9241 be3d c366 98bd fe2e 153d 5359 34bd
00000050: f4c6 27bd 7458 ac3d e667 a33d d0f0 ba3b
00000060: 211f a9bd 5e8f 84bd 5e2e 8d3d 3131 c53d
00000070: 7649 c4bc 4646 4d3c e3a9 3f3d 1724 363d
00000080: c06b 113d b539 a8bd 6d2a fbbc c45c a8bd
00000090: 0aa6 873d 9e21 f93c 293e 5cbd 00e8 9abd
000000a0: be6a 003d 0570 74bd 67aa 8fbd 1c07 e33c
000000b0: 8061 d5bb ef3d fdbc 1339 5dbc 3cb8 833d
000000c0: 5759 08bd 53a7 023d b40d 98bd 103f 793d
000000d0: 0252 443d 5bb2 5abb bf50 cebd 23d6 17bd
000000e0: a939 12bc 0d37 efbc bd13 9fbd c7d5 b9bd
000000f0: e724 73bd e4e1 9cbd 16d5 ebbc 7aea 883d
00000100: baa3 a03c 1946 abbc f4fe 5cbd 78d0 143c
00000110: 8659 70bd 04c6 74bc 04d9 0bbd 361c 763d
00000120: 54fc 15bd 52e1 03bd 121f a53d 2a6d 90bd
00000130: 8fa9 d43c f213 a6bd 63d8 6ebd f879 a73d
00000140: dc33 2f3d 214b ab3d 5893 ccbd 62b7 183d
00000150: 246a 2d3d 21e8 44bd ea36 04bb f9dd c0bc
00000160: bfb6 37bc 20dc a93b 4e8b 9bbd 4928 1fbd
00000170: 0674 87bb 615f d23b b263 903d fe84 2c3d
00000180: 00b3 a53c 6921 5b3c 032b ef3c 1d2c 82bd
00000190: 842c 23bd d677 04bb 6071 20bd 9bd2 24bd
000001a0: 9d1e d0bc ba45 7d3d 01d7 293d 9e44 d7bc
000001b0: 7a6a 3eba 47d1 9a3d 8b4b 903d 3a05 793d
000001c0: dd07 113d 221d 863d d22c b3bd b7a0 203d
000001d0: afca c33c 0170 de3c 2e0e a43d fa7d 4abd

weight f4 [120, 120]
-0.074963056 0.059800114 -0.0076206 -0.09268106 -0.0036482061 -0.039332192 -0.043051116 0.009750647
-0.04379282 -0.055032756 -0.0056257555 0.015139501 -0.058689244 0.036800593 0.057324667 0.006961996
0.040762756 0.0071946904 -0.0051771286 0.06951371 -0.054895803 -0.03150784 -0.03726237 -0.046578128
-0.073688745 0.021416796 -0.059931234 -0.034958847 0.037436467 0.039072104 0.027273428 0.0039190925
-0.045730576 0.09341177 -0.03288711 -0.022520764 0.03624519 -0.0599436 0.09451533 -0.0009862201
0.04209991 0.054021176 -0.08188876 0.012976133 0.03542462 0.008229164 0.018703612 0.006459926
0.056178577 0.081181824 -0.021723056 0.07487819 -0.026454866 -0.066535085 0.080396846 0.09055783
0.0813149 -0.068808354 0.06706702 0.08216346 0.02471845 -0.027063588 0.07701553 0.071566954
-0.016866801 -0.073530816 -0.07370453 -0.01436494 -0.050743263 -0.0070392373 -0.049104515 -0.043513995
0.015065385 -0.040013727 -0.015271652 0.07933015 -0.04600986 0.043425124 0.082478344 0.016655248
0.06358484 -0.0059160716 0.08325303 -0.08228459 -0.010229469 0.06346756 0.08139922 -0.03360756
0.017810417 -0.024523519 -0.04681523 -0.04980997 -0.0029889012 0.08350567 -0.024532404 0.057145994
-0.034311093 0.08301894 -0.08339902 -0.065995544 -0.02996843 0.011644132 0.043525077 -0.036786854
-0.024349805 0.063492246 -0.07245026 0.08654924 0.031735156 -0.04519237 -0.012235845 -0.06981638
-0.020029176 -0.050956227 0.005505963 0.029903041 0.085744776 -0.065178126 0.04559633 0.017663855
-0.060477044 -0.012892222 -0.018157408 -0.06897969 0.02120006 0.026741875 0.08357383 -0.07520288
0.023478368 -0.087317094 -0.044356808 0.0010059741 0.08891651 -0.0159006 0.04003223 -0.023525149
-0.041190404 -0.045006517 0.029434633 -0.009334344 -0.03182081 -0.017830102 -0.09838177 0.032674488
-0.017713197 -0.041378137 0.06902064 -0.05865014 0.0941496 0.08068371 0.004739501 -0.008969723
0.07541538 0.07008323 -0.034104697 -0.044862624 0.062452093 0.05479868 -0.0023957482 0.054740652
0.026960006 -0.061524037 -0.048144307 -0.061452016 0.007292199 -0.07683761 -0.078888066 -0.027141491
0.08515119 0.0084502185 -0.016986178 -0.009149221 -0.009200787 -0.064174235 0.08506629 -0.0060500046
0.08430226 -0.078320816 0.031728093 -0.09465619 0.017745726 -0.02888193 -0.0011597179 0.053846687
-0.01541797 0.01521488 0.08007177 -0.024079343 -0.035732057 0.05657783 -0.032978013 -0.011419923
0.050800044 -0.005468273 0.03755538 0.047971886 -0.035660118 -0.0111215385 0.0001244244 0.076890215
0.03558476 0.0026179708 0.048406642 -0.06987292 0.08184102 -0.06535011 -0.08813388 0.0581571
0.051594973 -0.012119238 0.07122218 -0.011315385 0.044071753 -0.042467076 0.017410597 -0.013136463
-0.029159488 0.06616206 -0.07962984 -0.053772777 -0.053850733 -0.0015873326 -0.040044114 -0.08136886
-0.010086004 0.043841746 -0.06362308 -0.014807152 -0.04015474 -0.092122525 0.031840857 -0.05993237
0.027183617 -0.021049885 0.035837118 -0.042281356 0.067275934 -0.0071034273 -0.07168822 0.04447106
0.08906943 0.099246204 0.02268015 -0.034722377 0.00043228734 -0.044258974 -0.009761787 -0.087955095
0.017551696 -0.064562425 -0.0044167265 0.06613274 0.0111124655 0.039702863 -0.0522735 -0.006560171
00000000: 3b86 99bd f7f0 743d 3ab6 f9bb 91cf bdbd
00000010: be16 6fbb cb1a 21bd 5e56 30bd 2dc1 1f3c
00000020: 1a60 33bd 076a 61bd 4258 b8bb ab0b 783c
00000030: 2264 70bd 38bc 163d 45cd 6a3d 7521 e43b
00000040: d9f6 263d 70c1 eb3b e7a4 a9bb 345d 8e3d
00000050: 6cda 60bd 5d0e 01bd 6da0 18bd b5c8 3ebd
00000060: 20ea 96bd 4772 af3c 747a 75bd 0231 0fbd
00000070: fb56 193d 120a 203d 866c df3c bb6b 803b
00000080: fc4f 3bbd ac4e bf3d a2b4 06bd 777d b8bc
00000090: d675 143d 6c87 75bd 4191 c13d 0e44 81ba
000000a0: f570 2c3d 4f45 5d3d 4bb5 a7bd d999 543c
000000b0: 6819 113d 9ed3 063c 5138 993c c9ad d33b
000000c0: 821b 663d a842 a63d 8df4 b1bc bd59 993d
000000d0: e0b7 d8bc 8c43 88bd 1aa7 a43d 6276 b93d
000000e0: 6d88 a63d 65eb 8cbd 6f5a 893d 5145 a83d
000000f0: 597e ca3c 75b4 ddbc 51ba 9d3d b291 923d
00000100: 3f2c 8abc 5397 96bd 67f2 96bd ed5a 6bbc
00000110: 2bd8 4fbd 67a9 e6bb d121 49bd bb3b 32bd
00000120: ced4 763c 6fe5 23bd f335 7abc d877 a23d
00000130: d674 3cbd 8bde 313d 68ea a83d 9670 883c
00000140: c538 823d 9bdb c1bb 9180 aa3d d384 a8bd
00000150: 8199 27bc 48fb 813d a2b4 a63d 15a8 09bd
00000160: 27e7 913c 8ce5 c8bc 54c1 3fbd 8a05 4cbd
00000170: 71e1 43bb 0505 ab3d 2ef8 c8bc eb11 6a3d
00000180: ca89 0cbd d605 aa3d 1bcd aabd ac28 87bd
00000190: 5a80 f5bc 08c7 3e3c 5a47 323d d0ad 16bd
000001a0: 3e79 c7bc 3908 823d cd60 94bd ba40 b13d
000001b0: b9fc 013d a21b 39bd db78 48bc e4fb 8ebd
000001c0: 3a14 a4bc 7ab7 50bd 5e6b b43b 39f7 f43c
000001d0: f59a af3d 1c7c 85bd 38c3 3a3d cab3 903c
000001e0: c7b6 77bd e639 53bc d8be 94bc 3945 8dbd
000001f0: c0ab ad3c c711 db3c c228 ab3d f803 9abd
00000200: b555 c03c 4ed3 b2bd 7caf 35bd e4da 833a
00000210: dc19 b63d fa41 82bc d6f8 233d d0b7 c0bc
00000220: 45b7 28bd c158 38bd e620 f13c 14ef 18bc
00000230: 8a56 02bd 6f10 92bc 627c c9bd afd5 053d
00000240: 441b 91bc 1f7c 29bd b15a 8d3d 213b 70bd
00000250: 81d1 c03d 803d a53d d14d 9b3b bff5 12bc
00000260: 6173 9a3d cc87 8f3d 5eb1 0bbd dfc1 37bd
00000270: c4cd 7f3d 9574 603d fc01 1dbb bc37 603d
00000280: 3bdb dc3c a100 7cbd f732 45bd 1cb5 7bbd
00000290: 66f3 ee3b 095d 9dbd 1190 a1bd d557 debc
000002a0: bf63 ae3d c972 0a3c 9926 8bbc 9de6 15bc
000002b0: e6be 16bc c86d 83bd 3c37 ae3d 1e3f c6bb
000002c0: aaa6 ac3d aa66 a0bd 51f5 013d 1bdb c1bd
000002d0: 7c5f 913c cc99 ecbc ad01 98ba 588e 5c3d
000002e0: a79b 7cbc d547 793c abfc a33d 0b42 c5bc
000002f0: c75b 12bd 28be 673d f413 07bd a11a 3bbc
00000300: b513 503d 332f b3bb acd3 193d 2b7e 443d
00000310: 5810 12bd 1d37 36bc ec77 0239 9e78 9d3d
00000320: 53c1 113d 4392 2b3b 0b46 463d 8919 8fbd
00000330: 449c a73d 47d6 85bd 897f b4bd 2436 6e3d
00000340: 4055 533d c58f 46bc efdc 913d 2a64 39bc
00000350: 9584 343d f5f1 2dbd aba0 8e3c 523a 57bc
00000360: e1df eebc f97f 873d f814 a3bd d840 5cbd
00000370: 9692 5cbd 0b0e d0ba 4c05 24bd b8a4 a6bd
00000380: c43f 25bc 6793 333d d14c 82bd b299 72bc
00000390: 4c79 24bd bcaa bcbd 8f6b 023d a57b 75bd
000003a0: 2db0 de3c cf70 acbc f1c9 123d 372f 2dbd
000003b0: f7c7 893d dec3 e8bb 46d1 92bd 4927 363d
000003c0: 096a b63d 9841 cb3d b9cb b93c 0d39 0ebd
000003d0: a0a4 e239 e648 35bd e7ef 1fbc cd21 b4bd
000003e0: 93c8 8f3c 4e39 84bd 30ba 90bb 9a70 873d
000003f0: 0f11 363c 789f 223d bd1c 56bd b4f6 d6bb

bias f4 [120]
0.07711807 -0.081219465 0.09158382 0.0059607807 0.045625035 -0.025031362 -0.008862068 0.05814374
0.06252915 -0.09487561 -0.031083426 0.005716554 0.08111872 0.011739055 -0.05081927 -0.07654216
-0.013610595 -0.008768071 -0.03840236 -0.059291236 0.023878029 -0.041332886 -0.051529173 0.021867447
0.008344735 0.07887816 0.026662674 0.002519328 -0.0788313 0.069373295 -0.06826276 0.08142128
-0.0442758 -0.04097031 0.08754363 0.046331454 0.0132460585 -0.03791852 -0.017048452 -0.061242756
0.03640427 -0.06486997 -0.064393565 -0.010573629 -0.09624233 -0.037521906 -0.041876912 -0.042499263
-0.070510305 -0.09038988 0.012638082 -0.036300167 0.037873566 -0.08066835 0.012809175 0.017395204
-0.09975584 -0.024720443 0.035469186 -0.070670955 -0.080101855 -0.053967215 0.06873662 -0.036923036
-0.04342974 -0.068281114 -0.022919873 -0.083589606 -0.01322686 0.032427836 0.08527238 -0.087114
0.051474623 -0.001603076 -0.081578925 0.028998837 -0.040564433 0.018025413 -0.038086805 0.060820315
-0.049403824 -0.070292115 0.07578698 -0.032231677 -0.07243992 0.018205073 -0.0946382 0.07891144
-0.071727194 0.063581586 -0.07756062 0.09395971 -0.051923223 -0.02647344 -0.07472857 0.079831935
-0.029235523 -0.018099833 -0.07702233 0.07342252 0.0024938472 -0.046279993 -0.012332712 0.09970662
0.016257416 0.09590927 0.0062147537 -0.05797146 -0.019576633 -0.061275735 0.08842448 -0.075376555
0.044562872 -0.029141497 -0.04563858 0.02059332 -0.025320098 0.09118598 -0.087738015 -0.049257897
00000000: 14f0 9d3d 6456 a6bd 4c90 bb3d a752 c33b
00000010: 51e1 3a3d 920e cdbc 3532 11bc 2128 6e3d
00000020: 480f 803d 254e c2bd aba2 febc ee51 bb3b
00000030: 9221 a63d 2a55 403c de27 50bd 23c2 9cbd
00000040: f9fe 5ebc f5a7 0fbc cb4b 1dbd 5edb 72bd
00000050: db9b c33c ac4c 29bd 4110 53bd 5c23 b33c
00000060: 5bb8 083c df8a a13d ae6b da3c 4f1b 253b
00000070: 4e72 a1bd 9613 8e3d 59cd 8bbd 33c0 a63d
00000080: 8b5a 35bd 7cd0 27bd 134a b33d 0dc6 3d3d
00000090: ff05 593c 7350 1bbd 32a9 8bbc afd9 7abd
000000a0: a51c 153d 8cda 84bd c6e0 83bd 043d 2dbc
000000b0: b31a c5bd 92b0 19bd 2087 2bbd b513 2ebd
000000c0: b567 90bd 541e b9bd f50f 4f3c 7caf 14bd
000000d0: 5021 1b3d 7335 a5bd 93dd 513c 6380 8e3c
000000e0: ca4c ccbd 8782 cabc 2348 113d efbb 90bd
000000f0: 710c a4bd ba0c 5dbd c9c5 8c3d 9c3c 17bd
00000100: 62e3 31bd f8d6 8bbd 75c2 bbbc 0731 abbd
00000110: 79b5 58bc 0dd3 043d 49a3 ae3d d368 b2bd
00000120: 0ed7 523d 4e1e d2ba da12 a7bd f88e ed3c
00000130: e426 26bd 08aa 933c e900 1cbd b91e 793d
00000140: aa5b 4abd 50f5 8fbd 3436 9b3d 5d05 04bd
00000150: 615b 94bd ce22 953c acd1 c1bd 529c a13d
00000160: b5e5 92bd 1037 823d 1ad8 9ebd f36d c03d
00000170: 72ad 54bd d4de d8bc 4b0b 99bd ed7e a33d
00000180: 567f efbc 1a46 94bc e2bd 9dbd 8c5e 963d
00000190: d06f 233b 1790 3dbd 250f 4abc fc32 cc3d
000001a0: 462e 853c 146c c43d 22a5 cb3b 7b73 6dbd
000001b0: 2d5f a0bc 44fc 7abd e517 b53d 065f 9abd
000001c0: 8f87 363d 26ba eebc 85ef 3abd 52b3 a83c
000001d0: 186c cfbc b7bf ba3d fdaf b3bd a6c2 49bd

weight f4 [120, 120]
0.010573263 -0.053504393 -0.07521859 0.030674648 -0.027636679 -0.07191144 0.025106892 -0.013444996
0.07454109 0.052866094 -0.024583738 0.0801762 -0.011875831 0.030180475 -0.017295508 0.013213682
-0.033304073 0.0346832 0.039038017 -0.022855353 -0.045433056 0.011463745 -0.044244036 -0.096416116
0.041843053 -0.07145462 -0.07378858 -0.076160654 0.038278714 0.07364264 -0.02109257 0.0018145681
0.07424978 -0.0617743 0.043428052 0.033878062 0.025548564 0.0024450037 0.034204207 0.08085304
-0.03801407 -0.06187492 -0.072156034 0.0008535455 -0.079795204 -0.062469874 -0.0034607265 -0.06266204
-0.014738717 -0.084931895 0.092422314 0.09315853 0.00821979 -0.06540579 -0.096173875 0.075224064
0.069675766 -0.009397536 -0.022537628 -0.0056983666 -0.0061986702 -0.030707624 0.041773703 -0.034378238
0.044686414 -0.041324534 0.07628877 0.08151429 -0.049424943 0.06993467 -0.030801238 0.066225424
0.07273766 -0.041813366 -0.07380927 -0.08186999 -0.088810705 0.04448806 -0.0070252167 -0.071902506
-0.029391216 -0.024569875 -0.070621364 -0.05390487 0.098249175 0.018533964 -0.057123665 -0.05307347
-0.046284877 -0.05043185 -0.016907131 -0.004519707 0.01853154 -0.016683556 0.047688674 0.0048255515
-0.026845215 -0.02124014 0.04149284 -0.016630242 0.0008160143 0.09381738 0.022902865 0.09775241
0.061061267 -0.026372751 -0.029063407 -0.09087282 -0.012511199 0.068020605 -0.024206106 -0.032031614
0.021823632 0.024927285 0.02117689 0.03864751 -0.01403097 0.04170464 0.0133388555 -0.0034534014
-0.049616914 0.059772883 0.06162402 0.03483602 -0.06359937 0.08054807 0.0480307 -0.08020989
-0.081248626 0.013639836 -0.064229146 0.02541827 0.04072822 -0.009804794 0.09036208 0.05173887
0.078415126 -0.06524162 0.007838415 0.04135319 0.021928865 -0.022226322 -0.059774794 0.07290315
0.06511358 0.030241884 -0.08330468 0.06618312 0.019526508 -0.06157606 -0.009610512 -0.09621911
-0.057933412 0.034883037 -0.051726706 -0.005303418 -0.07706731 0.07232043 0.004173863 -0.082350515
0.089063734 0.06947373 -0.067803614 -0.016662918 -0.02660297 -0.022727119 -0.03961819 0.07922765
0.027845874 0.09266325 -0.004432868 0.040433455 0.032960247 0.07361985 0.04915017 -0.0055396096
0.072309405 0.051434387 0.07173898 0.023811936 0.091866195 0.024754988 -0.053811982 -0.07949188
0.0013212321 -0.080093205 0.06735127 -0.033202097 0.04723772 0.057449486 -0.06242574 -0.077939786
-0.09246886 0.017584417 -0.08959559 0.016395627 -0.039269492 0.061393093 0.06320283 0.0097793965
-0.05835543 0.024682887 -0.051396742 0.0035464086 -0.04276781 -0.056191217 -0.005874224 0.02813397
0.09257512 0.057392124 0.052642602 0.035953242 0.071365245 0.041375127 0.0480557 0.059067186
0.04829187 0.033301458 -0.08680348 0.048017528 0.0033636997 0.07483892 0.018283281 0.054675914
-0.04560138 -0.021402974 -0.025985248 0.05507674 0.008362087 0.09242777 0.0031498699 -0.059615042
-0.051886808 -0.07813825 0.069736384 0.06803613 -0.0759433 -0.0741735 0.064948216 0.040624518
-0.08373185 0.032561082 0.049838617 -0.082184486 -0.076294035 -0.06444997 -0.048438717 0.032441095
0.082753666 -0.051246706 0.0153132705 -0.019991312 -0.063480236 -0.040287558 -0.056281418 0.036943518
00000000: 7b3b 2d3c 6c27 5bbd 340c 9abd 6649 fb3c
00000010: 5166 e2bc 4e46 93bd f8ac cd3c 6748 5cbc
00000020: 00a9 983d 1e8a 583d d663 c9bc 6b33 a43d
00000030: d892 42bc 0b3d f73c 4faf 8dbc 337e 583c
00000040: da69 08bd f90f 0e3d 54e6 1f3d 263b bbbc
00000050: 0318 3abd 6ed2 3b3c 3c39 35bd d075 c5bd
00000060: 9f63 2b3d cd56 92bd 781e 97bd 1efa 9bbd
00000070: 24ca 1c3d f4d1 963d 53ca acbc cdd6 ed3a
00000080: 4510 983d 0c07 7dbd 9de1 313d b9c3 0a3d
00000090: 394b d13c 5b3c 203b b619 0c3d 4796 a53d
000000a0: a4b4 1bbd 8e70 7dbd 8bc6 93bd 78c0 5f3a
000000b0: ab6b a3bd 69e0 7fbd 5bcd 62bb f554 80bd
000000c0: a97a 71bc c6f0 adbd e947 bd3d e6c9 be3d
000000d0: 4cac 063c 79f3 85bd cff6 c4bd 130f 9a3d
000000e0: 2bb2 8e3d 1ff8 19bc d5a0 b8bc 5db9 babb
000000f0: 371e cbbb 8e8e fbbc e71a 2b3d 32d0 0cbd
00000100: 1a09 373d ea43 29bd 493d 9c3d f7f0 a63d
00000110: cf71 4abd e939 8f3d e152 fcbc 32a1 873d
00000120: 7bf7 943d 7e44 2bbd 5129 97bd 74ab a7bd
00000130: 63e2 b5bd 1d39 363d ca33 e6bb 9f41 93bd
00000140: d9c5 f0bc c346 c9bc efa1 90bd 5acb 5cbd
00000150: dd36 c93d 8ad4 973c 81fa 69bd 9163 59bd
00000160: 3695 3dbd a191 4ebd d380 8abc 0d1a 94bb
00000170: 75cf 973c f4ab 88bc 3355 433d a91f 9e3b
00000180: 7fea dbbc cdff adbc 65f4 293d 253c 88bc
00000190: cbe9 553a 5423 c03d ca9e bb3c 6a32 c83d
000001a0: 611b 7a3d ab0b d8bc 6216 eebc 871b babd
000001b0: c6fb 4cbc 634e 8b3d e24b c6bc 9533 03bd
000001c0: 79c7 b23c 4e34 cc3c 287b ad3c da4c 1e3d
000001d0: 27e2 65bc 7cd2 2a3d 378b 5a3c 7652 62bb
000001e0: 1b3b 4bbd 69d4 743d 7869 7c3d 37b0 0e3d
000001f0: 6340 82bd 63f6 a43d d7bb 443d 1545 a4bd
00000200: ae65 a6bd 9e79 5f3c 928a 83bd fa39 d03c
00000210: a2d2 263d 49a4 20bc c10f b93d 23ec 533d
00000220: 1c98 a03d 669d 85bd b26c 003c f661 293d
00000230: 2aa4 b33c fa13 b6bc 6ad6 74bd 3f4e 953d
00000240: 455a 853d d4bd f73c a59b aabd 048b 873d
00000250: 0ef6 9f3c 2e37 7cbd 6975 1dbc 860e c5bd
00000260: 964b 6dbd 84e1 0e3d 62df 53bd 4bc8 adbb
00000270: 77d5 9dbd bc1c 943d e7c4 883b 63a7 a8bd
00000280: 0c67 b63d 3e48 8e3d 9fdc 8abd ac80 88bc
00000290: 79ee d9bc 392e babc af46 22bd 1b42 a23d
000002a0: 081d e43c 3bc6 bd3d 9841 91bb 8d9d 253d
000002b0: 5301 073d 01c6 963d b051 493d 9d85 b5bb
000002c0: f416 943d ddac 523d e3eb 923d 4011 c33c
000002d0: 5824 bc3d f9ca ca3c f469 5cbd a4cc a2bd
000002e0: 312d ad3a e807 a4bd 76ef 893d ecfe 07bd
000002f0: 577c 413d 2750 6b3d 22b2 7fbd e59e 9fbd
00000300: 5060 bdbd 320d 903c e57d b7bd 1f50 863c
00000310: 0cd9 20bd 5377 7b3d 7c70 813d c339 203c
00000320: 1a06 6fbd c433 ca3c 6485 52bd dd6a 683b
00000330: 4d2d 2fbd c328 66bd 907c c0bb 3679 e63c
00000340: 0698 bd3d 0114 6b3d c59f 573d b543 133d
00000350: f127 923d f778 293d 0ed6 443d 6ff0 713d
00000360: b2cd 453d 1c67 083d 06c6 b1bd 07ae 443d
00000370: 8471 5c3b 2645 993d d2c6 953c daf3 5f3d
00000380: 83c8 3abd 4a55 afbc 04df d4bc 2698 613d
00000390: 2301 093c c54a bd3d 0c6e 4e3b e72e 74bd
000003a0: 4387 54bd f206 a0bd f3d1 8e3d 8756 8b3d
000003b0: 2988 9bbd 47e8 97bd 9203 853d e565 263d
000003c0: 9b7b abbd c55e 053d 9423 4c3d 5750 a8bd
000003d0: 0c40 9cbd 59fe 83bd ad67 46bd f4e0 043d
000003e0: c17a a93d 11e8 51bd 83e4 7a3c d2c4 a3bc
000003f0: ed01 82bd 9104 25bd 5887 66bd 1652 173d

bias f4 [120]
0.024677536 -0.05857911 0.008688589 0.030632606 -0.05777156 0.010286755 -0.030497806 -0.08330184
0.043733243 -0.03066495 -0.026628677 -0.044664122 -0.01748311 0.040884074 -0.072098725 0.048201345
-0.021682972 0.02573549 0.07448383 -0.0961204 -0.048963305 -0.0772762 -0.05878827 0.056356702
-0.022609066 -0.026007473 -0.005769444 0.09763624 0.050780863 0.024162337 0.053099718 -0.073464565
-0.024758046 0.081586085 0.027781703 -0.029412467 -0.051043678 0.08458997 -0.08891707 -0.032280423
0.019365061 0.08888175 -0.036205184 -0.08086745 -0.081067316 -0.023960074 0.026253706 0.026910521
-0.05629551 0.04104312 0.010326098 -0.04962996 -0.028636476 -0.050725177 0.045046717 -0.0884054
0.0048899497 -0.099972695 0.04699094 0.044849202 0.07487033 0.028128078 0.04024969 -0.04342252
0.052285336 0.028613362 0.030696586 -0.07721527 0.08264763 -0.063755505 -0.055765115 -0.059382025
-0.019959409 -0.0036222953 0.081179954 -0.024888847 -0.07270306 -0.0064144786 -0.07548139 -0.00021982011
0.08950904 -0.029505532 0.028407037 -0.05723635 0.045528974 -0.017674904 0.052543607 0.07052711
0.02428946 0.055904467 0.071009085 0.031777296 0.08634009 0.03364794 0.038292922 -0.027955765
-0.038017858 0.02130737 0.025565473 -0.027155306 -0.026782718 0.098930314 -0.08030716 0.039828032
0.050166797 -0.019788977 -0.060293756 -0.0038068453 -0.012532565 -0.021094395 -0.007991281 0.068565
0.058155823 -0.094361916 0.00851399 0.05200092 -0.07995495 -0.08833118 -0.07944006 0.09199636
00000000: 8b28 ca3c a6f0 6fbd 955a 0e3c 3bf1 fa3c
00000010: dfa1 6cbd c789 283c 89d6 f9bc 289a aabd
00000020: a121 333d 1035 fbbc 6224 dabc baf1 36bd
00000030: bd38 8fbc 0f76 273d 7fa8 93bd c66e 453d
00000040: 7da0 b1bc 3cd3 d23c fa8a 983d c6da c4bd
00000050: bf8d 48bd fc42 9ebd f8cb 70bd 49d6 663d
00000060: a636 b9bc a00d d5bc 9b0d bdbb 82f5 c73d
00000070: 98ff 4f3d 18f0 c53c 177f 593d 9774 96bd
00000080: 63d1 cabc 9b16 a73d 7496 e33c 6af2 f0bc
00000090: 2d13 51bd 823d ad3d 271a b6bd 7a38 04bd
000000a0: 7aa3 9e3c a307 b63d e34b 14bd d59d a5bd
000000b0: 9f06 a6bd eb47 c4bc 0312 d73c 7473 dc3c
000000c0: 1f96 66bd d51c 283d cb2e 293c c948 4bbd
000000d0: 0b97 eabc 34c5 4fbd e882 383d e40d b5bd
000000e0: df3b a03b 7cbe ccbd 9279 403d ccb3 373d
000000f0: 9e55 993d db6c e63c dcdc 243d d0db 31bd
00000100: 2629 563d 9266 ea3c 6877 fb3c 0a23 9ebd
00000110: 2943 a93d 3f92 82bd f669 64bd 913a 73bd
00000120: ea81 a3bc 0864 6dbb ad41 a63d b2e3 cbbc
00000130: 58e5 94bd 8c30 d2bb fd95 9abd 837f 66b9
00000140: 8450 b73d 96b5 f1bc e0b5 e83c aa70 6abd
00000150: 977c 3a3d f6ca 90bc f737 573d 8470 903d
00000160: b1fa c63c 15fc 643d 366d 913d e928 023d
00000170: 13d3 b03d 6cd2 093d 0ad9 1c3d 7d03 e5bc
00000180: 9db8 1bbd cb8c ae3c af6e d13c ce74 debc
00000190: 6e67 dbbc fa9b ca3d 1578 a4bd b822 233d
000001a0: b37b 4d3d 7e1c a2bc 96f6 76bd 447c 79bb
000001b0: 6355 4dbc 27ce acbc dded 02bc cf6b 8c3d
000001c0: cd34 6e3d d240 c1bd 437e 0b3c ebfe 543d
000001d0: 6cbf a3bd fae6 b4bd 78b1 a2bd 9668 bc3d

weight f4 [120, 120]
-0.014510063 -0.068013616 0.018746125 -0.050103795 -0.045839347 0.08311328 -0.08877706 0.075201504
-0.023576697 0.01638093 0.068542905 0.0790541 0.013760867 -0.09457738 0.0053998153 0.07701408
-0.034520347 -0.04866892 -0.0692689 -0.04427147 0.024307953 -0.095993206 0.05962873 -0.0008840826
-0.08089058 0.056079354 -0.027459655 0.058383584 0.050058108 0.09142719 -0.031668045 0.025455877
0.007142407 -0.019210095 -0.042556237 0.035423473 0.057853453 0.06881781 0.016326973 -0.062048223
0.016784571 -0.06438862 -0.036051303 -0.07239308 -0.07572704 -0.008903245 -0.06583437 0.057846088
-0.09046181 0.039303243 0.009424172 0.06376764 -0.051478263 -0.043111235 0.02731193 0.029339347
0.072014704 -0.05848529 0.072691366 -0.051565792 0.04617753 -0.0692039 -0.04184345 -0.031119276
0.053469438 -0.02516595 0.016193544 -0.094655514 -0.074201226 -0.057980254 0.04500929 -0.016421648
0.027878927 -0.0027578564 0.07992915 0.05674724 0.025423866 -0.089926474 -0.022762425 0.011713894
-0.02357839 0.04463061 0.060130812 -0.041364543 -0.071646236 0.032197684 0.06416487 0.018926552
0.042950254 0.01513787 0.054128572 -0.083417304 -0.06442074 -0.0146470675 0.06249178 -0.02930532
-0.064090855 -0.024298564 0.0027119839 0.07487936 -0.0014961256 0.085240245 0.03653441 0.020252105
0.02453035 0.074098326 -0.009076347 -0.042408362 -0.093514934 -0.02859878 0.069143936 0.057625547
0.039292913 -0.06435687 -0.044591557 0.030522287 0.061440997 -0.0106047345 0.013460167 0.014695451
-0.05894706 -0.058119446 -0.028581813 -0.037736487 0.0709209 -0.0087362435 -0.019813746 -0.0450894
-0.0020135555 -0.015774272 -0.02252597 -0.055767268 -0.05171447 -0.04385468 0.072923906 0.026872298
0.024482932 -0.059851144 -0.06416226 -0.08301595 -0.09718926 0.0015597318 0.008972498 0.051230717
-0.08500965 -0.075786166 -0.0806133 0.030216422 -0.020404669 0.09576872 0.060003273 0.06123291
0.050116926 -0.04102258 -0.041472513 0.056917116 -0.057511628 0.04243906 0.052844413 -0.07514258
0.0073970137 0.08485809 0.037694152 0.02953726 -0.07382309 -0.07157077 -0.033126798 -0.053906888
0.07580807 -0.03531581 -0.06494488 -0.048493773 0.026353179 0.009905869 -0.020569768 0.0095630605
0.043196477 -0.091047734 -0.06598566 0.019287447 0.030737402 0.06288588 0.06048161 0.04324188
0.06105412 0.09694447 0.09454704 -0.09347027 0.0552656 0.027188564 -0.07330957 -0.00776258
0.049772434 -0.031371012 0.04445749 0.077873945 -0.00038470482 -0.08872488 -0.021683337 0.06570465
-0.072461955 -0.00643974 0.06590763 -0.024952948 0.028102495 0.06443314 -0.019776473 0.0175629
0.081701845 0.07616486 0.017488182 0.047084406 0.07419165 -0.013223782 -0.0028059536 0.033952434
-0.056317247 0.022225797 -0.067899965 0.046602745 -0.04610475 0.09756122 -0.05386861 -0.031617112
-0.059781637 -0.08883261 0.0227341 0.05440503 0.041136652 -0.0141306305 -0.053700667 -0.06280756
-0.026993638 -0.033031475 0.030357482 0.04876434 -0.060709786 -0.038878728 -0.073863424 0.091273665
0.09130329 -0.07538192 -0.05725849 0.025169063 -0.04719241 0.004804961 -0.09202975 0.023082746
-0.08338496 0.018798776 0.030571982 -0.05391886 0.0013372808 0.050787512 -0.002630225 0.08741828
00000000: 9ebb 6dbc b94a 8bbd 7991 993c a339 4dbd
00000010: 0ac2 3bbd 4c37 aa3d bfd0 b5bd 3f03 9a3d
00000020: eb23 c1bc 4d31 863c 3960 8c3d 1ee7 a13d
00000030: 4275 613c c9b1 c1bd eff0 b03b 8fb9 9d3d
00000040: 3565 0dbd 1059 47bd dadc 8dbd 0056 35bd
00000050: 7921 c73c 1698 c4bd 413d 743d c7c1 67ba
00000060: f6a9 a5bd 77b3 653d 12f3 e0bc a023 6f3d
00000070: bb09 4d3d 2e3e bb3d 5ab6 01bd d888 d03c
00000080: da0a ea3b 7d5e 9dbc 734f 2ebd 3418 113d
00000090: bef7 6c3d 5af0 8c3d 25c0 853c 4726 7ebd
000000a0: cc7f 893c 2ede 83bd 88aa 13bd d342 94bd
000000b0: c716 9bbd ebde 11bc 2cd4 86bd 05f0 6c3d
000000c0: 0b44 b9bd 70fc 203d d867 1a3c 9c98 823d
000000d0: dfda 52bd 6895 30bd 45bd df3c 1259 f03c
000000e0: 727c 933d 458e 6fbd 36df 943d a736 53bd
000000f0: a624 3d3d c6ba 8dbd 0a64 2bbd daed febc
00000100: c502 5b3d d328 cebc 53a8 843c c0da c1bd
00000110: d0f6 97bd b47c 6dbd a95b 383d b186 86bc
00000120: 5962 e43c 27bd 34bb e5b1 a33d cb6f 683d
00000130: b645 d03c 5f2b b8bd 4478 babc a2eb 3f3c
00000140: 7827 c1bc 96ce 363d ba4b 763d de6d 29bd
00000150: 43bb 92bd b8e1 033d df68 833d db0b 9b3c
00000160: 9bec 2f3d d404 783c ecb5 5d3d b1d6 aabd
00000170: 05ef 83bd 41fa 6fbc 61f7 7f3d b611 f0bc
00000180: 1142 83bd c80d c7bc 8abb 313b 5a5a 993d
00000190: a519 c4ba 7092 ae3d 1ba5 153d bee7 a53c
000001a0: dff3 c83c ddc0 973d f5b4 14bc 64b4 2dbd
000001b0: c284 bfbd fd47 eabc 569b 8d3d c408 6c3d
000001c0: 9bf1 203d 89cd 83bd a3a5 36bd e009 fa3c
000001d0: 8ea9 7b3d 7bbf 2dbc 0888 5c3c 30c5 703c
000001e0: 7972 71bd a80e 6ebd 6824 eabc 9391 1abd
000001f0: fa3e 913d 7622 0fbc 7050 a2bc aaaf 38bd
00000200: dbf5 03bb 0c39 81bc 6288 b8bc 386c 64bd
00000210: 8dd2 53bd f7a0 33bd 2159 953d 4b23 dc3c
00000220: 6e90 c83c 7926 75bd 8167 83bd 4404 aabd
00000230: 2a0b c7bd ea6f cc3a 6201 133c 4dd7 513d
00000240: 8a19 aebd c735 9bbd 9618 a5bd 6e88 f73c
00000250: b127 a7bc 6422 c43d fec5 753d 5ccf 7a3d
00000260: 6847 4d3d 4b07 28bd 15df 29bd ec21 693d
00000270: 5091 6bbd 94d4 2d3d 6273 583d 5ae4 99bd
00000280: a662 f23b 14ca ad3d 2f65 1a3d 20f8 f13c
00000290: 8f30 97bd b293 92bd f7af 07bd 78cd 5cbd
000002a0: 4341 9b3d 50a7 10bd d201 85bd 68a1 46bd
000002b0: 9fe2 d73c 3a4c 223c ee81 a8bc 62ae 1c3c
000002c0: caee 303d 3c77 babd 7d23 87bd b500 9e3c
000002d0: 01cd fb3c 50ca 803d 91bb 773d 661e 313d
000002e0: e313 7a3d d38a c63d e1a1 c13d 576d bfbd
000002f0: 2f5e 623d 8dba de3c 5423 96bd 3e5d febb
00000300: 2ede 4b3d e47e 00bd 0f19 363d 607c 9f3d
00000310: 35b2 c9b9 64b5 b5bd 41a1 b1bc 2990 863d
00000320: ef66 94bd 7404 d3bb 94fa 863d 206a ccbc
00000330: 3437 e63c 86f5 833d 4502 a2bc 12e0 8f3c
00000340: 4c53 a73d 52fc 9b3d 6043 8f3c 94db 403d
00000350: cbf1 973d 90a8 58bc 17e4 37bb b511 0b3d
00000360: eaac 66bd e012 b63c 230f 8bbd 85e2 3e3d
00000370: 56d8 3cbd 2dce c73d 55a5 5cbd f280 01bd
00000380: 97dd 74bd dfed b5bd dd3c ba3c cfd7 5e3d
00000390: e87e 283d 2984 67bc 3bf5 5bbd 40a1 80bd
000003a0: c321 ddbc 034c 07bd 41b0 f83c 1ebd 473d
000003b0: d3aa 78bd 4d3f 1fbd b545 97bd b0ed ba3d
000003c0: 38fd ba3d d661 9abd e187 6abd 5a2f ce3c
000003d0: d44c 41bd ef72 9d3b 187a bcbd 0718 bd3c
000003e0: bcc5 aabd e4ff 993c 1872 fa3c 06da 5cbd
000003f0: b347 af3a 9106 503d da5f 2cbb 5b08 b33d

bias f4 [120]
-0.06550798 0.08593249 -0.06468603 -0.07704098 0.025711564 0.046415444 0.0522024 -0.084167466
0.024569223 -0.04823295 0.029143361 0.058518216 -0.044009533 -0.023866346 0.040247466 0.0343659
0.073673 0.047709912 0.04798842 0.033428572 -0.049162537 0.06159458 -0.030381383 -0.065900266
-0.027790314 -0.04051001 -0.015287065 -0.055080626 -0.087524615 -0.04392471 0.02861919 0.02413193
0.075334884 -0.046304345 -0.00066019094 0.08655458 -0.062363647 0.075559475 0.06500229 0.030084502
-0.07540017 -0.035524167 -0.017121684 0.04463096 0.095868684 0.06451279 -0.0685578 -0.07049849
-0.092060275 -0.084379405 -0.0031903603 -0.0054987255 -0.08144173 -0.01735447 0.07097426 -0.008793971
-0.05696966 -0.061424624 -0.011370443 0.046992276 0.00060855265 0.096444085 0.025501173 -0.07156747
-0.07248697 0.052967556 -0.072209574 0.09853285 -0.06750204 -0.04304503 -0.017061675 0.02220169
-0.027618395 0.066268735 -0.06397212 0.06518997 -0.039560806 0.043665275 0.036299836 0.011118052
-0.027730625 -0.06606514 -0.0922182 0.08245474 0.0066730287 0.033776537 0.012398047 0.10005966
-0.039579667 0.087712444 -0.04854477 0.006718241 -0.048944253 -0.06729286 0.0432281 0.07417229
-0.027204301 -0.037723616 0.078245275 -0.011620937 -0.05165712 0.05241243 -0.015506072 -0.025253497
0.08147651 0.030585226 -0.06047924 0.010295971 0.04093349 0.09060445 0.08978656 0.036526952
0.0057195723 0.08344162 -0.07414453 0.04597409 0.0723231 -0.0985703 -0.077106744 -0.095104486
00000000: 0c29 86bd 60fd af3d 1c7a 84bd a9c7 9dbd
00000010: 0fa1 d23c 1f1e 3e3d 2fd2 553d fe5f acbd
00000020: 6545 c93c ea8f 45bd 0fbe ee3c ccb0 6f3d
00000030: 5743 34bd 5b83 c3bc 87da 243d 42c3 0c3d
00000040: dfe1 963d 786b 433d 818f 443d 66ec 083d
00000050: a85e 49bd 994a 7c3d 61e2 f8bc b8f6 86bd
00000060: 83a8 e3bc d3ed 25bd 9976 7abc 399c 61bd
00000070: 1b40 b3bd 66ea 33bd cb72 ea3c 53b0 c53c
00000080: 2d49 9a3d a0a9 3dbd aa10 2dba 8743 b13d
00000090: 0671 7fbd edbe 9a3d ec1f 853d c673 f63c
000000a0: 686b 9abd ca81 11bd c642 8cbc f4ce 363d
000000b0: cd56 c43d 481f 843d 0868 8cbd 8361 90bd
000000c0: 198a bcbd 1ccf acbd 5d15 51bb a72e b4bb
000000d0: ecca a6bd f62a 8ebc f45a 913d 9614 10bc
000000e0: 0559 69bd 6398 7bbd 184b 3abc f97a 403d
000000f0: 4787 1f3a 7a84 c53d d6e7 d03c f791 92bd
00000100: 0c74 94bd 82f4 583d 9de2 93bd 97cb c93d
00000110: 823e 8abd fc4f 30bd edc4 8bbc 52e0 b53c
00000120: f93f e2bc e7b7 873d d103 83bd 5282 853d
00000130: 830a 22bd 5cda 323d 23af 143d 7d28 363c
00000140: 562b e3bc 294d 87bd e5dc bcbd 08de a83d
00000150: 6ca9 da3b 4459 0a3d 2e21 4b3c 14ec cc3d
00000160: 4a1e 22bd 95a2 b33d e1d6 46bd b124 dc3b
00000170: c579 48bd d7d0 89bd f30f 313d a4e7 973d
00000180: 8edb debc 1484 1abd 0f3f a03d be65 3ebc
00000190: 6b96 53bd 6bae 563d 2e0d 7ebc 6ce0 cebc
000001a0: 28dd a63d de8d fa3c 14b9 77bd 6fb0 283c
000001b0: e0a9 273d d38e b93d 04e2 b73d 499d 153d
000001c0: 406b bb3b 71e3 aa3d 16d9 97bd 544f 3c3d
000001d0: 221e 943d 3adf c9bd 24ea 9dbd 24c6 c2bd
